sbibm/tasks/slcp/files/num_observation_2/proposal.pt (torch, 333865 bytes, 83 tensors)

weight f4 [50, 2]
00000000: 70d2 0bbe 3fe7 17bf 9934 28bf d541 dabd
00000010: 33d2 2ebd 3e58 19bf 8db7 953e f446 aebe
00000020: 0898 cbbe b9f0 a03e feff b9be 08b2 02bf
00000030: 569d d03c 160d a13c 4bc3 1cbf 4277 4b3e
00000040: 170c bebe 2660 353e 4ac5 56be 89a5 633e
00000050: dcb3 b13e 684c fe3e 225c 2ebf 6e15 e93e
00000060: 04b4 7a3e c399 27bf d47e 123f f3a6 323f
00000070: 51b1 c2bd 7ed2 8ebe 94cc 033e f61d d43d
00000080: 4e69 df3e 8868 32bf d338 34bd 9ae6 063f
00000090: 2794 9e3e c38c 5ebd bfa7 b0be ba23 1fbf
000000a0: ac06 343f fc5d 1f3f de5d 523e 6f25 76be
000000b0: e46d 81be 7255 023f 6f88 053e a1fd 053e
000000c0: 1dd4 823e b68f a3be 8037 fd3e 5816 25be
000000d0: a104 0f3f e82e 64be e130 0cbe 5f61 1d3e
000000e0: 779e d33d b3a1 efbe c771 dc3d 4b07 203d
000000f0: 00cb 0f3f 4425 f93d b01e 163f 9b55 0cbf
00000100: 7fc1 2b3e 846a 0bbd 1bc2 233e 36ba 2cbf
00000110: cff7 adbe 6db1 84be 9a01 05be 589b 78be
00000120: f069 af3e f713 4dbe 9e83 373e 3352 283f
00000130: 7afc d43e f2f9 28bf c244 0c3f a8b4 05be
00000140: 7c8c 32be ad4f d3bd 9b39 fdbe 2c5b 23be
00000150: 070d 093e 2a48 153f 80e8 253f 1651 8cb9
00000160: ce10 b2be 1ff4 a83e abd9 acbe e612 04be
00000170: e57d d33e e593 823e 3af7 d5bc e814 563e
00000180: c6f0 263f 618d b73e 9c38 cc3e faa8 d7be
-0.13654494 -0.5933723 -0.6570526 -0.10657088 -0.04268093 -0.5990027 0.292416 -0.34038508
-0.39764428 0.31433657 -0.3632812 -0.51052904 0.025465649 0.01965956 -0.61235493 0.19869712
-0.371186 0.17712459 -0.20973697 0.22231115 0.34707534 0.49667668 -0.68109334 0.45524162
0.24482733 -0.65468997 0.57224774 0.69785994 -0.09506477 -0.27894968 0.12871009 0.10357277
0.4363503 -0.6969075 -0.043999504 0.5269562 0.30972406 -0.05433346 -0.3450298 -0.6216389
0.7032268 0.62252784 0.2054362 -0.24037717 -0.25279152 0.5091163 0.13040327 0.13085033
0.25552455 -0.3194558 0.49456406 -0.16121805 0.5586644 -0.22283518 -0.13690521 0.15369175
0.10332959 -0.46803054 0.10763889 0.039069455 0.5616913 0.12165311 0.58640575 -0.54818124
0.16773032 -0.034037128 0.15992014 -0.67471635 -0.33978125 -0.25916615 -0.12988892 -0.24278009
0.3426051 -0.20027147 0.17921302 0.65750426 0.41598874 -0.66006386 0.54792416 -0.13057196
-0.17436403 -0.10317931 -0.49458012 -0.15952748 0.13383876 0.5831324 0.6480789 -0.00026763295
-0.34778446 0.3299875 -0.33759817 -0.12897834 0.41306987 0.2550346 -0.026118863 0.20906413
0.6521114 0.3585005 0.3988694 -0.42121106

bias f4 [50]
00000000: 5312 e3be c8b8 d83e abb8 90be d81b 083e
00000010: 8939 f1be d26d a03e 655a 1cbf 9975 22bf
00000020: c842 c83e b5dd d3bd 28d3 20bf c6a3 0ebd
00000030: 0624 90be 7ee1 13bf b817 4e3e 575d 2a3f
00000040: 57fc 043f a9d4 373f 8882 48be 4182 1a3f
00000050: 0222 1b3e 6ee6 ddbe 5376 ac3e 1531 11bf
00000060: 299a 403f 1592 153f 4f04 94be 2dc9 233f
00000070: 03fd 3dbe e30d bfbd 44e2 073e 9d39 de3c
00000080: 5179 073e c1ac 2cbf 00e6 29bf 7dbf 8cbe
00000090: c9ce 143e 70b8 363e a108 d6be fe33 f3be
000000a0: 8f26 e33e 0e3e 3dbe 49d1 d9be d207 07bf
000000b0: 8f82 91bc a100 063f 275e 17bf 97a4 043e
000000c0: 6328 8cbe 60ec 1f3f
-0.44349918 0.42328477 -0.2826589 0.13291872 -0.47114208 0.31333786 -0.6107543 -0.6346069
0.3911345 -0.10345022 -0.628222 -0.034824155 -0.28152484 -0.5776595 0.20126235 0.66548675
0.5194754 0.7180887 -0.19581044 0.60355 0.15149692 -0.43339866 0.33684024 -0.5671552
0.7523523 0.5842603 -0.28909537 0.63978845 -0.18553548 -0.093288206 0.13269907 0.027127082
0.13229872 -0.674511 -0.6636658 -0.27489844 0.14532007 0.17843795 -0.41803458 -0.47500604
0.44365355 -0.18480703 -0.42542484 -0.5274631 -0.01776245 0.5234471 -0.5912804 0.12953411
-0.27374563 0.62470055

weight f4 [50, 50]
00000000: a886 363d 0fe0 bebc 2979 f83d 91ef 4d3d
00000010: 0875 08bd cfbf 96bd e175 9cbd d62d 01be
00000020: 76b7 d3bd 89f1 e5bc 567a cebd 6841 123e
00000030: 7506 9ebd 1dac 60be cd16 41bd b05c 8cbd
00000040: 9216 6b3d 514c c83d aace 863d 24ce bfbd
00000050: 2149 c23c 0026 923d 026d d3bd 5e58 e33c
00000060: e0d1 333e d026 983a 7c6e c63d 0640 c33d
00000070: 9066 bc3d 46f1 bf3c b305 123e 7134 31bd
00000080: 2caa 77bd 1646 d1be 347c 263e e0eb c73d
00000090: 89b0 e3bd adbb 1b3e 4881 edbd 15e6 1fbb
000000a0: 9a0d 3cbd de09 493b 1111 9bbd aa3c 4cbd
000000b0: 8d9c ba3d 6f3d 123d 6444 9abd 779b c53d
000000c0: c24e 9abc b718 a4bd 1fcd 343d d023 17be
000000d0: 0ac8 463e ad5a 393d 3960 0c3e 0281 64bd
000000e0: 6958 bc3d 9361 cc3d 5415 05be db48 003e
000000f0: edbd 1f3e d352 523d 76d7 273e 6885 bf3d
00000100: a937 6c3d b75a 173d df15 8c3d 5276 153d
00000110: 94da e0bd 6e2d 48bd f2ef 02bc 8b32 8e3d
00000120: 05b3 a43d 26ae eebd ece0 b73b b88f 5d3e
00000130: 48c7 c8bd ff24 5dbd 1f51 043e 361a 303d
00000140: ed8b bebd bb45 5abd 1bef 74bd 0a59 433d
00000150: 69eb bbbd db40 af3b e859 993d fc9a 203e
00000160: 9695 a03d 98ab 6dbe 38ea efbd e3c2 08bd
00000170: 8014 233e b03b d5bd 85f2 b63c 4e6e babd
00000180: d434 69bd 42ad 2e3e eb51 43bd a345 133e
00000190: 6bc4 a2bd 2eab a03d 4b98 0fbd 0e4e aabd
000001a0: 0949 13bd 3827 8e3d 830d 8ebb ca82 2abe
000001b0: feb3 3c3c 0d01 62bd 8867 f83c 9ec2 88bd
000001c0: edb9 36be f902 a1be 44bd 0abe 2555 163e
000001d0: 7074 223e 7f5a 47bd e20c da3d 0956 62bd
000001e0: 7f43 e03c ed2d 26bd 43d8 2bbd c9db c43a
000001f0: 5dd8 b3bd 0818 ac3d 71ca 2abd e8cb 373e
00000200: 37a4 8fbd b52a 2abd a951 a3be 4271 22be
00000210: 9be4 4cbe d9df bebe 86b9 9dbd ad2f aebd
00000220: febd 9a3d 2b25 e73a f522 fbbc 6052 18be
00000230: d631 aabd 391f 683d b2da e63d 02e2 f3bd
00000240: ad54 e0bd d944 153e 9e24 e5bd 28be 933d
00000250: 759e 92be 94c0 37bd a19d ccbd 2052 c9bd
00000260: 1863 e23d 8714 843d 66bd 183d 4e12 6c3d
00000270: d553 f33d ee41 81bc 34fd c63d 94b9 72bd
00000280: 797b 6abc 4dcc e63d d3b4 8abd a3d8 69be
00000290: de26 973d 7921 e93d b9b1 d53d ad08 58bc
000002a0: a136 fbbd 1e79 a33d 6f47 0a3e ae12 233e
000002b0: cc8d 49bd ed05 42bd 081e 2abc efac 863d
000002c0: abff 713d 7b69 0abe 8956 99bc 423a cfbd
000002d0: d87f aa3d b452 25bc 204f 3d3e 2313 243e
000002e0: 441a 623e b56e e43d af88 8abd 86f8 c3bc
000002f0: e4f6 c63a 975b 223c 25ec 8d3d 8b5d 16bd
00000300: bce8 683d 2a28 4bbe 945f 05be 01d3 933d
00000310: 068d adbe c5b2 c83d 905a fabd 7e59 ccbd
00000320: e6e6 2a3d 9d52 80bd 58da 1ebe 3722 373e
00000330: 49c9 cdbe e034 7cbd 7da9 bebd 9314 64bd
00000340: 248a eb3d 9614 26be d2e7 d6bd 0179 823d
00000350: 818a f9bd 7579 0fbe 3cb1 f13b 8c6b 6d3d
00000360: be82 893d 0112 30be 999e 40bd 2229 4d3d
00000370: e84e 4ebd a3d2 edbc aa9d 0bbe 72eb ecbd
00000380: e950 153e d3ba 0b3e f45b 8abd c806 103e
00000390: 71bf 4dbe a572 153e c3e3 0d3e 01d9 023d
000003a0: ae5c 74bd c5c3 81be b863 f2bd babc 67bd
000003b0: e023 cc3d af99 86be 16e2 8cbd a8f6 b4bd
000003c0: 149e 90bb 45b7 963d 39a4 30be 864f 2b3e
000003d0: d227 edbd a700 883b a546 1d3d 40d6 90be
000003e0: ce0f cfbc 4f39 1b3e eaf3 c3bd 6e9b fb3c
000003f0: f424 e13a c5d7 1d3d 49ef f83d 6a40 e93d
0.044562012 -0.023300199 0.121324845 0.050277296 -0.033314735 -0.07360803 -0.07639671 -0.12615141
-0.10337727 -0.028069275 -0.100819275 0.14282763 -0.07716075 -0.21940656 -0.047140885 -0.06853616
0.05739457 0.09780181 0.06582387 -0.0936549 0.023716511 0.07136154 -0.10323526 0.027752098
0.1756053 0.0011608247 0.09689042 0.09533696 0.0919925 0.023430478 0.14259987 -0.043262903
-0.060465023 -0.40873784 0.16258317 0.097617865 -0.11117656 0.15208311 -0.11596924 -0.0024398614
-0.04591141 0.0030676047 -0.075716145 -0.04986254 0.09111891 0.03570312 -0.07532576 0.09648793
-0.018836383 -0.080125265 0.04414093 -0.14759755 0.19412246 0.04525249 0.13708581 -0.055787094
0.091965504 0.09979548 -0.12996417 0.12527792 0.15599795 0.05134852 0.16390786 0.09351617
0.05767027 0.036951747 0.06840109 0.036489792 -0.109791905 -0.04887145 -0.007991778 0.06943234
0.08041958 -0.1165431 0.0056115296 0.21636856 -0.09803635 -0.05399036 0.1292157 0.042993747
-0.093040325 -0.053289156 -0.05979834 0.047692336 -0.0917576 0.0053483075 0.074878514 0.15684122
0.07841031 -0.23209989 -0.117145956 -0.033388983 0.15925789 -0.10411775 0.02233244 -0.0910307
-0.056935146 0.1705828 -0.047685545 0.14382033 -0.0794762 0.0784515 -0.035057347 -0.08315669
-0.035958324 0.06941074 -0.004335107 -0.16651455 0.011517523 -0.055176783 0.030322805 -0.06677745
-0.17844363 -0.3144758 -0.13548762 0.14680918 0.1586473 -0.04867029 0.106469885 -0.05525783
0.027375935 -0.040571142 -0.04195429 0.0015019114 -0.087815024 0.08403021 -0.04169697 0.17948878
-0.07013743 -0.041544635 -0.3189824 -0.15863517 -0.20009081 -0.37280157 -0.077014014 -0.08505187
0.075557694 0.0017634978 -0.030656317 -0.14875174 -0.08310287 0.0566704 0.112721816 -0.11908342
-0.109536506 0.14577045 -0.11188625 0.07214004 -0.28636518 -0.04486139 -0.09991003 -0.09830117
0.11054057 0.06449228 0.03729 0.057634644 0.11881224 -0.015778508 0.097162634 -0.059259012
-0.014311665 0.11269436 -0.06772771 -0.22836547 0.0738046 0.113833375 0.104342885 -0.013185662
-0.12266279 0.07982086 0.13503812 0.15925094 -0.049207494 -0.047368933 -0.010383137 0.06575953
0.059081715 -0.135168 -0.018718021 -0.10118534 0.083251655 -0.010090519 0.18487215 0.16022925
0.22080332 0.11153928 -0.067643516 -0.023922216 0.001517978 0.009909532 0.069298066 -0.036710303
0.056862578 -0.1983954 -0.13024741 0.0721798 -0.33896655 0.097997226 -0.12224305 -0.09978007
0.04172411 -0.06265757 -0.15512979 0.17884146 -0.4019263 -0.061573863 -0.09309671 -0.055683684
0.115009576 -0.1621879 -0.10493435 0.06370736 -0.12184621 -0.14011176 0.0073758643 0.057963893
0.0671439 -0.17194368 -0.04702625 0.050088055 -0.05036822 -0.029031103 -0.13634363 -0.11568345
0.14581646 0.13645487 -0.0675582 0.14065087 -0.2009256 0.14594515 0.13856415 0.031945232
-0.0596587 -0.25344673 -0.11835426 -0.056576468 0.0996778 -0.26289126 -0.0687906 -0.088361084
-0.0044133756 0.07359175 -0.17250146 0.16729555 -0.11579861 0.0041504684 0.03839745 -0.2828846
-0.025276091 0.1515858 -0.09568007 0.030713763 0.0017177151 0.038535852 0.12155015 0.11389239

bias f4 [50]
00000000: ff18 2b3d db2b 02bd b4e8 513e c7bb ad3c
00000010: ac97 7b3e 3c58 0bbe d98b 09be 4fbc 1b3e
00000020: 7927 17bc 0425 88bd 6fa7 15bc 06d4 2b3e
00000030: 8a4e ba3d 0c0a 4cbd c57d 213e 1b4d bf3d
00000040: 19b7 1b3e 3458 403e bf75 e43d 8927 30bc
00000050: b6f6 ccbd 7250 253e 66d1 bcbc 40e6 3dbd
00000060: 7cbf a43d e3ef 4ebd 82a6 693e 2221 80bc
00000070: 6c0f 333e 8c02 b5bd fe16 6cbd 6c2a f0bb
00000080: 444c 553e 9f50 bc3d c006 4e3e fa1d 2c3e
00000090: 4438 553b 3f0b 8d3c 9160 033e 289a 5f3d
000000a0: 0900 ac3d 53cd a6bd faac cf3d 1d44 f33d
000000b0: 5ad1 003e e653 5d3e 6bd0 dfbc b3b8 383c
000000c0: 2180 1f3d c999 1cbd
0.041771885 -0.031780105 0.20498925 0.021207703 0.24569577 -0.13607877 -0.13432254 0.15208553
-0.00922572 -0.06647685 -0.009134158 0.167801 0.090970114 -0.04981427 0.15770634 0.093408786
0.15206565 0.18783647 0.11155271 -0.010751613 -0.10007994 0.16143969 -0.023049068 -0.04636216
0.08044335 -0.050521743 0.22817424 -0.015640799 0.17486352 -0.088383764 -0.057639115 -0.007329276
0.20829874 0.09195065 0.20119762 0.1680831 0.0032534758 0.017217277 0.12829806 0.054590374
0.08398444 -0.08144631 0.101404145 0.11878226 0.12579861 0.21614036 -0.027321061 0.0112745045
0.038940553 -0.0382326

weight f4 [50, 50]
00000000: 722b 3a3d 5ef4 a5bd b0e0 473c aa4e 67bd
00000010: 5022 553d f87b 01bd 28d5 493d 69c3 debc
00000020: 610f 02be 0197 9cbb d8ae 09bb f165 ad3c
00000030: 9558 1fbd 82bd dfbc dc1b 35bd 6b06 8cbc
00000040: ac69 6f3c 1a2e fbbc 3c09 debb 0f5d 8abd
00000050: 27fb 3abb 8ca4 0b3d c5b0 0d38 ac15 883c
00000060: 8c8c 6d3d 261f 8cbd e009 e33d a8c3 d0bc
00000070: 19a0 863c ea7c cd3d adbc f3bc 9d37 9ebc
00000080: a69b 6d3e 57b7 b3bd 2151 2a3e 9b8d 8cbd
00000090: 3d4a 853b ccd6 2abc 2561 8abd 9dc6 4bbd
000000a0: 5343 20bd 73d2 e7bc dc59 7638 0a5a 723c
000000b0: 17ba 21bd 8401 3bbe 0d90 f4bd b542 643c
000000c0: 800a f0b7 3bcd edbb 6c52 8c3d e7c7 a53c
000000d0: f7fa ea3b b4d0 53bb 20b5 33bb 2805 51bc
000000e0: 67ab d6bc 07fb 353d 6135 05bb 15b2 8c3a
000000f0: de63 0bbc e772 2e3d e0b9 d5bb 2fe6 8d3d
00000100: 8314 0abc b7ee 813c 8023 153e 1b83 05bc
00000110: b5b1 3c3d f074 ecbc 2a1c e7ba 515c 243c
00000120: 9cf8 17b9 cf7b ef3d 1bfe e7bc 528c 2d3d
00000130: c888 4d3c a3de dd3c 8193 df3c 4626 263c
00000140: 542f 9e3d 5250 aaba 02c5 03bd 9c7c 0cbc
00000150: f50d 013c fc4e d9bd 431d 153c 3450 023a
00000160: 777e cdbc c57c 9c3d fcfb 6e3d f220 89bc
00000170: afc1 1d3a 9f57 ca3c 7eca 983d ab26 c2bc
00000180: e7f3 d93d fd59 a3bb 71bd 21b9 1ddf 373d
00000190: 377a f13c 6255 dc3c e558 093d 80c0 a83b
000001a0: 4365 11be 19b0 98bc 6425 51bc 6026 03bd
000001b0: 081c 03bd 7e2b 433d 57a8 d43d 77e5 8f3d
000001c0: 4813 063d afee 66bb 211e 183d ae5f bd3c
000001d0: 7a4c be3d 7594 6f3c cc71 8cbd d1b6 963b
000001e0: ce76 47bb 54bd 5b3d 19fd 1aba 3483 dabd
000001f0: a8ed 053c 0e3c 11bb daa7 273d 4a89 8b3c
00000200: 45ce 0a3d 044c 843d dc79 7bbd d485 41bd
00000210: c107 133e 5f0d c3bc 088b 8a3d b53d 0a3d
00000220: 3193 bcbc 48e1 d4ba df5c d3bc 4fa8 993d
00000230: 8ef8 0c3c b40e ea3d 7ddf 363a a0c1 323d
00000240: 8207 a53d 97d5 2abd 44d6 bf3d 210d 3d3d
00000250: bf15 8fb9 56e3 9ebd 282a 063e 7fb2 ea3c
00000260: 6c6b ca3d f5ef 1b3d a5a1 63bd 5d61 073d
00000270: a2c7 de3c 5b0f 243d 488f 963d 8e2e cc3c
00000280: 4ec6 0d3d 17bd 203d 358b f9bc 391b 273d
00000290: 3537 f53c 342a 7a3d 5cf3 0a3e ee0d 953d
000002a0: 46b8 703c fc94 273d c2a4 1fbb 11ed af3d
000002b0: e2a9 213a b56f 143e 2fbd bf3c 5d55 8e3d
000002c0: 3afb 99bb a852 5e3d 5255 f03c 3d53 c03d
000002d0: 524f 383d 49f2 573d c61a 003e 2d42 2e3d
000002e0: 678a 303d 4018 773d b437 393d 4411 773d
000002f0: 774e 903c 344f be3d 02bf 393d 71e9 333c
00000300: d4f1 6bb9 0374 163d 547e c03d 5829 58bc
00000310: 7ba4 813d f52b 6d3d 92bd 72b9 d6a2 913d
00000320: e270 1bbd 259a 173d 767f 7abc 1f33 8ebc
00000330: b958 ec3d c502 1bbd 3ce3 d63c 967b 26bd
00000340: 7a6e 85bb daa1 973d 60c5 513d 88b0 1dbc
00000350: 3342 57bd 142e e93c a262 e93c 033b 8abc
00000360: cfe6 833c 2a26 d23d face a93d 702b 843d
00000370: 2715 03bb 2b01 c1bc 5d8d 97b9 23ac 173c
00000380: 7aff bc3d 7d2a 5b3a aa96 e13d 349e 79bc
00000390: d189 c4bc 38a6 b93c e215 1b3d 4584 36bc
000003a0: 2851 eb3c b0a0 aabd 8c30 303e 3677 e9bc
000003b0: ab24 12bd 93a7 09bd 63cb aebb 54d7 fa3d
000003c0: 41bd c7bc f1fe 0f3e cde6 c939 5b87 2cbd
000003d0: 6fd8 ee3d 3099 39bd 2aa6 963d b213 ed3c
000003e0: 59ab d7b9 ffd0 dc3d 5503 93bd 1f5c febd
000003f0: 37b1 d7bd a8a2 c0bd a8df 04be 53c6 b5bd
0.04545159 -0.0810325 0.012199566 -0.056471504 0.052034676 -0.031612366 0.049275547 -0.027192788
-0.12701179 -0.0047787433 -0.0021008756 0.021166774 -0.038902838 -0.027312044 -0.044216022 -0.017092904
0.0146125965 -0.030661631 -0.006776003 -0.06756031 -0.0028531046 0.03409247 3.378165e-05 0.016611896
0.057995364 -0.068418786 0.11085868 -0.025483921 0.016433762 0.10033591 -0.029753054 -0.019313628
0.23203906 -0.08775204 0.1663251 -0.068629466 0.004067688 -0.010427188 -0.0675681 -0.04974996
-0.039126705 -0.028298592 5.873466e-05 0.014791975 -0.03948411 -0.18262297 -0.11941538 0.01393192
-2.8615119e-05 -0.0072571314 0.06851658 0.020236922 0.0071710306 -0.0032320442 -0.0027421191 -0.012757577
-0.026204778 0.04442885 -0.0020326006 0.0010734225 -0.008507697 0.04259005 -0.006522402 0.0692867
-0.008427742 0.015860898 0.14564323 -0.008148934 0.046067912 -0.028864354 -0.0017632295 0.010031776
-0.00014493096 0.116935365 -0.02831941 0.042370148 0.012544818 0.0270837 0.027292015 0.010140961
0.07723871 -0.0012993908 -0.032170303 -0.008574631 0.007876863 -0.10610768 0.009101215 0.00049710576
-0.025084717 0.076409854 0.05834578 -0.016739342 0.0006017936 0.024699984 0.07460497 -0.023700079
0.10642224 -0.0049850927 -0.00015424729 0.04489051 0.029477222 0.026896182 0.033532042 0.005149901
-0.14198785 -0.018638657 -0.012765262 -0.03201902 -0.032009155 0.0476489 0.10383671 0.07026189
0.03273323 -0.0035237481 0.03713811 0.023116913 0.092919305 0.014622797 -0.068576425 0.00459943
-0.0030435803 0.053647354 -0.0005912348 -0.10669556 0.008174337 -0.002216104 0.04093156 0.017033238
0.03388812 0.06459811 -0.06139551 -0.04724677 0.14358427 -0.023810087 0.06764799 0.033750255
-0.023019405 -0.0016241455 -0.02580112 0.075028054 0.008604182 0.11428586 0.00069760514 0.043641686
0.080580726 -0.0417076 0.0936704 0.0461551 -0.00027291288 -0.07758205 0.13102019 0.028649567
0.0988377 0.038070638 -0.055574078 0.033051837 0.027194802 0.040053707 0.073515475 0.024924543
0.034612946 0.03924283 -0.030461887 0.040797446 0.029933551 0.061075404 0.13569397 0.072780475
0.014692372 0.040913567 -0.0024359678 0.08590139 0.0006166977 0.14495738 0.02340564 0.069498755
-0.004699138 0.054278046 0.029337559 0.093908764 0.04499752 0.052721296 0.12510213 0.04254358
0.04310074 0.06032586 0.04521914 0.0603192 0.01761554 0.092924505 0.045348175 0.01098095
-0.00022501434 0.03673173 0.09399095 -0.013193451 0.063302 0.05790325 -0.00023149539 0.071111366
-0.03794945 0.037012238 -0.015289178 -0.01735836 0.1154036 -0.037844438 0.0262314 -0.040645204
-0.0040720077 0.074039176 0.051213622 -0.009624608 -0.052553367 0.028464355 0.028489415 -0.016873842
0.016101269 0.102611855 0.08291431 0.064535975 -0.0020001621 -0.023560127 -0.00028906288 0.009257349
0.09228416 0.0008360518 0.11015065 -0.0152354725 -0.023991497 0.022662267 0.037862666 -0.011139934
0.028725222 -0.0833143 0.17206019 -0.028499227 -0.0356795 -0.033607077 -0.005334304 0.12248102
-0.024382235 0.14062096 0.00038509668 -0.042121273 0.11662375 -0.045312107 0.07355912 0.028940056
-0.0004113566 0.1078205 -0.0717837 -0.124199145 -0.10531848 -0.09406024 -0.12975943 -0.08875718

bias f4 [50]
00000000: fb40 2cbc 215e 9f3c 0204 1e3d 6ace ef3c
00000010: 15a8 c1bc fc4f 9ebd 77ca 07bd 563e 4c3b
00000020: c057 ef3c e118 34bc adec 43bd e519 163d
00000030: 7f5c 24bd cc99 6d3d 847e 1c3d f065 033d
00000040: 85dc 43bc 6c1f 973b a8dd 58bd b3d1 873d
00000050: 4a42 d5bc 7fc3 44bd 5dfd 4f3c 95c8 f739
00000060: b3d2 7e3c 08bb b93c 41dc dfbc 1b98 0d3c
00000070: a0e5 cabc f27f 723b 62fc 203d 70b0 263c
00000080: 2e85 f4bc 65d1 4cbd c61a ce3c 4acc 0b3d
00000090: ad0a 413d 9312 c43c e839 8ebd ca10 2ebc
000000a0: 3e12 6ebc b6bd 05bd 36a1 9fbd 523e 80bc
000000b0: 4fe1 86bd 011e fcbc a0fd 33bd 47f1 853c
000000c0: 1dc2 cebc 820a 7a3c
-0.010513539 0.019454064 0.03857804 0.02927323 -0.023639718 -0.077300996 -0.03315207 0.0031165085
0.029216647 -0.01099226 -0.047833133 0.03664579 -0.040127274 0.058008 0.038206592 0.032079637
-0.011954431 0.0046119 -0.052945763 0.06631794 -0.026032586 -0.048038002 0.012694684 0.00047260956
0.015553164 0.022672191 -0.027326705 0.008642222 -0.024767697 0.003700253 0.03930319 0.010173902
-0.029848661 -0.05000438 0.025159251 0.034130372 0.04712932 0.023934638 -0.069446385 -0.01062412
-0.014530716 -0.032651626 -0.077944204 -0.015654717 -0.06585943 -0.030776026 -0.043943048 0.016350402
-0.025239045 0.015261294

weight f4 [50, 50]
00000000: d119 b4bd dc39 dcbd 7ebc c03d 8a70 9abc
00000010: 271f 1abe 9d14 0a3d 1f7d 4fbd 2011 51be
00000020: f516 c13d 9fca 10be 8cc2 0ebc 660f be3d
00000030: 9d05 353e 6ad5 85be 7008 413d 3f86 763d
00000040: 7683 0c3d 3a57 043e 4709 133e 2c63 073e
00000050: b080 ddbd cfe4 003e ffbe 103e ce3e bb3d
00000060: 2482 6e3c b429 8dbc fa13 0c3d 3d89 2ebd
00000070: d9e7 81bd 9c35 aabd 1fb3 08be 4c54 07bd
00000080: 7222 1d3d ee4b ad3e 4b21 8bbd be8c 173e
00000090: 8533 903d 3b52 29be dcf8 393e 5996 613e
000000a0: 3192 3f3d 178a 2fbd 82ce 0cbf 4370 003e
000000b0: 53d6 1fbe 07fb 8c3d 57de c0bd efd0 f9bd
000000c0: 6e1f a53d 129e 123e b890 bb3a 4f17 a0ba
000000d0: c49b a63c be13 db3d a027 14bd fecd 043e
000000e0: 824f d53d 2d75 513d 0aea bfbb 781d ebbc
000000f0: b931 c93d 2bcc e4bd 7bef 40be 0c9b f93a
00000100: 516d 1d3d 6be9 8fbd 87ca 193e a13a 2e3e
00000110: 8de5 083e d456 db3d 552d fdbd 3f8d fd3c
00000120: 9bb0 01be 9828 0bbe 555f 373e deff 93bd
00000130: 67e1 edbd c4bb 073e a158 9a3c dd20 72bc
00000140: eb3a 49bd 92e3 67bd 4e17 a13c 7b93 2a3e
00000150: 6dcd 42be a9b5 1cbd 9fc0 aebd aa65 0b3e
00000160: b9c9 a4bc 7029 18bb 8ec0 0c3e 47c9 64be
00000170: ebd4 503e 5cb9 263d 9083 26be 6b26 8a3d
00000180: d231 03be 82ff 9cbc 09c7 b43d 91f6 3dbd
00000190: 0893 8ebd af83 4ebd 4fe2 5a3c ea3b 363e
000001a0: 8483 043e 3989 8fbc 96c8 f03d 327f 093e
000001b0: 9cd6 82bc 6e05 1cbd 2ebc e6bb 0786 29bd
000001c0: 3415 86be 5b6a 05bc 7daf 2abe 8212 d83d
000001d0: 7e4e 1d3d dd8f ee3d 7be7 f3bd 8a5e 02bd
000001e0: b493 bcbd d88b 9a3c 0d62 653d 5ba3 d7bd
000001f0: 2da7 383c 5e9f f6bc e208 9abc 71da 9bbd
00000200: 76b3 80bd 740d b3bd fbb5 653e e2aa 033e
00000210: 1953 013e 46e5 36be ff5b d83d 1c99 8d3b
00000220: 76a7 a83d 9c4f 4ebd bd8e 07be fa9c 2dbe
00000230: 3dae 093b bc6b d53d 8fde 39be 1f45 ab3e
00000240: f5a9 7dbd 0527 2abc a6f5 16bd a774 103d
00000250: f00d 09be 2441 d5ba 3588 d93d 9b1b 903d
00000260: e4fb b63d 21a9 053e 6235 2ebe edbe 2cbd
00000270: cd72 81bd 286d 04be 06d1 dd3d 4466 343d
00000280: 83a0 68be e5a4 bb3d 3345 a3be aff6 f73d
00000290: f8c9 b3bd c423 b6bd 54f7 42be e7f5 7ebd
000002a0: 92f2 843e 1c73 c13c 63cd 1c3e 5632 f9bd
000002b0: d358 a93c d182 0f3e 72f5 4e3d 7853 c83d
000002c0: d44b 933d b7a8 f03b f2c7 f3bd 87cd 263d
000002d0: e98a 553e e29d 6dbe 8bf4 853c d2c9 60be
000002e0: e316 363d d1cb e0bd 1c12 bd3c 5fc8 483d
000002f0: 697f 45be df6b 173e 07e4 abbd df30 1e3e
00000300: 4a39 b5bc 28f5 d23e 196d ad3d 27ca b23d
00000310: 5bfd 463e 63d4 9dbd a652 593e 7b4e 9e3c
00000320: 7286 adbd ef4a d83d fda6 2a3d 9cb4 07bd
00000330: 2701 c43c a9c2 a23d d745 d1bd fa48 123e
00000340: 9a66 713d edbb e13d e22e 15bf b633 e1bd
00000350: 2929 85be a8f4 163d ddfa 6abd 7e48 b93d
00000360: 81c5 3e3d 1e2f c9bb cf7d f53d 195b 2a3e
00000370: 91b0 9ebd b68b 03bf 5f25 97bc 053e 993d
00000380: 12c4 5e3e 81c0 54bd b2dc d8bd 2026 75bd
00000390: e1d8 1f3d c578 66bd 9788 2abd 1b81 a7be
000003a0: 0e6c 1e3e f84c 1ebf 524b 49be 0723 e5bd
000003b0: 1482 f0be fbf6 8d3b a6b3 ccbe 689a 55bd
000003c0: 8d87 e7bc 4ed4 74be 55c9 56be 919e ba3b
000003d0: 1112 25be bad2 f93d 4866 1abe a2f4 323c
000003e0: b8e4 66bc 1049 b2be 4670 5bbc 3ace f23d
000003f0: 6b88 3fbd 684d 263e b823 64bc b47e c9bc
-0.087939866 -0.10753223 0.09410952 -0.018852491 -0.15050946 0.033711065 -0.050656434 -0.20416689
0.09428207 -0.14139794 -0.008713376 0.09280281 0.17677923 -0.26139385 0.047127187 0.06018662
0.03430506 0.129239 0.14359008 0.13221425 -0.10815561 0.12587284 0.14135359 0.091428384
0.014557395 -0.0172318 0.03419874 -0.04261135 -0.063430496 -0.083110064 -0.1334958 -0.033039376
0.038362928 0.33846992 -0.067934595 0.14799783 0.070410766 -0.16535275 0.18161339 0.2203001
0.04677028 -0.042856302 -0.55002606 0.12542824 -0.15609102 0.06883817 -0.09417408 -0.12198054
0.08062635 0.14318112 0.0014310097 -0.0012213978 0.020337947 0.10697125 -0.0361706 0.12969205
0.104155555 0.05113714 -0.005856757 -0.028700575 0.09823937 -0.111717544 -0.18841355 0.00190434
0.03843433 -0.07026943 0.15018664 0.17014553 0.13368817 0.107099205 -0.12362162 0.03095114
-0.12665026 -0.13589704 0.1790746 -0.07226537 -0.11615258 0.1325522 0.01884109 -0.014778343
-0.049128454 -0.056613512 0.019664433 0.16657822 -0.19023676 -0.038259182 -0.08532833 0.13613
-0.02011572 -0.0023218058 0.13745329 -0.22342406 0.20393722 0.040704116 -0.16261125 0.06745609
-0.12811974 -0.019164804 0.088270254 -0.046377722 -0.06961638 -0.050418552 0.01335962 0.17796293
0.12940794 -0.017521488 0.11757009 0.13427427 -0.015971474 -0.038091116 -0.0070414757 -0.041387584
-0.26188052 -0.008143033 -0.16668506 0.10550405 0.038404934 0.116485335 -0.11909386 -0.03182844
-0.0920786 0.01886551 0.05600171 -0.105292045 0.011270327 -0.03010529 -0.018803064 -0.07610024
-0.062842295 -0.087428 0.22432701 0.12858155 0.12629355 -0.17860898 0.10564422 0.0043212306
0.08235066 -0.05036889 -0.13238044 -0.16954413 0.0021008395 0.10420939 -0.18151306 0.33451173
-0.06192966 -0.01038528 -0.036855362 0.0352675 -0.13384223 -0.0016270024 0.106216826 0.07036515
0.08934763 0.13052799 -0.17012551 -0.04217427 -0.06320725 -0.12932265 0.10830884 0.04404284
-0.2271748 0.091623105 -0.31888732 0.12107598 -0.08778757 -0.088935405 -0.1903966 -0.06224623
0.25966316 0.023614459 0.15312724 -0.12167804 0.020672238 0.14014746 0.050527044 0.097815454
0.071921974 0.007344331 -0.11903371 0.04072335 0.20853771 -0.23204759 0.016351959 -0.21951988
0.04445542 -0.10976375 0.023079924 0.049019214 -0.19286884 0.14787243 -0.08393102 0.1544833
-0.022122044 0.41202664 0.08468074 0.08729964 0.19432585 -0.07706525 0.21222934 0.019324532
-0.08472909 0.105611674 0.04166316 -0.033131227 0.02392633 0.07947285 -0.10218399 0.14285651
0.05893574 0.11022172 -0.5827466 -0.10996191 -0.26007965 0.036854416 -0.057368148 0.0904703
0.046575073 -0.00613965 0.11986887 0.16636313 -0.07748521 -0.51385057 -0.018450437 0.074825324
0.21754482 -0.0519414 -0.10588969 -0.059850812 0.03902519 -0.05626752 -0.04163417 -0.32715687
0.15470907 -0.61836195 -0.19657639 -0.111883216 -0.46974242 0.004332421 -0.3998081 -0.052149206
-0.028262878 -0.23909113 -0.2097524 0.005695172 -0.16120173 0.12198396 -0.1507808 0.010922583
-0.014092617 -0.34821367 -0.013393467 0.11855741 -0.046760958 0.16240466 -0.013924532 -0.02459655

bias f4 [50]
00000000: d464 f23d 47f9 94bd 54d8 7d3b f6c6 ee3c
00000010: 0bcc 443e ccb1 8ebd ad97 073e f5f4 043e
00000020: 11c1 5fbd 6d2f 883d 90bf 483d 694c 5e3d
00000030: d232 2b3e 6182 d43d 5605 603e e4f0 bc3d
00000040: 2913 97bd 4a4b 6f3d b1ce db3d 70ff be3d
00000050: b17b b33d c5e5 123e cab0 013e 10d0 e7bd
00000060: 22b3 e03c 6a50 583d dc9d 003e d166 373d
00000070: 7456 293e 71ee 273d d05f 583e 570f 193e
00000080: 9735 3fbd cfb0 53bd 5e13 4c3e 2838 693d
00000090: 9d10 2abd 7d3f 0ebe e9bb 163e 5eb3 523e
000000a0: d9af 333e 4f3c 54bd dc28 603d ebda 423d
000000b0: 2d21 b0bc 9f87 e6bc 69e4 f03c 13a2 923d
000000c0: be56 6c3e bf62 123e
0.11835638 -0.072741084 0.0038733678 0.029147606 0.19218461 -0.06967506 0.13241453 0.12984069
-0.05462748 0.06649671 0.049010813 0.05427209 0.16718605 0.1037643 0.21877035 0.09225634
-0.073767014 0.05842141 0.10732783 0.093260646 0.08763827 0.14345463 0.12665096 -0.11318982
0.027429167 0.052811064 0.12560219 0.044775788 0.16536885 0.04099888 0.211303 0.14947258
-0.046681967 -0.05168229 0.19929263 0.05693832 -0.04151975 -0.13891406 0.1472012 0.20576236
0.1754755 -0.051815327 0.054726467 0.047572058 -0.021500194 -0.028140841 0.02940579 0.071598195
0.23079965 0.14295481

weight f4 [50, 50]
00000000: ce2d f0bd 0014 2c3d 144f 453d c54f 3a3d
00000010: 9a5b 143e 1bc8 ad3d 5cea a73d 9636 6d3d
00000020: 1811 083e ad47 613d 487d 433c 007f 7bbd
00000030: 3f87 ae3c 8111 c1bc d421 ef3d 08e5 2c3d
00000040: c577 83bc 2a6a ad3c f5c4 793c 7e74 e43a
00000050: 54f7 94bb 50cc 5d3d 00cd c83d d8b7 e6bc
00000060: b49f 25bd 0311 523c 8ddf 5b3d 84e4 a73d
00000070: 562a b03b c18b d73d 6eb0 fabb ab3f 403d
00000080: ed0d 97bd 93b1 dabc 52d4 93bd 8031 fb3a
00000090: abb9 0a3e c6ab f13a c841 553c af7a 77bd
000000a0: 2b48 7c3d 3132 73bc 6200 e8bc 6643 c93d
000000b0: 3bc6 0cbe 91fd 2f3d aff9 653a fb4a 1cbd
000000c0: 1cdf 60bd 9c6e ca3b 588e 133d f980 623c
000000d0: ff86 11bd 54a5 04bd 2f17 363c ffc2 0c3c
000000e0: 8ddf 543c 9f88 6c3d 110b f2bb 1cba 3abc
000000f0: 913c 083c 25ca 953d 66ec 783c 8ac5 163d
00000100: 747c 2d3d fd44 8d3c a022 863d eb82 b33c
00000110: a448 003c 508e 5c3d 343d f03b b84e ccbc
00000120: c788 a23d fee9 b23d 9fd1 2c3e a01e ad3c
00000130: 0e14 0cbd a5a8 cbbc 006b 6d3c 9982 55bb
00000140: c02e 033d ea59 ec3c 27c2 8239 e475 863c
00000150: a889 993d a63b 383b 5c84 99bc e8a7 813d
00000160: 5095 b4bd 6a6a 2e3c 102b ebbb 503d d13d
00000170: e4b9 473d 13b8 54bd 6dda 10be e587 073d
00000180: 2ade b539 640b 963d 5de1 a2bb 91bd 203c
00000190: 731d 91bd f1da 83bd 0315 873d 8621 413e
000001a0: 7fed be3d 6d7d c83d 75fd 943d cdc0 ca3d
000001b0: 3952 8c3d 4982 243e aff0 6e3c 5343 a53d
000001c0: a9cc b8bd 0963 263c 060c e03c f861 b13d
000001d0: fec7 b7bd 76bc e53d dc81 833d 6485 8d3c
000001e0: ef80 7e3d 1773 9b3c 3c73 70bc f5d1 6a3c
000001f0: cbe3 89bd f319 fdbc b2cc 2c3d 8b9e a03d
00000200: e140 4c3d 2c29 9c3d a920 aebd bef4 af3d
00000210: 89c8 63bd 5a35 30bd 9adc 5ebd 45bc 45bb
00000220: 4448 0d3e 3b8f 973c 7d80 223e de88 0cbd
00000230: cf76 3d3c 85dd 623c 3303 40bd 9a6f cf3d
00000240: 3833 b8bd 8f72 163d c5b0 0039 8e5d fbbc
00000250: 8dc0 203d ac0d 1b3c acb5 a93d 0053 803d
00000260: 9077 93bc 5050 2f3d 53a4 24bb d7ec 1e3d
00000270: 994f 0a3c 60e2 193d f7ca 6e3c 07b9 793c
00000280: da5b 1cbc 8ea4 a13d f78d 123d e6ca 67bc
00000290: d3cf 5cbd 5bad 163c 2c89 7e3d ed22 c73c
000002a0: 754f 30bc d676 263c efdf a4bc 3285 6f3d
000002b0: dd52 d8bb 7a00 293d 5cac 013d cf55 e63c
000002c0: ceb9 a93c 2a78 81bd b3a0 3dbd ae6d a53c
000002d0: dacb fdbb 9388 a33c 2989 6e3d 91e1 283d
000002e0: 49dd b6bd ed32 23bb fec9 56bc 9126 703d
000002f0: 3e8a a8bd 03a6 883d c55a ac3c 07de 9c3d
00000300: 5918 08bd 977a d7bc 9e59 0d3e 7f86 123d
00000310: 970b 81ba 2e1e 8f3d 8ed3 ffbd 272b 4d3c
00000320: 3923 e0bd c8c3 9d3b 03bb 3d3d 584e 923d
00000330: e485 af3d 0960 893b 5703 803a 7599 af3d
00000340: 154c 873d ec95 d03d bac4 c0bc 5a97 a5bd
00000350: d8df 793d 30b8 693d 98e0 9c3d 964d 433d
00000360: fb9f a3bd 320f 723d dd5d 23bc 9d54 253d
00000370: c9a7 61bc 065e f939 2424 693c bef4 9f3b
00000380: 34b9 0fbe cdb1 2dbc c95f 993d 3001 da3d
00000390: dd65 b13c 3228 633d 2790 853d 24b6 453c
000003a0: a83a 6fbd 3453 22bc cbe7 33bd 8d08 343b
000003b0: 2bf4 a43d 6879 b6bd 97b2 343d 221f bebc
000003c0: a763 183c 40a7 52bd fe33 f1bb bd8f 84bc
000003d0: 19fa 31be 59c3 8a3b c71f d939 5da4 a8bd
000003e0: 4d8b bb3c 9b91 403b b7a0 7dbd 8d0c 57bc
000003f0: af1d b9bd ca61 53bd b787 89bd 8de9 47bd
-0.117274866 0.04201126 0.048171118 0.04548623 0.14488068 0.08485433 0.081989974 0.057913385
0.13287771 0.054999996 0.011931725 -0.061400414 0.021304725 -0.023567917 0.11676374 0.04221061
-0.016048322 0.021168787 0.015244712 0.0017429737 -0.0045460854 0.054149926 0.09804726 -0.028163835
-0.040435508 0.012821439 0.05367999 0.08197883 0.0053761406 0.10524703 -0.0076504266 0.04693572
-0.07375703 -0.026696002 -0.07218231 0.0019164532 0.13547389 0.0018438033 0.013016172 -0.060419735
0.061592262 -0.0148435095 -0.028320495 0.09827308 -0.13747494 0.04296643 0.00087728625 -0.038157444
-0.054900274 0.0061777364 0.03602442 0.013824695 -0.035529133 -0.03238423 0.011113926 0.008591413
0.012992752 0.05774748 -0.007386573 -0.011396911 0.008315221 0.07313947 0.0151930805 0.03680948
0.042355016 0.01724481 0.06549573 0.021913012 0.007829819 0.053846657 0.0073315147 -0.02493988
0.079362445 0.08736037 0.16876839 0.021132767 -0.034198813 -0.02486069 0.014490843 -0.0032579063
0.032027006 0.028851468 0.00024940187 0.016413637 0.07496959 0.0028111725 -0.018739872 0.06330854
-0.088175416 0.010645488 -0.0071767643 0.102167726 0.048761263 -0.05193336 -0.14145823 0.033088583
0.00034688535 0.07326391 -0.004970713 0.009810821 -0.07085695 -0.06438244 0.065958045 0.18860444
0.093226425 0.09789548 0.072749056 0.09900055 0.0685162 0.16065325 0.014583751 0.08069482
-0.09023411 0.010155448 0.027349483 0.08661264 -0.08973692 0.11217587 0.06421253 0.01727552
0.06213468 0.018975778 -0.0146759115 0.014332284 -0.06732901 -0.030896163 0.0421874 0.0784274
0.04986656 0.076250404 -0.08502323 0.08591603 -0.055611167 -0.04301963 -0.0544096 -0.0030172032
0.13797098 0.018500915 0.15869327 -0.034310214 0.011563971 0.01384676 -0.04687805 0.10128708
-0.08994144 0.036730345 0.00012272883 -0.030684259 0.03924613 0.009463709 0.08286604 0.06265831
-0.018001348 0.0428012 -0.002512236 0.038800087 0.008441829 0.037569404 0.014574758 0.015241868
-0.0095433835 0.078927144 0.03577992 -0.014147496 -0.053909134 0.009196605 0.062142536 0.024308646
-0.0107611315 0.010160169 -0.020126311 0.058476634 -0.006601675 0.04126022 0.031658515 0.028117089
0.020718481 -0.063217476 -0.046295833 0.0201939 -0.0077452483 0.019962585 0.058236275 0.041230742
-0.089289255 -0.002490218 -0.013109682 0.05863053 -0.082294926 0.06672289 0.021039376 0.07659536
-0.033226345 -0.026303573 0.13803717 0.035772797 -0.0009845373 0.06988178 -0.12491523 0.012522495
-0.10944218 0.0048145987 0.046320926 0.07143849 0.085704595 0.0041923565 0.000976662 0.085741915
0.06606308 0.10184845 -0.023531307 -0.08085509 0.06100449 0.05706042 0.07660025 0.047681414
-0.07989498 0.059096523 -0.009971109 0.040363897 -0.013772913 0.00047563034 0.014229808 0.0048814705
-0.14035493 -0.010601473 0.07488973 0.10644758 0.021655018 0.055458255 0.065216355 0.0120673515
-0.05840555 -0.0099075325 -0.043922227 0.0027470917 0.08054384 -0.08909875 0.04411563 -0.023208205
0.009301103 -0.051429033 -0.0073609343 -0.016181821 -0.17380561 0.004234713 0.0004141314 -0.08234475
0.022893572 0.0029383663 -0.061920848 -0.013125551 -0.09038865 -0.05160693 -0.06715339 -0.048806716

bias f4 [50]
00000000: bcc2 193c 54b9 8c3b 4265 393d 818a e2bc
00000010: 723c a3bc 573b 33bd a14e 0bbd 2495 2abc
00000020: 8ac8 0e3d 9dd5 0b3c b690 343c f297 1b3d
00000030: d1ad 49bc 82af b03c ee92 d03c c353 cd3c
00000040: 9599 2cbc 72e1 8cbc 1975 3fbd 549c 1c3a
00000050: b4c9 673b 4637 9a3c 2738 cd3c 2dcf 073b
00000060: 5678 a03c 55e0 e6bb 98ce b4bc 437b 143c
00000070: c65c 9fbc ec23 623b f753 acb9 7a82 3ebc
00000080: 89a8 f8bc 9f91 58bd d2ca 963c 51b4 f03c
00000090: 0400 443d 893f 0b3c ff19 09bd 6b6e 11ba
000000a0: 4e4d f4bb 1a2c 17bd 0ff2 8bbc 0b63 86bc
000000b0: 97a7 27bd e82a 5cbc 2c50 bbbc ad1f 3bbb
000000c0: fc9f 8abc d7ba df3c
0.009384807 0.004294554 0.045262583 -0.027653934 -0.019926284 -0.043757763 -0.034010533 -0.010411534
0.034859218 0.008534816 0.01102083 0.037986703 -0.0123095075 0.021568064 0.025460687 0.025064355
-0.010534664 -0.017197344 -0.046742532 0.00059742224 0.0035368027 0.018825185 0.02505119 0.0020722852
0.01958863 -0.0070457854 -0.022071168 0.009062591 -0.019453418 0.0034506274 -0.00032868955 -0.011627788
-0.030353801 -0.05287325 0.01840726 0.029382857 0.047851577 0.008499035 -0.033472057 -0.00055477646
-0.0074555045 -0.036907293 -0.017083196 -0.01640465 -0.04093131 -0.013437964 -0.022865377 -0.0028552816
-0.01692199 0.027310772

weight f4 [87, 50]
00000000: 917b 363e e1a0 283d c104 35bd 4f6a 843c
00000010: b175 9b3d 689d bf3d 0dd3 a03c 23f2 5abc
00000020: 82e7 9f3d 1e1d c0bb 9ac0 9fbd 8250 58bd
00000030: 2cb1 84bd 84b9 b03d 6332 d9bd 705b e03c
00000040: 4d7f 1a3e 2017 f63d 03fc 993d 556e 33bc
00000050: b48b 8c3d 4f6b b43d 99bd b13d e56d 243d
00000060: b2b3 0f3e 703d 1a3e 8e01 c2bd 93c2 afbd
00000070: cf09 293e 14f5 fe3d 5c40 023e c778 cabd
00000080: ae92 01bd a061 f4bd 8530 14bd 162c d53d
00000090: f184 cb3d c199 e2bd 8fe3 95bd 07c4 82bc
000000a0: e687 a2bd e93e 4cbc 6abb 3a3c 772a d83d
000000b0: 4971 47bd 797f 50be 197f db3d 8f0d e6bd
000000c0: e195 84bc fb16 adbd 3950 d9bd 6cd8 96bd
000000d0: f4c0 01be dfa4 4dbd 3919 d83d 966b f13d
000000e0: 9b3e a9bd 5999 143c 2930 0abd 494b 1bbd
000000f0: 0c63 0dbc 74e2 36bc 5104 89bd 024b ccbd
00000100: eec4 cdbc ba02 2fbe 86fe c9bd ac17 d63b
00000110: 5f9e 8b3c d3db 88bc c681 9b3d d050 6c3d
00000120: 406e 25be 2093 523d 5029 42bd 4c66 08bc
00000130: 73b8 d33d 6388 f03b 58b6 473d 5dd5 033e
00000140: e9b3 c83d 2e53 b73d d8fa 813d 90fd 18bc
00000150: 64cd 8ebd 90c0 3d3d 808e 0ebc c306 c43c
00000160: 83f1 ed3d b39a 1c3e f5b2 5b3c 11d4 3c3e
00000170: 8239 153e 0076 fb3d 062a 4dbd 9255 3bbd
00000180: 1e08 8b3d 3262 cb3d ada3 9e3d 5b93 973c
00000190: b93b 6fbd 4d7b d53d cf93 adbd b1f4 f0bd
000001a0: 05b1 0dbe 92cc e13d 34c3 36bc b62a 9abd
000001b0: 2f82 11bd 5b74 1a3e c44b 0bbe 0b7b b7bd
000001c0: 98d5 d03d d1ec 1ebd 6413 1dbe c9a0 3f3e
000001d0: ad96 e63d 7921 c2bc 9303 febd 1a1f efbc
000001e0: 626f c93d bcdf bebd 2932 e63d 34b3 07be
000001f0: e546 c13b 3327 d63d af50 debd 064f 4c3d
00000200: 4e30 34bd 80d0 b7bd ec17 1abd 62a0 c7bd
00000210: 3140 7d3b e510 e2bd 3b5a b5bd 4a6b febc
00000220: f585 8dbd 3e6c f4bc a767 39bd 730e 06bd
00000230: 5a45 83bd 6306 ba3d 7f47 f7bc a791 a8bc
00000240: 5031 98bd 65b3 89bd 2985 df3c b980 953d
00000250: a7ca 23bb 8d21 0d3e 22e6 c4bd 0d86 fbbc
00000260: c9d9 e03b 5d75 13bd 45b9 e4bd da81 073e
00000270: cb45 fc3d 0964 9f3a f9e9 0fbe 28b6 8c3c
00000280: 7505 45bd 18bf 77bd d697 10bd fc16 073e
00000290: 198c 6ebd b7ed ffbc e8ef a33c 714d b13d
000002a0: c1d7 193d 0d1c 0abd cc25 9a3d ead5 843d
000002b0: acbc e7bc 3008 c9bb abe7 2abd 2464 053d
000002c0: ed04 5bbd 17a0 f63c 50da 05bd eafb 30bd
000002d0: 6780 123e 321e eabc 8d8b 2b3e 970c 3bbc
000002e0: c9a4 33be 9c4d adbd b0bf 89bd f6c0 94bd
000002f0: 433f b23c 7766 3bbc c357 d3bd ca8d 15bd
00000300: 795e aabd 68ea 023d cf5e 073d 795e 783c
00000310: ac36 b7bd 557a 63bd 5d5f 443c 1c53 99bd
00000320: b172 26be a205 babc 3b18 75bd f5d2 483c
00000330: f15a b83d 2cc8 903d 2aca 163d 7b65 6abd
00000340: 861c 62bd b2cc 1a3d fe82 d33c 829b 7f3c
00000350: de4a f23d ad82 1c3e 899f 7a3d 06c7 193e
00000360: f996 333d bb97 f03d dfda bdbd 535a cabc
00000370: cf0e 7ebd 183b 52bd d8bb edbd bcd6 3ebd
00000380: 3132 b5bb dc1d fb3d c1c6 02be b07b 0b3c
00000390: 7ee1 22be 9438 0dbe d6ca 77bd b5fb 84bc
000003a0: c7b2 6fbd b587 7e3c 968f ae3d 8ce5 c0bd
000003b0: 88cc ea3d 323c 013c 91f8 0abd ea0e 26be
000003c0: 72b7 183e f074 9c3a 3845 c23c b2b0 243d
000003d0: e591 38be 6c36 0ebe 6099 b7bd 2f98 5fbd
000003e0: 2c44 f83b ffde 293d 0742 85b9 40bd ba3c
000003f0: b7f6 e03c ee53 7dbd 5398 ca3d f6c3 eb3d
0.17820574 0.04116905 -0.044193987 0.016163973 0.07590807 0.09356195 0.019631887 -0.013363394
0.078078285 -0.005862846 -0.07800408 -0.052811153 -0.06479105 0.08629134 -0.10605314 0.02738735
0.15087624 0.120161295 0.075187705 -0.010951598 0.06862584 0.0880953 0.08678741 0.040143866
0.14033392 0.15062499 -0.09472953 -0.08582034 0.16507648 0.12449089 0.12719864 -0.09886318
-0.031634025 -0.11932683 -0.036179084 0.10408799 0.09937466 -0.110644825 -0.07318794 -0.015962614
-0.07936077 -0.012466171 0.011397222 0.105549745 -0.04869202 -0.20361127 0.10717601 -0.11233055
-0.01618475 -0.08451649 -0.106110044 -0.07365498 -0.12671262 -0.05020606 0.10551686 0.117880985
-0.08263894 0.009069764 -0.033737335 -0.037913594 -0.008629572 -0.011162389 -0.066902764 -0.09975244
-0.025118317 -0.17090884 -0.098629996 0.0065335836 0.01704329 -0.016706383 0.07593112 0.057694256
-0.16155338 0.05140984 -0.04740268 -0.008325171 0.10337915 0.0073404773 0.04875788 0.1287436
0.0979994 0.08951412 0.06346673 -0.009337798 -0.06972769 0.04632622 -0.008700967 0.023929005
0.1161833 0.15293388 0.013409366 0.18440272 0.14572719 0.12278366 -0.050088905 -0.045735903
0.067886576 0.09930839 0.077460624 0.018502882 -0.058406565 0.104239084 -0.08475458 -0.11765421
-0.13837059 0.11025347 -0.0111549385 -0.07527678 -0.035524543 0.15083449 -0.13603121 -0.089590155
0.1019699 -0.038800064 -0.15339428 0.18713678 0.11259208 -0.023697602 -0.124030255 -0.029189635
0.09835698 -0.09320018 0.11240036 -0.13251954 0.005898344 0.104566954 -0.10855233 0.04988005
-0.04399138 -0.08975315 -0.03762047 -0.097473875 0.0038642997 -0.110383786 -0.08855101 -0.031057019
-0.06910316 -0.02983677 -0.045264866 -0.032728624 -0.06409712 0.090832494 -0.03018546 -0.020577265
-0.074312806 -0.0672367 0.027285175 0.072999425 -0.0024992616 0.1378233 -0.09614207 -0.030703569
0.0068618995 -0.0360006 -0.1116815 0.13233128 0.123179995 0.001216055 -0.14054097 0.017176703
-0.048100907 -0.060484976 -0.035301052 0.13192362 -0.058239076 -0.031241281 0.020011857 0.08657349
0.037559275 -0.033718158 0.075267404 0.06486113 -0.028288208 -0.006135009 -0.041724842 0.032566205
-0.053471494 0.030105634 -0.032678902 -0.043208994 0.14306794 -0.028578851 0.16752453 -0.011416576
-0.1754333 -0.084620684 -0.067260146 -0.07263367 0.021758681 -0.011438004 -0.103194736 -0.036512174
-0.083188005 0.03196183 0.0330494 0.015159243 -0.08945975 -0.055536587 0.011985627 -0.07486555
-0.16254689 -0.022707764 -0.05983756 0.012257327 0.09001721 0.0706943 0.036813892 -0.057225686
-0.055202983 0.03779287 0.025819298 0.015601041 0.11830686 0.15284224 0.0611873 0.15017328
0.04384515 0.1174769 -0.09270262 -0.024701273 -0.06202584 -0.051325887 -0.11608094 -0.046591505
-0.005529665 0.122615546 -0.12771131 0.008513376 -0.15906331 -0.13791114 -0.060496174 -0.016233305
-0.058520105 0.015535285 0.085234806 -0.094187826 0.114647925 0.007887887 -0.033928458 -0.16216627
0.14913729 0.0011936706 0.023714647 0.040207572 -0.18024404 -0.13887948 -0.08964801 -0.054588493
0.007576486 0.04147243 -0.0002541693 0.02279532 0.027461393 -0.06184762 0.09892335 0.11511986

bias f4 [87]
00000000: 4510 15bd a2cb 14be 4099 63bd 4693 2a3d
00000010: 97ec 253e 23b5 b5bd d739 ba3d baa8 af3d
00000020: 9878 143e ef46 09be 1956 eb3c c510 0c3e
00000030: 8333 243c e89e 123c 3928 f8bd e0d5 b23d
00000040: efa5 a93d 2aee 0abd 2b43 a83d bb67 c8bc
00000050: 4edd c1bd 1b29 353e 843c 573d e16d d93d
00000060: 4927 c6bd 584a a03d 5cc5 cabd 6ca8 2cbd
00000070: 6075 653d 3918 0dbe 47e7 eebd 860e 0b3e
00000080: bd06 5e3d 3909 bb3d ef46 313e bc57 ea3d
00000090: c023 79bb 60d9 e73d 23ed 403d 420c 193e
000000a0: fa0e bf3d b6d0 9a3c e002 09bd 8ed1 ce3b
000000b0: b2e4 58be 9e18 42bc 8450 4f3d 1924 ad3d
000000c0: 2065 583b 59d2 d33d f890 3d3e 6d36 fa3c
000000d0: 6164 a83d 171c d4bd a4ad 5e3d 3d20 693d
000000e0: 6cfd 9ebb ad5b ab3d 1539 94bb 233d dabd
000000f0: 24e6 1a3e 2633 7cbd 43a7 91bd 59f7 223e
00000100: aa55 c63c 14fc e63d 0c4c 8d3c 833f 86bd
00000110: 84f1 553d d8da 013e 3272 66bd 08fe 27bd
00000120: 674c fcbd 2063 b63d 8922 82bc c712 673d
00000130: 143b 40be 0163 5e3d aeef 1b3e e855 c03c
00000140: 842d 87bd e057 d33d c4cc 4fbc 1323 943c
00000150: 88ba d2bd 74b6 8b3c fa52 f0bd
-0.03639247 -0.14530805 -0.055566072 0.041644357 0.16203533 -0.0887244 0.09093063 0.08577104
0.14499128 -0.13405965 0.028727578 0.13678272 0.010022047 0.008949019 -0.12117047 0.087322
0.082836024 -0.033918537 0.08215936 -0.024463525 -0.09466039 0.17691462 0.052547947 0.10616661
-0.09675462 0.0782668 -0.099009246 -0.042152807 0.05602014 -0.13778771 -0.116652064 0.13579759
0.054205645 0.091326185 0.17312215 0.11442515 -0.0038015693 0.11320758 0.04710115 0.14946082
0.093290284 0.01889835 -0.033450007 0.006311602 -0.2118099 -0.0118466895 0.050613895 0.08454151
0.003301926 0.10342855 0.18512332 0.03054353 0.08222271 -0.1035692 0.054364815 0.05691551
-0.0048519876 0.08367095 -0.0045234063 -0.10656192 0.15126854 -0.061572216 -0.07111981 0.15914668
0.02421077 0.11278549 0.017248176 -0.06555083 0.05223228 0.12681139 -0.05626125 -0.041013747
-0.1231926 0.08905625 -0.015885608 0.05641439 -0.18772537 0.054293636 0.1522815 0.023478463
-0.06600478 0.10319495 -0.012683097 0.018083131 -0.10289484 0.017054774 -0.117345765

bias f4 [5]
00000000: 5b4b b43c a9bd 92bc 9ded f53b ed57 823c
00000010: 245e dd3a
0.022008589 -0.017912703 0.0075051324 0.015911067 0.0016889018

lower_entries f4 [10]
00000000: 934c 83bc 4a42 2dbb d386 59b9 b790 02bc
00000010: 9008 87bc a1eb f23a 2c9f e9bb fede 493b
00000020: 341a 1fba 3e3e 0a3c
-0.016027724 -0.0026437216 -0.00020744959 -0.007969073 -0.016483575 0.0018533358 -0.0071295705 0.003080308
-0.0006069273 0.008437691

upper_entries f4 [10]
00000000: 5677 29bb b49a 9bbb ca22 793b 4bd6 2ebb
00000010: eb16 2e3b 2464 aa3a c285 0eb8 56cc 47bb
00000020: b7e3 2f3b 9241 94bb
-0.0025858483 -0.0047486667 0.003801512 -0.0026678022 0.0026563953 0.0012999815 -3.398001e-05 -0.0030486784
0.002683861 -0.004524418

unconstrained_upper_diag f4 [5]
00000000: bc24 033f 559d f93e 103c 063f 25a4 f63e
00000010: 51b5 043f
0.5122793 0.48752847 0.524354 0.48172107 0.51839167

weight f4 [50, 3]
00000000: cb5b 1cbc 6d1f ac3c bb35 c93e 66cd e93e
00000010: 32b5 553e 3852 873d ce90 553e b584 a0be
00000020: 0f6f f8be 2d22 6e3e 7f14 0c3f 6a6e 5bbe
00000030: 12d2 273e ca01 a93e f99c 09be 5195 bebe
00000040: 59c4 c7bd 76e8 cf3e f7f8 76be 01f6 ca3e
00000050: a65b cfbe 91e0 c13e 60e9 d73e e7d8 1a3f
00000060: 0c4b 84be c830 07be f22e ec3e 61dc 923c
00000070: 36ec c53e cc4f 9d3e cd1e ebbe 4d24 173f
00000080: 6d6b 8abe ca89 f2be 1c5a d23e e768 133e
00000090: 4a01 9ebd 3e36 16bf 09fd 9cbe 9a11 fbbd
000000a0: ef2e f0be d45f c23e b631 45bd 0e7a 7c3e
000000b0: 675c c3be 0e05 a0be 5d23 b63e 8f18 b1be
000000c0: d001 0d3f 4408 64bd 4c89 a33e 9462 a3be
000000d0: 9e47 e63e 6e16 00bf 6c91 d9bc cbce dbbe
000000e0: 1fb8 dd3e 9f78 1abe 1bd3 2c3e 6a29 b1be
000000f0: 86c8 79be 1888 8abe 0d76 08bf 20f0 1abe
00000100: 6a94 ef3e b033 24be d47b febd 40ab 74ba
00000110: 031e 82bd d49a 7e3e 6194 a13e ea21 65be
00000120: 3915 a2bd 92cf fb3e 6342 a1bd 8359 b8be
00000130: 1f0d f8be a279 4cbe 7255 4b3e cf57 973e
00000140: 1b78 9fbc aae3 01bf 36b7 083f 8335 603d
00000150: b5e3 0c3f b165 8b3e d96b 9c3e 05f4 0f3f
00000160: 9404 7d3d c400 103f 8a75 08be e1e4 b93e
00000170: 38fe f73e a5cf 563e a4ef 703e f925 af3e
00000180: f086 8d3d 28dd e93d fee1 053f d3a7 b13e
00000190: 8e10 08bf 18f1 cabe a2bd d8be ca7a d9be
000001a0: 9efd c8be 9ec0 0cbe f3c5 3bbe 7876 aa3e
000001b0: 5bdc bbbc 2d13 063e d972 12bf 22ba 04bf
000001c0: 2ced 79be d687 8dbe 82d1 0dbf bae4 5abe
000001d0: ae13 2a3e 859c 01bf ac96 b1be 2aef 6d3c
000001e0: 5d49 ffbe a20d 893e 8cce 0f3f adbb 243e
000001f0: 5794 31be ba58 c7be 306f de3e ac1e 4f3e
00000200: 46b6 0bbf 042d 37be be7d 8e3e 8fd6 96be
00000210: 5011 f13e a40b 733e fa2f dd3e 454f d3be
00000220: 3dfd d13e f1a3 42bd 03c1 363e 3fbd 66bd
00000230: 2b68 a33e 0213 463e ce56 8b3e 8bf4 313e
00000240: 0b86 fabe 4653 bbbe ba42 5f3e 9b01 813e
00000250: ad66 b4be 63c4 03bf
-0.0095433695 0.021011079 0.39298806 0.4566452 0.20869902 0.06607479 0.2085602 -0.31351247
-0.4852223 0.23255225 0.54718775 -0.21428838 0.16388729 0.33009177 -0.13438787 -0.37223294
-0.09754247 0.4060704 -0.2411841 0.3964081 -0.4049961 0.37866643 0.42170238 0.60487217
-0.25838506 -0.13202202 0.46129566 0.01792735 0.38656777 0.30724943 -0.45921937 0.59039766
-0.27035084 -0.4737075 0.41084373 0.14395486 -0.077150896 -0.58676517 -0.306618 -0.122592166
-0.46910807 0.37963736 -0.04814311 0.24655935 -0.38156435 -0.31253856 0.35573855 -0.3458905
0.5508089 -0.055671945 0.31940687 -0.31911147 0.44976515 -0.50034225 -0.0265586 -0.42931208
0.43304536 -0.15085076 0.16877405 -0.3460191 -0.243929 -0.27056956 -0.5330513 -0.15130663
0.46792918 -0.16035342 -0.12425962 -0.00093333796 -0.063533805 0.2486375 0.31558517 -0.22376218
-0.07914204 0.491818 -0.078739904 -0.36005792 -0.4844751 -0.19968274 0.19856814 0.2955918
-0.01946645 -0.5073801 0.5340456 0.054738533 0.55034953 0.27226022 0.3055103 0.5623172
0.061771944 0.5625117 -0.13326088 0.36307433 0.4843614 0.20977648 0.23528916 0.34208658
0.06910503 0.11419135 0.5229796 0.34698352 -0.5315026 -0.39637065 -0.42332178 -0.42476493
-0.39255995 -0.13745353 -0.1833723 0.3329351 -0.022932222 0.13093252 -0.57206494 -0.51846516
-0.2440688 -0.27642697 -0.5539781 -0.21376315 0.1660907 -0.50629455 -0.34685266 0.014522353
-0.4986066 0.26768214 0.5617454 0.16087218 -0.17341743 -0.3893488 0.43444204 0.20226544
-0.54575 -0.17888266 0.2783031 -0.2946057 0.4708352 0.2373491 0.43200666 -0.41271415
0.41013518 -0.047519628 0.17847066 -0.056332823 0.3191541 0.19343188 0.27214664 0.17378442
-0.48930392 -0.3658697 0.21802798 0.25196537 -0.35234585 -0.5147154

bias f4 [50]
00000000: 519c b2be f158 5e3e f28e 93be d7df 513e
00000010: f15b 223f 3764 0ebf 6e0a 953e dc54 163d
00000020: 62d0 d2bd 1edf e2be 7ac9 c2bd eba0 e33e
00000030: 218d 56bd c09f a83e ab3c 21be 6521 cf3b
00000040: 158a c9be 9a2d d13e e59c 1abf ece3 403d
00000050: 3cf9 2fbe 290e 043e 09fa 3e3e a7e0 6ebe
00000060: 971f febe bc14 063f b684 abbd 655a f9be
00000070: 8eea a7be d24d 21bd 0716 32be e1cf d8be
00000080: d452 9fbe 19aa bebe ccf1 04bf c864 d33e
00000090: 3fb3 c93d 3716 0f3c 863f fe3d 89e9 61bd
000000a0: 84ab 57be d244 1a3d 30c5 e7bc 876b 87be
000000b0: a528 0dbe b90b febe 68eb bb3e b5fd 833e
000000c0: 7454 f2be 6b97 c1be
-0.34884885 0.21713616 -0.28819996 0.20495544 0.6342154 -0.55621666 0.2910952 0.036702022
-0.10293652 -0.4431085 -0.09511085 0.44458708 -0.052380685 0.3293438 -0.15745799 0.0063211196
-0.3936316 0.40855104 -0.6039565 0.047092363 -0.17184919 0.12896027 0.18650068 -0.23327886
-0.49633476 0.5237539 -0.08374922 -0.48701778 -0.3279614 -0.039380856 -0.17391215 -0.423461
-0.3111788 -0.3723915 -0.5193145 0.41287827 0.098486416 0.008733324 0.1241446 -0.055154357
-0.21061522 0.03766329 -0.028292269 -0.26449224 -0.13785036 -0.4961832 0.36703038 0.257795
-0.47330058 -0.37810835
