sbibm/tasks/slcp/files/num_observation_8/proposal.pt (torch, 333865 bytes, 83 tensors)

weight f4 [50, 2]
0	0xbeac0daf	-0.3360419
1	0xbefe9c44	-0.49728596
2	0xbf206bed	-0.6266468
3	0x3e971d2c	0.29514444
4	0xbc931dba	-0.01795851
5	0xbd3586cf	-0.044318017
6	0x3e1e64a2	0.15468076
7	0xbf06adbc	-0.5260885
8	0x3e25390c	0.16135043
9	0xbe09253c	-0.1339311
10	0x3ed79aaf	0.42110202
11	0x3f4bbdba	0.79586375
12	0xbf11adba	-0.5690571
13	0x3e240dba	0.16020861
14	0x3e6bfc7d	0.23045535
15	0xbe0b23a8	-0.1358782
16	0xbec85a91	-0.39131597
17	0xbea151e9	-0.31507805
18	0x3e8c4957	0.27399704
19	0x3eca4137	0.3950288
20	0x3f412802	0.7545167
21	0xbe73450c	-0.23756808
22	0x3f43f9ff	0.7655334
23	0xbf16ecfe	-0.5895537
24	0xbe38b92b	-0.18039386
25	0x3efc27f2	0.49249226
26	0x3e044c64	0.12919766
27	0xbe95eb38	-0.2928102
28	0x3ef5809f	0.47949693
29	0x3ec28d3e	0.37998384
30	0xbef5e02a	-0.48022586
31	0x3f290df8	0.6603694
32	0x3df44fcd	0.11929283
33	0xbe8ebf3b	-0.27880272
34	0x3ee39534	0.4444977
35	0x3f55b3bd	0.83477384
36	0xbdf22081	-0.11822606
37	0xbe3a2885	-0.1817952
38	0x3f202a03	0.62564105
39	0xbf1d7522	-0.61506855
40	0x3b0979b3	0.002097708
41	0xbeb871ba	-0.36024266
42	0xbe29728b	-0.16547601
43	0xbea6fd6e	-0.32615227
44	0x3f252cad	0.64521295
45	0x3c185a44	0.009298865
46	0x3eab8aec	0.33504426
47	0x3f4b245c	0.79352355
48	0xbe07d126	-0.13263378
49	0x3dddb56c	0.10825619
50	0x3e5e0039	0.21679772
51	0x3f3e0d0a	0.74238646
52	0xbf1575f5	-0.58383113
53	0xbecc7c0b	-0.39938387
54	0x3eec1df3	0.461166
55	0xbed3ea97	-0.41389915
56	0xbed707a1	-0.41998008
57	0x3eea2bbb	0.4573649
58	0xbe97fe21	-0.29686072
59	0xbf313db1	-0.6923476
60	0x3f149709	0.5804296
61	0xbf0669c4	-0.52505136
62	0x3f326db2	0.6969863
63	0x3c9d0de6	0.019171666
64	0xbed95841	-0.42450145
65	0x3e95ee8d	0.29283562
66	0xbefcd071	-0.49377778
67	0x3ec9d44c	0.39419782
68	0x3f4a3e80	0.7900162
69	0x3e00cf2b	0.12579028
70	0xbf1045d1	-0.5635653
71	0x3eeb8893	0.46002635
72	0xbeca9e14	-0.3957373
73	0xbd5c530e	-0.053790145
74	0xbe56cdb6	-0.2097691
75	0xbf204101	-0.6259919
76	0xbf579127	-0.8420586
77	0x3e3384d2	0.17531136
78	0xbf0c16c0	-0.54722214
79	0x3e1bcb02	0.1521416
80	0xbf288cbb	-0.6583974
81	0x3e5f9993	0.21835928
82	0x3f369540	0.7132149
83	0x3ee09e9b	0.43871006
84	0xbf260214	-0.6484692
85	0x3c89428d	0.016755367
86	0xbf081b44	-0.53166604
87	0xbf38f134	-0.72243047
88	0xbf34c86a	-0.7061831
89	0x3ef48687	0.47758886
90	0xbe0636ea	-0.13106886
91	0xbf620551	-0.8828936
92	0xbf239dee	-0.63912857
93	0x3eb2bfcd	0.34911957
94	0x3e3ef6dc	0.18648857
95	0x3f46bb47	0.7762951
96	0x3e93e2fa	0.28884107
97	0x3eb94e8f	0.36192748
98	0xbed3b582	-0.41349417
99	0xbed7807c	-0.42090213

bias f4 [50]
0	0xbe8cc2fe	-0.27492517
1	0x3e11360e	0.14180776
2	0xbede5377	-0.43423054
3	0x3f13a9da	0.5768105
4	0x3f4a56f1	0.7903891
5	0xbe6c445d	-0.23072954
6	0xbedf9d58	-0.4367473
7	0x3f30bec9	0.69041115
8	0x3f156b96	0.5836729
9	0x3ec996fd	0.39373007
10	0xbe860fda	-0.2618397
11	0xbed983a5	-0.4248325
12	0xbf1c7546	-0.61116445
13	0x3f10698b	0.56411046
14	0xbe8a5a92	-0.27022225
15	0x3ea969ee	0.3308863
16	0x3ea1c356	0.31594342
17	0x3ecdb6d6	0.40178555
18	0x3ed14f63	0.4088088
19	0x3f6a39d5	0.91494495
20	0x3f4cef27	0.8005242
21	0xbdc1467c	-0.09437272
22	0x3ef8b6b2	0.48576885
23	0xbf01d196	-0.5071043
24	0x3f1be225	0.60891944
25	0xbf3867fe	-0.7203368
26	0xbe0445e7	-0.1291729
27	0x3f115cd5	0.56782275
28	0x3ec5c785	0.38628784
29	0x3ec0880e	0.376038
30	0xbe180b3a	-0.14848033
31	0xbf3da583	-0.74080676
32	0x3f18b91e	0.59657466
33	0x3ee6ea6a	0.4510072
34	0xbf1b886d	-0.60755044
35	0x3eee64ce	0.46561283
36	0xbf172fce	-0.5905732
37	0x3edd1531	0.4318023
38	0xbf05b759	-0.5223289
39	0xbed6aa20	-0.4192667
40	0x3e99c965	0.30036464
41	0x3e4d422a	0.20044771
42	0x3f461ebf	0.77390665
43	0x3d98987f	0.07450961
44	0x3edc5a22	0.43037516
45	0xbf37948a	-0.7171103
46	0x3e7a6b45	0.24454983
47	0xbb059fae	-0.0020389366
48	0x3d09b2a4	0.03361763
49	0x3f3c94bd	0.73664457

weight f4 [50, 50]
0	0xbe3d9761	-0.18514778
1	0x3e3adf14	0.1824916
2	0xbe066bf2	-0.13127115
3	0x3e26489f	0.1623864
4	0x3e3495d7	0.17635284
5	0xbe857df5	-0.2607266
6	0xbd04bfd2	-0.032409497
7	0x3e5fdeb4	0.21862298
8	0xbc670237	-0.014099649
9	0xbeca4c4c	-0.39511335
10	0x3dd204f7	0.10254853
11	0x3d93db61	0.072195776
12	0xbe7f732a	-0.24946275
13	0x3bbb26d4	0.005711416
14	0xbf007d76	-0.5019144
15	0xbc790b8a	-0.015200505
16	0x3db0898d	0.08619986
17	0xc00f3e9b	-2.2381961
18	0xbc192446	-0.009347027
19	0xbd399de3	-0.045316588
20	0x3e273307	0.16328059
21	0xbe512ef1	-0.20428063
22	0xbda2e603	-0.079540275
23	0x3e8f3971	0.27973512
24	0x3e24efb0	0.16107059
25	0x3ec1aaf0	0.37825727
26	0xbd30564f	-0.04305106
27	0xbdd6f7ef	-0.10496508
28	0x3e41caff	0.18925093
29	0x3dda80fd	0.10669134
30	0xbcf16995	-0.02946929
31	0x3cb1abc8	0.021688357
32	0x3e47f3e2	0.19526628
33	0x3ce73041	0.028221251
34	0x3c87b6c3	0.01656664
35	0x3e188f5f	0.14898442
36	0xbe1fefdc	-0.15618843
37	0xba98aa25	-0.0011647387
38	0xbd51c826	-0.051216267
39	0xbdc97588	-0.098368704
40	0x3de8ac74	0.11361018
41	0x3e6a5202	0.22882846
42	0xbc197c64	-0.009368036
43	0x3c7a413c	0.015274342
44	0x3c3edb3e	0.011648951
45	0xbd866082	-0.06561376
46	0x3de26d64	0.11056021
47	0xbef8a423	-0.48562726
48	0xbf04624e	-0.517125
49	0x3e1aa6f8	0.15102756
50	0xbd882c6d	-0.066490985
51	0xbd887aad	-0.066640235
52	0x3db4e738	0.08833164
53	0xbcf3955a	-0.029734302
54	0xbd98eea1	-0.0746739
55	0x3eb099a2	0.34492213
56	0xbbe926bb	-0.0071152127
57	0xbd13c20b	-0.036073726
58	0xbfa86a34	-1.3157411
59	0xbc0ef2f0	-0.008724913
60	0x3e8682da	0.26271707
61	0x3eb58de2	0.3545981
62	0x3ed932c0	0.42421532
63	0xbde9e440	-0.11420488
64	0x3e3508c5	0.17679127
65	0x3e35fb6a	0.17771688
66	0xbb519447	-0.003197925
67	0x3d9bb477	0.0760278
68	0xbe081b05	-0.13291557
69	0x3d49de63	0.04928435
70	0xbc07bfad	-0.008285445
71	0xbd763298	-0.060106844
72	0xbc8bd169	-0.017067628
73	0x3ed46265	0.4148132
74	0xbe95171a	-0.29119188
75	0x3ec0d63e	0.37663454
76	0xbf69c4c4	-0.91315866
77	0x3d99503c	0.074860066
78	0x3da6d3a8	0.08145839
79	0xbabe01f5	-0.0014496433
80	0x3e5ff22f	0.2186973
81	0x3ec8c482	0.39212424
82	0x3e4b0724	0.19826943
83	0x3d3f1e3e	0.0466597
84	0x3e2b3b62	0.16721871
85	0x3dd8fb81	0.105948456
86	0x3e0de334	0.13856202
87	0xbdc78c4b	-0.09743556
88	0xbe79bd81	-0.24388696
89	0xbe13f9c3	-0.14450745
90	0xbe6ee4b5	-0.23329432
91	0x3cc5916d	0.024117196
92	0xbeb8537e	-0.360012
93	0xbe8c78e9	-0.27435997
94	0x3e2aba15	0.16672547
95	0x3ebe2dc4	0.3714429
96	0xbe494109	-0.19653715
97	0x3e4a03a2	0.19727948
98	0x3e3c446e	0.18385479
99	0xbf819056	-1.0122173
100	0xbe13c863	-0.1443191
101	0xbd87c74e	-0.06629811
102	0xbbd34a6b	-0.0064480803
103	0x3cf1ed0f	0.029531984
104	0x3e0ebcdc	0.13939232
105	0xbe5888d7	-0.2114595
106	0xbdaca2bc	-0.084294766
107	0x3db0c533	0.08631363
108	0x3e26f938	0.16306007
109	0xbe34888b	-0.17630212
110	0x3bcb34f9	0.006201383
111	0xbd984fb5	-0.07437078
112	0xbe2a1e2c	-0.16613072
113	0xbc403ef4	-0.011733759
114	0x3e1744ed	0.14772387
115	0x3d66a7fd	0.05631255
116	0xbd66b38c	-0.056323573
117	0xbc82d975	-0.015972832
118	0x3d9d4109	0.0767842
119	0x3e32dd10	0.17467141
120	0x3d39038a	0.04516939
121	0xbdb5be84	-0.088742286
122	0x3da5a24e	0.08087598
123	0xbe85ce88	-0.26134133
124	0x3cb159d1	0.021649273
125	0xbd848a18	-0.06471652
126	0xbd956cda	-0.072961524
127	0x3d8559ce	0.065112695
128	0xbd9a7847	-0.07542472
129	0x3d5dd3ff	0.054157253
130	0x3d0102e6	0.031496905
131	0xbe75aefd	-0.23992534
132	0x3d7e3730	0.06206435
133	0xbd7fe65b	-0.062475543
134	0xbd449b5d	-0.04799973
135	0xbd9e390a	-0.07725723
136	0x3d2392ba	0.03993485
137	0xbe214ca5	-0.15751894
138	0x3e4763b4	0.19471627
139	0x3e31c271	0.1735933
140	0x3d25e0d8	0.04049763
141	0x3db99061	0.09060741
142	0x3d240374	0.040042356
143	0xbe11efa6	-0.14251575
144	0x3da62bf6	0.08113854
145	0xbed4df64	-0.41576684
146	0xbd955d29	-0.072931595
147	0x3d11ffd1	0.035644356
148	0xbc95880d	-0.01825335
149	0x3d8e1992	0.06938471
150	0xbe594931	-0.21219327
151	0x3e0ca7e4	0.1373592
152	0x3df03e9b	0.11730691
153	0xbcc178af	-0.023617117
154	0xbde6eda6	-0.112757966
155	0xbdd7c09e	-0.10534786
156	0x3d8ac40a	0.06775673
157	0xbd887281	-0.06662465
158	0xbc57e3c8	-0.013176866
159	0xbe921bae	-0.28536743
160	0x3e20dfa1	0.15710308
161	0x3e03d742	0.12875083
162	0x3d352715	0.044226725
163	0x3c493323	0.012280258
164	0xbd41884e	-0.04724913
165	0x3e12d90c	0.1434061
166	0xbde2811c	-0.11059782
167	0xbe06648c	-0.13124293
168	0xbe000535	-0.12501986
169	0x3e5b4c3d	0.21415801
170	0xbe95776d	-0.29192677
171	0xbe3ad111	-0.18243815
172	0xbd239f5c	-0.0399469
173	0x3e465ba8	0.19370902
174	0xbe0dd908	-0.13852322
175	0x3dcbd3a7	0.09952479
176	0xbdc3716f	-0.0954312
177	0x3e2459bf	0.1604986
178	0xbdab84ec	-0.08374962
179	0xbd85f092	-0.06540026
180	0x3eba3f7c	0.3637656
181	0x3e93a585	0.2883722
182	0xbd1c6f5e	-0.038192146
183	0x3e1fe962	0.15616372
184	0x3dc6ea1a	0.0971262
185	0x3da640b4	0.0811781
186	0x3d67f438	0.05662939
187	0xbd87f24d	-0.06638012
188	0x3db531f8	0.088474214
189	0x3e2b0341	0.1670046
190	0x3e15e824	0.14639336
191	0x3df3b2f7	0.11899369
192	0xbc59c1ef	-0.013290866
193	0xbea173cf	-0.31533667
194	0x3e5b9e9d	0.21447225
195	0x3d010d21	0.03150666
196	0xbcb86256	-0.022507828
197	0x3e0e6065	0.13903959
198	0xbdbfbe78	-0.09362501
199	0xbd8e9500	-0.06962013
200	0xbe54100b	-0.20709245
201	0x3d68f8e3	0.056877982
202	0xbdda053b	-0.10645529
203	0x3dce9485	0.100869216
204	0x3de7283c	0.11286971
205	0x3d01bffa	0.031677224
206	0xbec5fc02	-0.3866883
207	0x3e60c8d0	0.21951604
208	0x3c931c29	0.017957764
209	0xbbabe336	-0.0052455915
210	0x3c1297bd	0.00894731
211	0xbc90a96f	-0.017658917
212	0xbd805ae1	-0.06267334
213	0x3ce47072	0.02788565
214	0x3e0d3e3b	0.1379327
215	0x3d86d1b9	0.0658297
216	0x3d98c98c	0.07460317
217	0xbe42fec7	-0.19042502
218	0x3e7c1af5	0.24619658
219	0x3d7741dc	0.060365543
220	0x3e19c278	0.1501559
221	0xbe3c2fbc	-0.18377584
222	0xbc85005f	-0.016235529
223	0x3b73338b	0.003710958
224	0x3e7dc840	0.2478342
225	0xbe24cf7a	-0.16094771
226	0xbe088885	-0.13333328
227	0x3d72682d	0.05918138
228	0xbe0af7e7	-0.1357113
229	0x3c7b2a97	0.015329978
230	0xbe3415e0	-0.1758647
231	0x3d2147a4	0.039374962
232	0x3bffebb9	0.0078100828
233	0xbd0b22fc	-0.03396891
234	0xbe268c7d	-0.1626453
235	0x3bd85653	0.0066020875
236	0xbfd52ed0	-1.6654911
237	0xbe28263c	-0.16420835
238	0xbeee8613	-0.46586666
239	0xbeb4d9d6	-0.35322446
240	0x3e9a8600	0.3018036
241	0x3dbbcb81	0.09169675
242	0x3e5b09e4	0.21390492
243	0x3c3c41be	0.0114902835
244	0x3e4d9010	0.20074487
245	0xbe7d4afd	-0.24735637
246	0x3d051cbe	0.032498114
247	0xbdc2edbe	-0.09518002
248	0xbcc78856	-0.024357002
249	0x3deca27a	0.115544274
250	0x3d336c14	0.043804243
251	0xbd91bb45	-0.07115797
252	0xbe0f7e69	-0.14013065
253	0x3d186da6	0.037213944
254	0x3e2ddd59	0.16978969
255	0x3d6b2a88	0.057413608

bias f4 [50]
0	0x3e211e90	0.15734315
1	0xbdb2f88d	-0.087388135
2	0x3e0a767c	0.1352176
3	0xbe1fa4bc	-0.15590185
4	0x3ca55bc6	0.020185363
5	0x3e4a6f93	0.19769125
6	0xbdd06d6f	-0.10177123
7	0xbddcfae1	-0.10790039
8	0x3e18d211	0.14923884
9	0x3e04f748	0.12984955
10	0x3c8ba628	0.017047003
11	0xbe12c542	-0.1433306
12	0x3e0605c9	0.13088144
13	0x3e8a5fc3	0.27026185
14	0x3e81193d	0.25214568
15	0x3dc7e87d	0.097611405
16	0x3de6816a	0.112551525
17	0xbcc5a931	-0.024128528
18	0x3dfcc052	0.1234137
19	0x3e01366e	0.1261842
20	0xbeeb3d00	-0.45944977
21	0xbda6390a	-0.08116348
22	0x3dcd31fc	0.100192994
23	0x3da52548	0.080637515
24	0x3e9bf68a	0.30461532
25	0xbdd98131	-0.106203444
26	0x3e3717be	0.1788015
27	0x3cb0ff48	0.021606103
28	0xbdc7fe9b	-0.09765359
29	0xbb9cb057	-0.0047817635
30	0x3e446bdc	0.1918177
31	0x3e18b3a9	0.14912285
32	0xbd96e283	-0.073674224
33	0x3cfbb333	0.030725097
34	0x3e14a8c5	0.14517505
35	0xbdf8dcab	-0.12151464
36	0xbd878310	-0.06616795
37	0xbcbe3131	-0.023216816
38	0xbd9fc779	-0.07801718
39	0x3d67e905	0.05661871
40	0xbd9dbb27	-0.07701712
41	0xbce24a57	-0.027623339
42	0xbdbd0167	-0.09228783
43	0x3e5260b7	0.20544706
44	0x3e4802d2	0.19532326
45	0x3e3d430d	0.18482609
46	0xbbce1a51	-0.0062897583
47	0x3dd00e70	0.10159004
48	0x3e75c13b	0.23999493
49	0x3ec46417	0.38357612

weight f4 [50, 50]
0	0x3d082bcc	0.033244893
1	0xbc7ca3a8	-0.015419878
2	0x3d8f57ff	0.06999206
3	0x3bc509f3	0.006013149
4	0xbc2137dd	-0.009839979
5	0x3ce7737a	0.028253306
6	0xbda103dd	-0.07862065
7	0x3a5872b7	0.000825684
8	0xbdf803e7	-0.12110119
9	0xbcab0796	-0.02087764
10	0xbd1b4707	-0.037909534
11	0x3dca841e	0.098884806
12	0xbd23d595	-0.03999861
13	0xbcdfa719	-0.027301358
14	0x3e3474a1	0.17622615
15	0x3b29a2dc	0.0025884425
16	0x3e5a084f	0.21292232
17	0x3e1a91a5	0.15094621
18	0xbb524dab	-0.003208975
19	0xba5f035f	-0.0008507277
20	0x3dfade7e	0.12249468
21	0x3c4c7214	0.01247837
22	0xbd2c837f	-0.042117592
23	0xb961b2b1	-0.0002152424
24	0x3d660725	0.056159157
25	0x3db93471	0.090432055
26	0x3e1ee943	0.1551867
27	0x3d88f2dd	0.066869475
28	0x3d8cee5a	0.068813995
29	0xbd9473f8	-0.07248682
30	0xbd176982	-0.036965854
31	0x3d9b1652	0.07572617
32	0xbe105faa	-0.14098993
33	0x3eae99f7	0.3410184
34	0x3d171db0	0.036893547
35	0x3d7a0610	0.061040938
36	0x3dbb59ab	0.09147962
37	0x3dcb5ae5	0.09929446
38	0x3d2b7192	0.041856356
39	0xbdea459a	-0.11439057
40	0xbe5ce69b	-0.21572344
41	0x3db24112	0.087038174
42	0xbd991569	-0.07474787
43	0xbdeed648	-0.11661965
44	0xbdbc1d4b	-0.09185275
45	0xbea7c159	-0.327647
46	0xbda5636d	-0.080756046
47	0xbdb470b7	-0.08810561
48	0xbe6bb568	-0.2301842
49	0xbcfea2db	-0.031083515
50	0xbd12e6f4	-0.035864785
51	0x3d10cc5d	0.035351146
52	0xbdf4c02a	-0.11950715
53	0xbe6ca2d0	-0.23108983
54	0x3e0bec32	0.1366432
55	0xbcf74c20	-0.030187666
56	0x3de599c7	0.11210971
57	0xba461d7e	-0.0007557495
58	0x3e88064e	0.2656731
59	0xbcb38efa	-0.021918762
60	0xbdc2ce91	-0.09512056
61	0xbe8a9a5b	-0.2707089
62	0x3e0efe8c	0.1396429
63	0xbc205404	-0.009785656
64	0x3e65eab5	0.22452815
65	0xbe15f751	-0.14645125
66	0xbe8aea2b	-0.2713178
67	0xbe6b4fa9	-0.22979607
68	0xbca08172	-0.019592974
69	0xba2180f0	-0.0006160876
70	0x3cb922e3	0.022599643
71	0xbc795925	-0.015219008
72	0x3d68a45f	0.05679738
73	0x3a0c9efe	0.0005364268
74	0x3e6159ef	0.22006963
75	0x3df673e6	0.120338246
76	0xbc4bef81	-0.012447239
77	0xbdaa479c	-0.0831444
78	0x3dfc3f26	0.12316732
79	0xbe2e83d6	-0.17042479
80	0xbdaf0aa2	-0.0854695
81	0xbdb1fa90	-0.08690369
82	0x3e0e4756	0.138944
83	0x3ea9c5de	0.33158773
84	0x3ca2563b	0.019816509
85	0xbdd8c1f0	-0.10583866
86	0xbe95729d	-0.29189005
87	0xbdb0407b	-0.08606049
88	0xbe39f6bc	-0.18160528
89	0x3d46f259	0.048570964
90	0xbe5a08fe	-0.21292493
91	0xbe5f5e0c	-0.2181322
92	0xbdac5f00	-0.08416557
93	0x3e0cd533	0.13753204
94	0xbce67e1d	-0.028136307
95	0x3e35ae82	0.1774235
96	0xbe129bc2	-0.1431723
97	0xbc6ae576	-0.014336934
98	0xbe53956c	-0.20662469
99	0xbe088103	-0.13330464
100	0xbcd22a6c	-0.025654994
101	0xbdd02ae2	-0.10164429
102	0x3dedd19b	0.11612245
103	0xbe2673bb	-0.16255085
104	0x3dbca470	0.092110515
105	0x3c915afb	0.017743578
106	0xbe239a1a	-0.15976754
107	0xb9fe0d0b	-0.00048456373
108	0xbe7f887d	-0.2495441
109	0x3e1464fe	0.1449165
110	0xbd7f80d9	-0.062378738
111	0xb7849653	-1.5805626e-05
112	0x3dc93412	0.09824385
113	0x3e390b90	0.18070817
114	0x3e0d1474	0.13777333
115	0xbe525087	-0.20538531
116	0x3e86f5eb	0.26359496
117	0xbe9d5e86	-0.30736178
118	0xbd8d2014	-0.06890884
119	0x39701703	0.00022896756
120	0x3e756be8	0.23966944
121	0xbc74cf76	-0.014942041
122	0x3d3be6ed	0.045874525
123	0xb933f182	-0.00017160739
124	0x3e1fea96	0.15616831
125	0x3dccc559	0.099985786
126	0x3d6039ec	0.05474274
127	0xbd451ec4	-0.048125044
128	0xbd8ab653	-0.06773057
129	0xbdf08cf3	-0.11745634
130	0xbe2eeb07	-0.17081843
131	0x3dd8c9ff	0.10585403
132	0xbe97b6cd	-0.29631653
133	0xbdcfa11a	-0.101381496
134	0xbdb029ee	-0.086017475
135	0x3d87c6a0	0.066296816
136	0x3c848240	0.01617539
137	0xbd0c2595	-0.03421553
138	0x3df67ee4	0.12035921
139	0xbd91327c	-0.07089707
140	0xbdb370d1	-0.087617524
141	0xbe1f517d	-0.15558429
142	0xbd83378c	-0.06407079
143	0xbdbb7e86	-0.09154992
144	0xbd23d091	-0.039993826
145	0x3cc43066	0.02394886
146	0xbd0e54e3	-0.034748923
147	0x3c9385c3	0.018008118
148	0xbdcf4f51	-0.1012255
149	0x3c039968	0.00803218
150	0x3da94bcb	0.082664095
151	0xbd889007	-0.06668096
152	0x3cc7df9e	0.024398621
153	0xbdc5a3a1	-0.0965035
154	0xbda62180	-0.08111858
155	0x3d321a2a	0.043481983
156	0xbd7ebc5e	-0.06219136
157	0xb998463a	-0.00029044022
158	0xbe2ace27	-0.16680203
159	0xbde935cc	-0.11387214
160	0xbdb499b3	-0.08818378
161	0xbeaf5d92	-0.34251076
162	0xbe5a522b	-0.21320407
163	0x3d2e76c0	0.042593718
164	0x3db1f4a6	0.08689241
165	0xbd3addaf	-0.04562157
166	0x3d804d73	0.06264772
167	0x3d65b7ef	0.056083616
168	0x3cecf3bc	0.028924815
169	0xba572ae8	-0.00082079927
170	0xbd6e8c6f	-0.058239397
171	0xbc7c20f2	-0.015388714
172	0xbd887d20	-0.06664491
173	0x39464c5b	0.00018911196
174	0xbc06a432	-0.008217858
175	0xbe3af286	-0.18256578
176	0xbdc7fdcd	-0.097652055
177	0xbd509e6b	-0.05093233
178	0xbe23ea5b	-0.16007368
179	0xbdfb71fe	-0.12277602
180	0x3e7d56b7	0.2474011
181	0x3dad84c5	0.084725894
182	0xbceefdb5	-0.029173711
183	0xbda7cc6c	-0.08193287
184	0x3c969fd2	0.018386755
185	0xbe9cc624	-0.3061992
186	0xbe908f9d	-0.28234568
187	0x3c0938a1	0.008375318
188	0xbe145c9f	-0.14488457
189	0xbdcf49a9	-0.101214714
190	0x3eff0072	0.49805027
191	0x3dab8e0a	0.08376701
192	0x3e6041f5	0.2190016
193	0xbcf12343	-0.02943576
194	0xbd7d0e52	-0.061781235
195	0x3e595480	0.2122364
196	0xbd489e4c	-0.04897909
197	0xbde139ae	-0.1099733
198	0xbd19c661	-0.037542704
199	0x3e1ab3b0	0.15107608
200	0x3e2f3265	0.17109068
201	0xbe8c713f	-0.2743015
202	0x3cf06d92	0.029349122
203	0x3b9fdb62	0.0048784474
204	0xbd4fe43a	-0.050754763
205	0x3d898907	0.06715589
206	0x3d1a2aa9	0.03763834
207	0xba0072e0	-0.000489993
208	0xbe4daa92	-0.20084599
209	0x3bbf57b1	0.005839311
210	0x3e03fc81	0.12889291
211	0x3cccbf06	0.02499343
212	0xbd7e4cbc	-0.0620849
213	0xbd4db905	-0.050225276
214	0x3d11e8fb	0.035622578
215	0x3db5b6f9	0.0887279
216	0x3e13d1c1	0.14435484
217	0xbde0cca9	-0.10976536
218	0xbddce310	-0.10785496
219	0x39242ea8	0.0001565764
220	0xbd6afea9	-0.05737177
221	0x3c7eac8d	0.015544069
222	0xbdc3dc89	-0.09563548
223	0xb95bb140	-0.00020951498
224	0xbd46b953	-0.048516583
225	0xbe5c936a	-0.21540609
226	0xbd276dfd	-0.040876377
227	0x3da43877	0.08018582
228	0x3d08e186	0.0334182
229	0xbb887247	-0.0041640135
230	0x3e28eeb1	0.16497304
231	0x3d93237c	0.071845025
232	0x3db94d4d	0.09047947
233	0x3f3c5689	0.7356954
234	0x3b097727	0.0020975561
235	0xbbced55f	-0.006312057
236	0x3db1b3c0	0.08676863
237	0x3cc74a8a	0.024327535
238	0x3dea1a37	0.11430781
239	0x3e0a56fc	0.13509744
240	0xbe4d106f	-0.200258
241	0xbd182c67	-0.03715172
242	0xbdc23cf2	-0.09484281
243	0xbd3be8f2	-0.04587645
244	0x3cff39af	0.031155435
245	0xbed17655	-0.40910593
246	0x3b48853c	0.0030596992
247	0xbc07e81f	-0.008295088
248	0xbdccca89	-0.09999568
249	0x3eb64c7a	0.35605222
250	0xbe720368	-0.23634112
251	0xbdfa4195	-0.1221954
252	0xbd4fd74b	-0.05074243
253	0xbe356b17	-0.17716633
254	0xbdf4fe97	-0.11962622
255	0x3df144ab	0.117806755

bias f4 [50]
0	0x3c024d1c	0.007952955
1	0xbd81b0d1	-0.06332553
2	0x3cfa226d	0.030533994
3	0xbbe7f802	-0.0070791254
4	0x3dba8134	0.09106675
5	0x3dac65ac	0.0841783
6	0xbcd806d4	-0.026370443
7	0x3d50d677	0.05098578
8	0xba63fcc0	-0.00086970255
9	0x3cc76c19	0.024343537
10	0x3c07414b	0.008255313
11	0xbc213fed	-0.009841901
12	0xbc6631e6	-0.014049983
13	0x3dc8da2d	0.09807239
14	0xbcd1e977	-0.02562402
15	0x3cd786c5	0.02630938
16	0x3bc51109	0.0060139936
17	0x3d6e8399	0.05823097
18	0x3d2483a3	0.0401646
19	0x3ca4a054	0.020095982
20	0x3d96bbdc	0.0736005
21	0x3d91a00c	0.07110605
22	0x3c8e8210	0.017396003
23	0x3db68cc9	0.089135714
24	0x3c8f92a5	0.01752598
25	0xbd5dca0f	-0.054147776
26	0x3bab585a	0.005229038
27	0xbd3c7406	-0.046009086
28	0xbd3b8e6a	-0.045790114
29	0x3dfc9319	0.12332744
30	0xbd58a77b	-0.052894097
31	0xbd8a7ba0	-0.06761861
32	0xbd8238ce	-0.06358491
33	0xbd4382cb	-0.047732156
34	0xbd7ab529	-0.061207924
35	0xbdc9d2d7	-0.09854668
36	0xbddc0ded	-0.10744844
37	0x3c66c489	0.014084944
38	0x3cc6c86c	0.02426549
39	0xbc34aa5b	-0.011026944
40	0xbd747432	-0.059681125
41	0x3cad0726	0.021121573
42	0x3dc092eb	0.094030224
43	0xbc67e85b	-0.014154519
44	0x3a76a545	0.00094087824
45	0xbd87add0	-0.06624949
46	0x3d173f64	0.03692569
47	0xbca6d5ac	-0.020365559
48	0xbb32688b	-0.0027222957
49	0xbc41c45b	-0.0118266

weight f4 [50, 50]
0	0xbd9e2a2f	-0.0772289
1	0x3db13e9f	0.08654522
2	0xbeaa1fd5	-0.3322741
3	0x3d3dd751	0.04634792
4	0x3dfaf18d	0.122531034
5	0x3d65dac8	0.05611685
6	0x3de7de91	0.11321748
7	0xbde9c1ab	-0.11413892
8	0xbd718baf	-0.058971103
9	0xbd3ca003	-0.046051037
10	0x3cfa8225	0.030579636
11	0x3ddad7cc	0.10685691
12	0x3e9e9c5f	0.30978677
13	0xbe5d6422	-0.21620229
14	0x3cb1792b	0.021664223
15	0x3dc08d56	0.09401958
16	0x3e08f53f	0.13374804
17	0x3e1f18c5	0.15536793
18	0xbe017cce	-0.12645265
19	0x3e8dcbd8	0.27694583
20	0x3d23d7d4	0.04000075
21	0xbe19a005	-0.15002449
22	0xbeb7006a	-0.35742503
23	0xbd41e023	-0.047332894
24	0x3cac073e	0.020999547
25	0xbc12068d	-0.008912695
26	0xbd68c109	-0.056824718
27	0x3da68c07	0.08132177
28	0x3e2a8197	0.16650997
29	0xbdd03595	-0.1016647
30	0xbd842333	-0.06452026
31	0xbdd1326d	-0.10214696
32	0x3e41a45c	0.18910354
33	0x3d32972a	0.043601193
34	0xbe0e38b3	-0.13888817
35	0xbd1e109a	-0.03859005
36	0x3ef37be8	0.4755547
37	0x3a92f13d	0.0011210811
38	0xbdd78d7f	-0.10525035
39	0xbd506ba0	-0.05088389
40	0x3c64a318	0.0139549
41	0xbe3fd818	-0.18734777
42	0xbe0ea14e	-0.1392872
43	0xbdd28906	-0.102800414
44	0x3e5f5562	0.21809915
45	0x3ef36021	0.47534278
46	0xbd7b8f79	-0.061416123
47	0x3e1aa938	0.15103614
48	0xbb2e97a6	-0.0026640682
49	0x3d0deee5	0.034651656
50	0x3ca07e75	0.01959155
51	0xbd0c59da	-0.034265377
52	0x3e3451c5	0.17609318
53	0x3d830ea9	0.063992806
54	0x3e2d2919	0.16910209
55	0xbebb0412	-0.36526543
56	0xbdf484f4	-0.11939421
57	0xbdb014a9	-0.085976906
58	0x3e40d0cf	0.18829654
59	0xbe4a5d93	-0.19762258
60	0xbdb53d56	-0.088495895
61	0xbd888e5e	-0.066677794
62	0x3e94630c	0.28981817
63	0x3d60ce1b	0.054884057
64	0xbc663c47	-0.014052457
65	0xbe92a1ae	-0.28638977
66	0xbcbc4e91	-0.022986682
67	0xbf13b0be	-0.5769156
68	0x3de27ba6	0.1105874
69	0x3cbec067	0.023285104
70	0x3e48d970	0.19614196
71	0x3e2366d1	0.1595719
72	0x3e929daa	0.28635913
73	0x3c8aa8e4	0.016926236
74	0xbe269e0b	-0.16271226
75	0xbdb24e8e	-0.08706389
76	0x3e4b0d53	0.19829302
77	0x3c2eca13	0.010668295
78	0xbf575851	-0.84119135
79	0x3e8a5df6	0.27024812
80	0x3d8c8142	0.068605915
81	0x3d1a8e01	0.03773308
82	0x3ceb891f	0.028751908
83	0xbe020bb5	-0.12699778
84	0x3e868709	0.262749
85	0x3c870761	0.01648301
86	0xbf79e089	-0.9760824
87	0x3d934867	0.07191544
88	0xbbc028f9	-0.0058642593
89	0x3cb7b58f	0.022425441
90	0x3dd06c2b	0.101768814
91	0x3d15a66a	0.036535658
92	0x3cf57cba	0.0299667
93	0x3e60d080	0.21954536
94	0xbe6fe229	-0.23426117
95	0xbe4bb209	-0.19892134
96	0x3dd882e0	0.105718374
97	0xbf0ae03c	-0.54248405
98	0x3e9ca036	0.3059098
99	0x3e1a36bd	0.15059943
100	0xbf0cce55	-0.5500234
101	0x3e59c28f	0.21265624
102	0xbb0294e6	-0.0019925176
103	0xbe53839c	-0.20655674
104	0xbefd923d	-0.49525633
105	0xbd59fe69	-0.05322114
106	0x3e5a1a80	0.21299171
107	0xbe3f5126	-0.186833
108	0xbe12f4d0	-0.14351201
109	0xbd1e7ef5	-0.038695294
110	0xbebacfaa	-0.3648656
111	0xbd432937	-0.047646727
112	0x3ec93d22	0.39304453
113	0xbe911eb8	-0.2834375
114	0xbbe626f9	-0.007023689
115	0x3daba387	0.083808
116	0x3df62d1d	0.120203234
117	0x3e2e1a9e	0.17002341
118	0xbe51eea2	-0.20501187
119	0xbe0ebf1a	-0.13940087
120	0xbe8b02f5	-0.27150694
121	0xbef178fc	-0.47162616
122	0xbe9d9109	-0.30774716
123	0x3d07db88	0.033168346
124	0x3bd59924	0.0065185
125	0x3e1c1776	0.15243325
126	0xbe27db21	-0.16392185
127	0xbdb8e9ef	-0.09028994
128	0x3e88cfb7	0.26720974
129	0xbe49f9f1	-0.19724251
130	0xbd44e6aa	-0.04807154
131	0x3dece327	0.11566763
132	0x3cbb36d1	0.022853287
133	0x3d52a8d6	0.051430546
134	0xbd3d0d4e	-0.046155266
135	0x3e649386	0.223219
136	0x3ed6fd63	0.41990194
137	0xbefdba12	-0.49556023
138	0x3ddcf4e8	0.107889
139	0xbe30ae9a	-0.17254105
140	0xbd13fd57	-0.036130276
141	0xbe354a0e	-0.17704031
142	0xbde1f47e	-0.11032961
143	0xbef587f4	-0.47955287
144	0x3e29fd2b	0.16600482
145	0xbf22c737	-0.6358523
146	0x3dfb4f5a	0.122709945
147	0x3e68ca4a	0.22733417
148	0x3c6bb305	0.014385943
149	0xbe17d45d	-0.14827104
150	0xbe46f2f6	-0.1942862
151	0xbe131782	-0.14364436
152	0x3f0cebd3	0.5504734
153	0xbbdced21	-0.006742135
154	0x3e9caef8	0.3060224
155	0xbf28cf3e	-0.65941226
156	0xbe1a5173	-0.15070133
157	0xbdfce9fc	-0.123493165
158	0x3e80d163	0.2515975
159	0x3e085128	0.13312209
160	0xbe3fea7d	-0.18741794
161	0xbe4a27fc	-0.19741815
162	0x3e07d15b	0.13263457
163	0x3cbd3ecc	0.023101233
164	0xbd6348dc	-0.055489406
165	0x3e1da00a	0.15393081
166	0x3e2128ee	0.1573827
167	0x3dcb28b9	0.099198766
168	0xbc44a885	-0.012003069
169	0x3e7286fd	0.23684306
170	0x3e1be4d7	0.15224014
171	0xbe8c752d	-0.27433148
172	0xbda2fba1	-0.07958151
173	0xbc6e4fba	-0.0145453755
174	0x3e05827a	0.13038054
175	0xbe8263a8	-0.25466657
176	0xbdc36689	-0.095410414
177	0xbe108e16	-0.14116701
178	0xbee5f81a	-0.4491585
179	0xbd851bbc	-0.064994305
180	0xbc80f3ca	-0.015741248
181	0x3d9ce3a4	0.076606065
182	0x3d923d84	0.071406394
183	0xbd5667ed	-0.052345205
184	0x3dc52df6	0.09627907
185	0xbdcbd18d	-0.09952078
186	0x3f792aac	0.9733074
187	0x3da0767d	0.078351
188	0xbe8e17c1	-0.27752498
189	0xbe119d60	-0.1422019
190	0x3d941df6	0.07232277
191	0x3e8fb87b	0.28070435
192	0xbb4de3ff	-0.0031416414
193	0xbddb90a5	-0.10720948
194	0x3eb028d1	0.3440614
195	0x3e374798	0.17898405
196	0x3c5ddbca	0.013541171
197	0xbe2baa0f	-0.16764091
198	0x3d2ea6c9	0.042639527
199	0x3e212d69	0.15739979
200	0x3e0441af	0.12915681
201	0x3d8ed405	0.06974033
202	0x3d9ac964	0.075579435
203	0xbc781de6	-0.015143847
204	0x3e0aadb7	0.1354283
205	0x3e4d83a5	0.2006975
206	0xbded4cb4	-0.115868956
207	0x3e77ebce	0.24211046
208	0xbd442269	-0.04788438
209	0x3d9343b2	0.07190646
210	0x3e80e0f4	0.25171626
211	0x3e832385	0.25613037
212	0xbf9e82f8	-1.2383718
213	0x3e1a1d05	0.15050133
214	0x3cbab248	0.02279009
215	0x3b6e541e	0.0036366056
216	0xbe44df68	-0.19225848
217	0xbd2e6352	-0.042575188
218	0xbd5ffbf7	-0.05468365
219	0x3e18075a	0.14846554
220	0x3c95d276	0.018288832
221	0xbdd1cc6d	-0.10244069
222	0x3ea4fbae	0.32223266
223	0x3dcc4754	0.09974542
224	0x3e94633b	0.28981957
225	0xbf91d6fb	-1.1393732
226	0x3e11cef5	0.14239104
227	0x3d370cc0	0.044689894
228	0xbe26c375	-0.16285498
229	0x3df38eaa	0.118924454
230	0xbdd05849	-0.10173089
231	0x3cbdc67e	0.023165938
232	0x3c0c9e55	0.008582671
233	0x3e55d5a3	0.20882277
234	0xbea02456	-0.31277722
235	0x3e34485b	0.17605726
236	0xbf1acaaa	-0.6046549
237	0x3e00dc7e	0.12584111
238	0xbd63c7b4	-0.055610374
239	0xbd9b30ab	-0.07577642
240	0xbe8b208a	-0.27173263
241	0x3ec45e1d	0.38353053
242	0x3be2a4d6	0.0069166226
243	0x3ad7e1fc	0.0016470547
244	0x3d9651f2	0.073398486
245	0xbf4c47f5	-0.797973
246	0x3e75e0b1	0.24011494
247	0xbd36c29c	-0.044619188
248	0x3d5b93ee	0.053607874
249	0x3ca98f78	0.020698294
250	0x3e2a04a0	0.16603327
251	0xbdaa9d75	-0.08330814
252	0xbfaccb4e	-1.3499544
253	0x3d083d38	0.033261508
254	0x3de606b8	0.1123175
255	0x3ec2dd4f	0.3805947

bias f4 [50]
0	0xbe132e13	-0.14373045
1	0x3e251c30	0.16124034
2	0xbe296df9	-0.16545857
3	0x3db08d80	0.08620739
4	0xbc98a13d	-0.018631572
5	0xbc1fcb99	-0.009753131
6	0x3e7acf4d	0.24493141
7	0x3e2b860b	0.16750352
8	0xbe34f841	-0.17672826
9	0x3d343f89	0.044005904
10	0xbd2ee247	-0.042696264
11	0x3d0a21d8	0.033723682
12	0x3df1f552	0.11814369
13	0xbd031f64	-0.03201236
14	0xbd1fbef5	-0.03900047
15	0xbe1d2aeb	-0.15348403
16	0xbdcb3f2d	-0.09924159
17	0xbdced55d	-0.100992896
18	0x3c958322	0.018251006
19	0xbc377f6e	-0.011199815
20	0x3d325472	0.043537565
21	0x3e737f9f	0.23779152
22	0x3a89ebb2	0.0010522513
23	0x3e277656	0.16353735
24	0x3e3d0828	0.18460143
25	0x3e0d29bc	0.13785452
26	0x3bbbbd51	0.0057293554
27	0x3d3f098b	0.04663996
28	0xbdf11001	-0.11770631
29	0x3e13dc49	0.14439501
30	0xbc56016b	-0.0130618615
31	0xbcf2e1cc	-0.029648684
32	0xbdade216	-0.08490388
33	0xbc870fff	-0.01648712
34	0xbccac913	-0.024754083
35	0x3e59da30	0.21274638
36	0xbdd46b27	-0.10372
37	0xbba551ed	-0.0050451667
38	0xbde096cc	-0.10966262
39	0x3d9071be	0.070529446
40	0x3d1f4e69	0.038893137
41	0x3e9e16fe	0.30876917
42	0x3e398ce2	0.18120149
43	0x3decb4af	0.115579
44	0x3e340b6f	0.17582487
45	0xbdc0630a	-0.0939389
46	0x3e013ed5	0.12621625
47	0x3e06de3f	0.13170718
48	0x3dc822b5	0.09772245
49	0xbe08d149	-0.13361086

weight f4 [50, 50]
0	0xbd8ae59f	-0.06782078
1	0xbd0165ca	-0.031591214
2	0x3cc948c1	0.024570825
3	0x3e04e95a	0.12979642
4	0xbd6b8f3e	-0.057509653
5	0x3c51400f	0.01277162
6	0x3d19cb3c	0.037547335
7	0x3dcbec1d	0.099571444
8	0x3c22e401	0.009942056
9	0xbdfe34d7	-0.12412422
10	0x3d89263f	0.06696748
11	0x3e8adb89	0.27120617
12	0xbdf58831	-0.11988867
13	0x3e2f89b6	0.17142376
14	0xbd82c624	-0.063854486
15	0xbc8fdfa1	-0.01756269
16	0x3e65949c	0.22419971
17	0x3dd10251	0.1020552
18	0xbd2f760e	-0.042837195
19	0x3c23f46e	0.010007007
20	0xbce99bfa	-0.028516758
21	0x3eb1c54b	0.34720835
22	0x3b7019b1	0.0036636407
23	0x3ce262d6	0.02763502
24	0x3d93273a	0.07185216
25	0xbcacdce2	-0.021101419
26	0xbebf9a56	-0.37422436
27	0x3d08b58d	0.033376265
28	0x3e77eda3	0.24211745
29	0xbd76bf3a	-0.06024096
30	0xbc936f08	-0.01799728
31	0x3d2ed323	0.042681824
32	0x3df4388e	0.119248495
33	0xbe483abc	-0.19553655
34	0x3d5350c4	0.051590696
35	0x3d5038ed	0.05083554
36	0xbd9a7d22	-0.075433984
37	0x3d399d84	0.045316234
38	0x3e603edb	0.21898977
39	0xbc9cf7dc	-0.019161157
40	0x3cb01606	0.021494877
41	0xbd4119c6	-0.04714372
42	0x3d65a2a0	0.056063294
43	0x3ce2fa2a	0.027707178
44	0xbe222f73	-0.15838413
45	0x3c122f9b	0.008922483
46	0x3c927cad	0.017881716
47	0xbddd782e	-0.10813938
48	0x3d696a21	0.056985978
49	0xbdf717c8	-0.12065083
50	0xbd1eac4b	-0.03873853
51	0xbc9e8b1c	-0.019353442
52	0xbd275912	-0.04085643
53	0x3d92dd4c	0.07171115
54	0xbe2f158b	-0.17098062
55	0xbda39a9a	-0.07988472
56	0xbe8a3e02	-0.27000433
57	0x3d8d1de6	0.06890468
58	0xbe3f811c	-0.18701595
59	0x3ce0554b	0.02738442
60	0x3e375a93	0.17905645
61	0xbe82b111	-0.25525716
62	0xbd70e2dd	-0.058810104
63	0x3d7b21bd	0.061311472
64	0x3e0f5352	0.13996628
65	0xbd9cd152	-0.07657112
66	0x3d3c9c5c	0.046047553
67	0xbd824870	-0.063614726
68	0xbc3433ca	-0.010998676
69	0xbb48d659	-0.003064534
70	0x3a58821c	0.0008259134
71	0x3e416ece	0.18889925
72	0x3e4ae226	0.19812831
73	0x3e8e68a3	0.27814206
74	0xbd4f9667	-0.050680544
75	0xbe451ae8	-0.19248545
76	0xbdd4dba6	-0.10393457
77	0xbe1b42e0	-0.1516223
78	0x3e788cc6	0.24272451
79	0xbdce921b	-0.10086461
80	0xbe746c66	-0.23869476
81	0x3ddbf2f1	0.10739697
82	0xbdcc1db1	-0.09966601
83	0x3e337c55	0.17527898
84	0x3e3b961a	0.18318978
85	0xbd5813b5	-0.05275317
86	0xbdeb4070	-0.114869
87	0xbca0faac	-0.01965078
88	0x3dbb1e5a	0.091366485
89	0x3e84b95b	0.25922665
90	0x3d9c6d8d	0.07638083
91	0x3e4ba1f6	0.19886002
92	0x3d33ad3b	0.043866377
93	0x3dee6ae1	0.11641479
94	0x3dcbc570	0.099497676
95	0xbdf9618c	-0.12176809
96	0xbe15ab15	-0.14616044
97	0xbe3b316b	-0.1828057
98	0xbdca9031	-0.098907836
99	0xbdc315ee	-0.09525667
100	0xbe0e5ef5	-0.1390341
101	0x3d0d6de4	0.034528628
102	0xbe3ae85f	-0.18252705
103	0xbdcea4e5	-0.10090045
104	0xbd7e643c	-0.06210731
105	0x3e0ba4c8	0.13637078
106	0x3dcb0ede	0.09914945
107	0x3c3f55d8	0.011678182
108	0x3c94b2cc	0.018151663
109	0xbdef4bac	-0.11684355
110	0xbd5c0599	-0.053716276
111	0xbe2c5352	-0.16828659
112	0xbdd0a664	-0.101879865
113	0x3e125bf8	0.14292896
114	0xbd8894d3	-0.06669011
115	0xbc77c65a	-0.015122974
116	0x3e242ab5	0.16031916
117	0x3d6be3e8	0.057590395
118	0x3e81155e	0.25211614
119	0x3c6e5c5b	0.014548386
120	0x3ae0d95d	0.0017154623
121	0x3e89e874	0.2693516
122	0xbe3bd8ad	-0.18344374
123	0xbe5c07bb	-0.21487324
124	0x3e2327ef	0.15933202
125	0x3d1fb28b	0.03898863
126	0x3df7a054	0.12091127
127	0xbd9106be	-0.07081364
128	0x3e7ac4a3	0.24489073
129	0x3e1548a5	0.14578493
130	0xbe9e9ee1	-0.3098059
131	0xbd4dfd7f	-0.05029058
132	0xbe39ffd4	-0.18163997
133	0xbe717c47	-0.23582564
134	0x3d6ecdb1	0.05830163
135	0xbdf89156	-0.12137096
136	0x3cad325b	0.021142175
137	0xbe0677ad	-0.1313159
138	0x3e2d777a	0.16940108
139	0x3d105f31	0.03524703
140	0x3e04e5f9	0.12978353
141	0xbd445be2	-0.04793919
142	0xbd84b8e1	-0.06480575
143	0x3c2b26eb	0.0104462905
144	0x3d37c1b6	0.04486247
145	0xbe624431	-0.22096325
146	0xb82798ed	-3.9958326e-05
147	0x3d6a164f	0.05715018
148	0x3c140368	0.009034015
149	0xbdd07c0f	-0.10179912
150	0x3c17711d	0.009243277
151	0xbd10c837	-0.03534719
152	0x3e9aee83	0.30260095
153	0xbd22e0a5	-0.03976502
154	0x3dc886dc	0.097913474
155	0xbdec8c9a	-0.11550255
156	0x3dc5e527	0.09662848
157	0xbe18ca04	-0.14920813
158	0x3e1c9b7b	0.15293686
159	0x3e2b4916	0.16727099
160	0x3da8c642	0.0824094
161	0x3a053796	0.00050818303
162	0x3dcce2b9	0.100041814
163	0x3e1a3367	0.15058671
164	0xbe541014	-0.20709258
165	0x3e121c7b	0.14268677
166	0x3e7045e9	0.23464169
167	0x3e119d1f	0.14220093
168	0x3e34cbff	0.17655943
169	0x3c1e8c60	0.009677023
170	0x3defee2b	0.11715349
171	0x3e84f7c3	0.25970277
172	0xbdaffac0	-0.08592749
173	0x3e0b0bce	0.13578722
174	0xbe075255	-0.13215001
175	0x3e8c0ed6	0.2735507
176	0x3df38d76	0.11892216
177	0xbe8ea211	-0.27858022
178	0x3da1d56b	0.07902034
179	0xbcbb73cf	-0.02288237
180	0xbe8a3bcb	-0.26998743
181	0xbde4aed5	-0.11166159
182	0xbd397c27	-0.045284417
183	0xbd76ef55	-0.06028684
184	0x3e11e369	0.14246906
185	0x3dfa28b7	0.12214797
186	0x3e698e42	0.22808173
187	0xbd6e8a69	-0.058237467
188	0xbde696f7	-0.11259263
189	0xbddd9947	-0.10820251
190	0x3ba93b70	0.005164556
191	0xbe4721c2	-0.19446471
192	0xbd47f6cc	-0.04881935
193	0xbe0a89a8	-0.13529074
194	0xbccfc946	-0.02536453
195	0xbe481d57	-0.19542442
196	0x3d64d53f	0.05586743
197	0x3e6b38c5	0.22970875
198	0x3dec0891	0.115250714
199	0xbe90760f	-0.28215072
200	0xbdab5810	-0.08366406
201	0x3e529377	0.20564066
202	0xbd8af5a0	-0.067851305
203	0xbe7b9f17	-0.24572407
204	0x3d659bc3	0.05605675
205	0x3c525a92	0.012838976
206	0x3d231a6e	0.039820127
207	0xbac2f7d8	-0.0014874889
208	0x3e08cc2b	0.13359134
209	0xbcb718c0	-0.022350669
210	0xbb7df0aa	-0.0038748183
211	0xbdf8e88e	-0.12153731
212	0x3e534a36	0.20633778
213	0x3e4f707a	0.2025775
214	0x3ca76c08	0.020437256
215	0xbc8d3114	-0.017235316
216	0xbd22c3fd	-0.03973769
217	0x3d64ac1c	0.0558282
218	0xbe9c7b85	-0.30562988
219	0xbd567d04	-0.052365318
220	0xbe2e4f07	-0.17022334
221	0x3e50664a	0.2035152
222	0x3d42b93e	0.047539942
223	0xbe679c21	-0.22618152
224	0xbd3a0755	-0.04541715
225	0x3d8f677c	0.0700216
226	0xbca274b9	-0.019831048
227	0xbe9c17f8	-0.30487037
228	0x3d9181f4	0.07104865
229	0xbd264471	-0.040592615
230	0xbd87aa02	-0.06624223
231	0xbe10886a	-0.14114538
232	0x3e55ce6c	0.20879525
233	0xbd795b3b	-0.06087802
234	0x3d870aea	0.065938786
235	0xbd97a6d7	-0.07404869
236	0x3cf6d880	0.030132532
237	0xbd772f66	-0.060347937
238	0x3e700566	0.2343956
239	0xbe05ffa3	-0.13085799
240	0x3d88aa6e	0.06673132
241	0xbe58576f	-0.21127103
242	0x3bb8e24c	0.005642211
243	0xbe6c2cb5	-0.2306393
244	0x3d9b8493	0.07593646
245	0xbe540b41	-0.20707418
246	0xbe484817	-0.1955875
247	0x3dd6b466	0.10483627
248	0x3cdda732	0.027057264
249	0x3ea3d95f	0.32001778
250	0x3cdfe263	0.02732963
251	0xbc9f955c	-0.0194804
252	0xbe9c0e0a	-0.3047946
253	0xbe142351	-0.14466597
254	0xbe2ac078	-0.16674984
255	0xbb5ef4f4	-0.0034020515

bias f4 [50]
0	0xbca891b5	-0.020577291
1	0xbd523d32	-0.05132789
2	0x3c855b81	0.016278984
3	0x3cfc86d9	0.03082602
4	0xbc29e5d1	-0.010369734
5	0x3da46241	0.08026553
6	0xbd3d2e58	-0.046186775
7	0xbb8937a5	-0.0041875415
8	0x3d08d1de	0.03340327
9	0x3b920e3d	0.0044572637
10	0x3ceacfc3	0.028663522
11	0x3b8a5e8e	0.0042226976
12	0x3cdcc207	0.026947988
13	0xbd6188e2	-0.055062182
14	0x3d22b30a	0.039721526
15	0xbcb35797	-0.021892352
16	0xbb5b9707	-0.0033506767
17	0xbc0762bc	-0.008263286
18	0x3db8a882	0.09016515
19	0x3b20a4ba	0.0024512247
20	0x3cbeefcc	0.023307703
21	0x3dd3d295	0.103429
22	0x3db3e55b	0.087839805
23	0x3dd08e2f	0.10183369
24	0xbd13b921	-0.036065225
25	0xbd07ea61	-0.033182506
26	0x3d1172fc	0.03551005
27	0xbd11d597	-0.035604086
28	0x3d86452d	0.06556163
29	0x3d843275	0.064549364
30	0xbd157237	-0.036485877
31	0xbd9c9a3d	-0.07646606
32	0xbd43fb22	-0.04784692
33	0xbd728b98	-0.05921516
34	0x3ccf563e	0.025309678
35	0xbd7e3812	-0.06206519
36	0xbcfb37f0	-0.030666322
37	0xbb71dfa2	-0.0036906977
38	0x3c042d93	0.008067506
39	0x3d82dc1d	0.063896395
40	0xbd921259	-0.07132406
41	0xbd05d017	-0.032669153
42	0x3e013b4f	0.1262028
43	0xbd961306	-0.07327847
44	0x3cf6bc74	0.030119158
45	0x3c4a8bc8	0.012362428
46	0x3c803782	0.015651468
47	0x3c0f5df3	0.008750427
48	0xba613411	-0.00085908273
49	0xbc83831b	-0.016053727

weight f4 [87, 50]
0	0xbe22a845	-0.15884502
1	0xbd782fdd	-0.06059252
2	0xbcff3b3e	-0.031156179
3	0xbd101a54	-0.03518136
4	0x3c75af99	0.014995479
5	0xbdc46fa6	-0.09591608
6	0x3e0d4504	0.13795859
7	0x3b272ab3	0.0025507628
8	0xbcdc140d	-0.02686503
9	0xbd841d72	-0.06450929
10	0x3dc89ac0	0.09795141
11	0x3dab78c6	0.08372645
12	0x3d06b015	0.03288277
13	0x3dc22e37	0.09481471
14	0x3e04d26c	0.12970895
15	0xbd392ec5	-0.04521062
16	0xbdc9a09b	-0.09845086
17	0xbdbe8389	-0.09302432
18	0xbd1e39d9	-0.038629387
19	0x3c721984	0.014776591
20	0x3d088067	0.03332558
21	0x3e279cc3	0.16368394
22	0x3e029593	0.1275237
23	0xbce5b39a	-0.028039742
24	0xbe0f2fef	-0.13983129
25	0x3da8713a	0.08224721
26	0xbe114fc3	-0.14190583
27	0xbc2e8a6b	-0.010653119
28	0xbd608b29	-0.054820213
29	0xbd758896	-0.05994471
30	0x3def5004	0.11685184
31	0x3d5c7e29	0.053831253
32	0x3e171570	0.14754272
33	0xbe23cecd	-0.15996857
34	0xba2d63ec	-0.0006614316
35	0xbd8f1c91	-0.069878705
36	0x3dc4563b	0.0958676
37	0x3d436f36	0.04771348
38	0xbc6e46e1	-0.014543266
39	0x3d2cf4a1	0.042225484
40	0xbd5e3180	-0.054246426
41	0x3e06f429	0.13179077
42	0x3b1b0ec8	0.0023659933
43	0x3dcbead9	0.09956903
44	0x3cae6e4e	0.021292832
45	0x3df3d256	0.11905353
46	0x3c233424	0.009961162
47	0xbe307164	-0.17230755
48	0xbd48e0ed	-0.04904263
49	0x3e2659a2	0.1624513
50	0xbe142249	-0.14466204
51	0x3c838c5a	0.016058136
52	0xbc849442	-0.016183976
53	0xbe2f7bd4	-0.1713708
54	0xbd8ffdac	-0.07030806
55	0x3d5c0115	0.05371197
56	0xbde5a755	-0.11213557
57	0xbdd32f42	-0.10311748
58	0x3e747286	0.23871812
59	0x3e27f232	0.16400984
60	0xbe0e7498	-0.13911664
61	0xbc123ace	-0.008925153
62	0x3e22f4a4	0.15913635
63	0x3e0fd9e3	0.14047961
64	0xbd48364f	-0.048879918
65	0xbba97da7	-0.0051724496
66	0x3d85201a	0.065002635
67	0x3df94587	0.121714644
68	0x3d27e235	0.040987212
69	0xbe2bd0fd	-0.16778941
70	0x3a381e01	0.0007023514
71	0xbc9933d0	-0.018701464
72	0x3e7c865b	0.24660628
73	0x3dbf6544	0.09345487
74	0xbb0fe9e8	-0.0021959487
75	0x3d6cac4e	0.05778151
76	0xbe292bd0	-0.1652062
77	0xbe30e4bc	-0.17274755
78	0x3e3227d4	0.17398006
79	0x3dccaf06	0.099943206
80	0xbdcf4ae9	-0.1012171
81	0xbd4c975e	-0.049949042
82	0xbdaf7f08	-0.08569151
83	0xbdff2577	-0.12458318
84	0x3e617768	0.22018206
85	0xbd4b56ec	-0.049643442
86	0xbd3c2885	-0.04593708
87	0xbd3edf8a	-0.046599902
88	0x3d83cc0e	0.06435405
89	0x3e02941e	0.12751815
90	0xbd8794ad	-0.066201545
91	0x3dc46a19	0.09590549
92	0x3dc2a34b	0.09503802
93	0x3cd8710e	0.026421096
94	0x3e1e53a1	0.1546159
95	0xbe06e762	-0.13174203
96	0x3d9f2bb0	0.077720046
97	0x3e067aa8	0.13132727
98	0x3e8196c4	0.25310338
99	0xbc9846e1	-0.018588485
100	0x3da02956	0.07820384
101	0x3d975bd1	0.073905595
102	0xbd3f982c	-0.04677598
103	0xbe0bf23e	-0.13666627
104	0xbd83e2d3	-0.06439748
105	0x3e0672f4	0.13129789
106	0x3df3d521	0.119058855
107	0x3dff7fe5	0.12475566
108	0xbe8a8f8d	-0.27062646
109	0xbc523337	-0.012829593
110	0x3c5c900d	0.013462079
111	0xbe0f350e	-0.13985083
112	0x3cf9c8f5	0.030491332
113	0xbd7ec2b8	-0.062197417
114	0xbd8ca198	-0.06866759
115	0x3d81dc0a	0.06340797
116	0xbda263a7	-0.079291634
117	0xbd093392	-0.033496447
118	0xbe107488	-0.14106953
119	0x3e6c3062	0.23065332
120	0xbdf86416	-0.12128465
121	0xbe565b54	-0.20933276
122	0xbe26b733	-0.16280822
123	0xbd5d3635	-0.054006774
124	0x3d6f2268	0.05838242
125	0xbd0dc472	-0.034611173
126	0x3e70d38b	0.23518197
127	0x3b01b424	0.001979121
128	0xbd970111	-0.0737325
129	0x3c2891f2	0.010288702
130	0xbd3e7acb	-0.046503823
131	0xbe430dae	-0.19048187
132	0xbc7eb98d	-0.015547168
133	0x3e7f2e83	0.24920087
134	0xbcfe2436	-0.031023126
135	0xbddd0c38	-0.10793346
136	0x3de91924	0.11381748
137	0xbc45cc64	-0.012072656
138	0x3e38c3dc	0.18043464
139	0xbe2c162e	-0.16805336
140	0xbda657b4	-0.08122197
141	0x3dbd2deb	0.09237274
142	0xbe83e09e	-0.25757307
143	0xbdbddc8b	-0.09270581
144	0xbda77938	-0.081774175
145	0xbd927127	-0.07150488
146	0x3e2b8fe8	0.16754115
147	0x3e00cbe6	0.12577781
148	0xbdbdcab9	-0.09267182
149	0xbd8108bc	-0.06300494
150	0xbc8e89d2	-0.017399702
151	0xbe34c9dc	-0.17655128
152	0x3d4046c1	0.046942476
153	0xbd1a98c5	-0.03774335
154	0xbc5e823b	-0.013580854
155	0x3cb5606f	0.02214071
156	0x3e388726	0.18020305
157	0x3e822692	0.25420052
158	0x3d1fee9b	0.03904591
159	0xbcf6071d	-0.030032689
160	0x3dcec327	0.10095816
161	0x3e6a54b4	0.22883874
162	0x3e0a40f7	0.13501345
163	0xbc4638f7	-0.012098542
164	0xbe77b0aa	-0.24188486
165	0xbe0e68fc	-0.13907236
166	0x3e2dadb5	0.16960795
167	0x3e0f3667	0.13985597
168	0xbc623ab0	-0.0138079375
169	0xbd86aae1	-0.06575561
170	0x3e3fe8d7	0.18741165
171	0x3e36b521	0.17842533
172	0xbd76fd46	-0.060300134
173	0xbc800a6c	-0.01562997
174	0x3e0ed771	0.13949372
175	0xbe6bdce6	-0.23033485
176	0x3cc44af9	0.023961531
177	0x3e4161a2	0.188849
178	0x3d36ea11	0.044656817
179	0x3c563094	0.013073105
180	0x3bd16d35	0.0063911923
181	0x3e29ae67	0.16570435
182	0x3d915c4b	0.070976816
183	0xbdad4fd6	-0.08462493
184	0x3e3a9afc	0.18223184
185	0x3d5caefb	0.053877812
186	0xbd6ea276	-0.058260404
187	0x3e3497f4	0.1763609
188	0xbda686d5	-0.08131186
189	0xbd401ccc	-0.046902463
190	0xbd3d0ecd	-0.046156693
191	0xbe3de34b	-0.18543737
192	0x3cd45b20	0.025922358
193	0x3e882f08	0.26598382
194	0x3e2d175a	0.16903439
195	0x3d9c7d1d	0.07641051
196	0xbcf4a5db	-0.029864242
197	0xbe2ac6e5	-0.16677435
198	0x3d214714	0.039374426
199	0xbd9a16e7	-0.075238995
200	0x3e42d4e6	0.19026527
201	0x3e166abb	0.14689152
202	0xbe57b426	-0.21064815
203	0x3eaece7a	0.34141904
204	0x3e771e91	0.24132754
205	0x3de337ff	0.11094665
206	0x3e2019fb	0.15634911
207	0x3e16acb9	0.14714326
208	0x3eadeead	0.33971158
209	0x3c9127c3	0.017719155
210	0xbe541351	-0.20710494
211	0xbd52b0f9	-0.051438306
212	0x3e02ad85	0.12761505
213	0xbeb5b553	-0.35489902
214	0xbd88737a	-0.066626504
215	0xbd83e9f9	-0.06441111
216	0xbc086650	-0.008325174
217	0x3d3cd319	0.046099756
218	0xbdfacba8	-0.122458756
219	0x3d06d0f4	0.032914117
220	0x3dee2a68	0.11629182
221	0x3e145d20	0.1448865
222	0x3e20acae	0.15690872
223	0x3dac6e7e	0.08419512
224	0x3e516359	0.20448054
225	0x3d9516c2	0.07279731
226	0x3dbfc41a	0.09363575
227	0x3b96cd31	0.0046020974
228	0x3ea97807	0.33099386
229	0x3d053dcb	0.032529633
230	0x3d5ef6e1	0.05443466
231	0x3dbe9124	0.09305027
232	0xbc786eb7	-0.015163115
233	0x3e39b145	0.18134029
234	0xbd0eaf26	-0.034835003
235	0x3d9743c8	0.07385975
236	0xbd9cb5f6	-0.07651894
237	0x3d4381b0	0.0477311
238	0x3e28ac18	0.16471899
239	0xbe213a36	-0.15744862
240	0xbe1b792b	-0.1518294
241	0xbd2f7ae0	-0.042841792
242	0xbc2b6317	-0.010460637
243	0xbe801d7d	-0.25022498
244	0x3c0b8923	0.008516583
245	0xbd8a7809	-0.06761176
246	0xbd4a0085	-0.0493169
247	0x3c495463	0.012288186
248	0xbdff5750	-0.124678254
249	0xb9d82248	-0.00041224272
250	0xbcf755fa	-0.030192364
251	0x3d062df9	0.032758687
252	0xbd0861d0	-0.033296406
253	0x3cc893af	0.024484484
254	0xbdea69ce	-0.11445962
255	0x3d84ea9c	0.06490061

bias f4 [87]
0	0x3d60c71f	0.054877397
1	0xbd7f4b2f	-0.06232756
2	0xbda93c3f	-0.08263444
3	0x3d995081	0.07486058
4	0x3e069a75	0.13144858
5	0xbd58e521	-0.05295289
6	0x3d8e15dc	0.06937763
7	0x3e0b3b16	0.13596758
8	0xbe3323e0	-0.17494154
9	0x3c289df5	0.010291566
10	0xbd12d5f8	-0.035848588
11	0x3cc1b0e7	0.023643924
12	0xbd5a6f00	-0.053328514
13	0xbe056059	-0.13025035
14	0xbd279fe9	-0.040923987
15	0xbdf04cc2	-0.117333904
16	0xbc380e8e	-0.011233939
17	0xbda607eb	-0.08106979
18	0x3aab49a3	0.001306821
19	0xbb7de09e	-0.0038738619
20	0xbd197207	-0.03746226
21	0x3e55b665	0.20870359
22	0xbd50a320	-0.050936818
23	0x3c5ba486	0.013405925
24	0xbe252618	-0.16127813
25	0xbd99edd5	-0.07516066
26	0x3d87c15f	0.066286795
27	0x3d9cecc1	0.07662345
28	0x3dd05a5b	0.10173484
29	0xbe30937c	-0.17243761
30	0xbdebeffb	-0.11520382
31	0xbd9dc272	-0.07703103
32	0xbe4046e4	-0.18777043
33	0x3b92886d	0.0044718296
34	0xbda26efd	-0.079313256
35	0x3d7bfce0	0.061520457
36	0xbd9a367b	-0.075299226
37	0x3e0a75a7	0.13521443
38	0x3d8fa55f	0.07013964
39	0xbdc9979b	-0.098433696
40	0xbdbc8a56	-0.09206073
41	0x3de86816	0.11347978
42	0xbe66e4c2	-0.22548202
43	0xbdd1af1e	-0.10238479
44	0x3dfa8c30	0.1223377
45	0xbe3a9aa9	-0.1822306
46	0xbe430758	-0.1904577
47	0xbccafada	-0.024777818
48	0xbd5eccd9	-0.054394577
49	0x3da3b1ff	0.079929344
50	0x3d398200	0.045289993
51	0xbd73160a	-0.05934719
52	0xbd0a5082	-0.033768184
53	0x3dae0344	0.084967166
54	0x3d707e14	0.058713987
55	0x3ce8aa69	0.02840157
56	0x3af012cb	0.0018316148
57	0x3d1b8423	0.037967812
58	0xbdbcb618	-0.09214419
59	0x3d8354cd	0.06412659
60	0x3dafbd3c	0.085810155
61	0xbdbb599e	-0.091479525
62	0x3dc43f2b	0.09582361
63	0xbcb8a205	-0.022538194
64	0xbdb177d6	-0.08665435
65	0x3e04a838	0.12954795
66	0xbd28c253	-0.041200947
67	0xbd8aaf81	-0.06771756
68	0xbdc8cf37	-0.09805148
69	0x3e68a018	0.22717321
70	0x3c0ae8e8	0.008478381
71	0xbe0a1d8d	-0.13487835
72	0xbe248ab3	-0.16068535
73	0x3e0eafea	0.13934293
74	0x3d5ef2dd	0.05443083
75	0x3d83bebd	0.06432865
76	0xbbd19b6c	-0.0063967016
77	0xbc287ff6	-0.0102844145
78	0x3dfd3315	0.12363259
79	0xbbdcddd6	-0.006740312
80	0x3d842840	0.064529896
81	0xbcb5986d	-0.022167409
82	0x3e5a9cfe	0.2134895
83	0xbc876891	-0.016529353
84	0xbe042aad	-0.12906905
85	0x3d839aed	0.06426034
86	0x3e07f3ab	0.13276546

bias f4 [5]
0	0x3ad7183d	0.0016410422
1	0x3c65dfd5	0.0140304165
2	0xbb304831	-0.0026898498
3	0xbc33bac2	-0.0109698195
4	0xbbd52c77	-0.0065055448

lower_entries f4 [10]
0	0x3ad4f103	0.0016246143
1	0xb999fe2d	-0.0002937181
2	0x3b8cfbc1	0.0043024723
3	0xbc2e522a	-0.010639707
4	0xbca1308c	-0.01967647
5	0x3b82a8ad	0.003987393
6	0x3c0719e3	0.008245918
7	0xbc19235b	-0.009346808
8	0x3be7f018	0.007078182
9	0x3d017e86	0.031614803

upper_entries f4 [10]
0	0xba8e467d	-0.0010854747
1	0xbba1a059	-0.004932445
2	0xbb6d3b3a	-0.0036198632
3	0x3c57372a	0.013135711
4	0xbb6cd8a5	-0.0036139872
5	0xbb885844	-0.0041609127
6	0xbc1f3287	-0.0097166365
7	0xb8d53052	-0.00010165632
8	0xbaa3c78c	-0.0012495383
9	0xbb1475cc	-0.002265322

unconstrained_upper_diag f4 [5]
0	0x3f07ad47	0.52998775
1	0x3f00da39	0.5033298
2	0x3f0a7fa7	0.5410103
3	0x3eddcac1	0.4331875
4	0x3f06fab3	0.52726287

weight f4 [50, 3]
0	0x3d442eae	0.04789608
1	0x3e4524dd	0.19252343
2	0x3f1841ca	0.59475386
3	0xbf0704d6	-0.52741754
4	0x3ec9d8d4	0.3942324
5	0x3e806eda	0.25084573
6	0xbe38e6e8	-0.18056834
7	0x3e835433	0.25650176
8	0x3d9078d3	0.070542954
9	0xbec3a118	-0.38208842
10	0xbf1b209c	-0.6059663
11	0xbea979ff	-0.33100888
12	0x3f38d725	0.72203285
13	0xbea9ab00	-0.33138275
14	0xbea6d0a2	-0.3258105
15	0xbf13532f	-0.57548803
16	0xbe0976c4	-0.13424212
17	0xbede1093	-0.4337202
18	0x3e2b9f4b	0.16759984
19	0xbeeb133c	-0.45913112
20	0x3e8db54d	0.27677384
21	0xbcdeb5ae	-0.027186241
22	0x3ee0f579	0.4393728
23	0x3e6a628d	0.22889157
24	0xbe38f7be	-0.18063256
25	0xbe81c8f5	-0.2534863
26	0xbe3c96f0	-0.18416953
27	0xbe8775d1	-0.26457074
28	0xbe8a6b39	-0.2703493
29	0x3f1c48c8	0.61048555
30	0xbe210466	-0.15724334
31	0xbefadf72	-0.489986
32	0xbf0d6b3b	-0.55241746
33	0x3e79ce06	0.24394998
34	0x3eb2721e	0.3485269
35	0x3efc0fd0	0.49230814
36	0x3e9c30c9	0.3050597
37	0x3efad90e	0.48993725
38	0xbe6a3c95	-0.22874673
39	0x3e8364dd	0.2566289
40	0xbed29378	-0.41128135
41	0xbee2c37b	-0.44289765
42	0x3f1ecdc1	0.62032706
43	0x3d2b4b3f	0.041819807
44	0xbdfd2f44	-0.12362531
45	0x3f07760d	0.52914506
46	0x3e8a9f60	0.27074718
47	0xbf347973	-0.70497817
48	0x3f076cf1	0.52900606
49	0x3eefc309	0.46828488
50	0x3c0ed6bb	0.008718188
51	0x3e261b89	0.16221441
52	0x3e536250	0.20642972
53	0xbf044fd7	-0.51684326
54	0xbf1281da	-0.5722939
55	0xbec413ca	-0.38296348
56	0xbdc4cbea	-0.09609206
57	0x3eb26a73	0.3484684
58	0xbeb6cd8b	-0.35703692
59	0x3bc6481c	0.0060510766
60	0xbc9e6945	-0.019337306
61	0x3edaab4b	0.4270881
62	0xbdab81f8	-0.08374399
63	0xbb96b3d0	-0.004599072
64	0xbeb6afd4	-0.3568102
65	0xbdb44307	-0.08801847
66	0xbed3fb7d	-0.41402808
67	0xbf1f8280	-0.623085
68	0x3de87f1f	0.113523714
69	0xbe9fa3d8	-0.3117969
70	0x3eae5154	0.34046423
71	0xbf412d63	-0.7545988
72	0xbde76220	-0.11298013
73	0x3ebfbd61	0.37449172
74	0xbf0ad3b4	-0.54229283
75	0xbecfd888	-0.40594888
76	0x3e3690c9	0.17828669
77	0x3eed92c3	0.46401033
78	0xbf0dce0d	-0.55392534
79	0x3eb7488d	0.3579754
80	0xbe0f9d68	-0.1402489
81	0xbebf4cc4	-0.37363255
82	0xbe378332	-0.17921141
83	0x3e05bd1a	0.13060418
84	0x3e898046	0.26855677
85	0xbf03996e	-0.5140599
86	0xbe5511d8	-0.20807588
87	0x3e57c8c2	0.21072677
88	0x3e1f942e	0.1558387
89	0x3da9f375	0.08298389
90	0xbe4eedb6	-0.20207867
91	0x3de19629	0.11014969
92	0xbefb2cdc	-0.49057662
93	0x3f372d92	0.7155391
94	0xbbdb6b48	-0.0066961385
95	0x3e49f1dd	0.1972117
96	0xbebc0b05	-0.36727157
97	0x3d90e291	0.07074464
98	0x3db6eab3	0.08931484
99	0xbed3ca43	-0.4136525
100	0xbebcd76b	-0.368831
101	0x3ee7a52a	0.45243198
102	0xbf028669	-0.50986344
103	0xbf15fb0a	-0.5858618
104	0x3e809197	0.25111076
105	0x3ea76f34	0.3270203
106	0xbf03b8a0	-0.5145359
107	0x3ef080e7	0.46973345
108	0x3ec9231d	0.39284602
109	0xbf025c46	-0.5092205
110	0xbe8070af	-0.2508597
111	0xbdb73946	-0.08946471
112	0x3f1c1552	0.6097003
113	0x3e186c99	0.14885177
114	0xbf134921	-0.5753346
115	0x3ead0f9f	0.3380098
116	0xbeacd398	-0.33755183
117	0xbe51ab41	-0.20475484
118	0xba9d9dbf	-0.0012025161
119	0xbf0749c7	-0.5284695
120	0x3ed1dbaf	0.40987918
121	0x3da17f5a	0.078856185
122	0x3df98074	0.121827036
123	0xbe8f3430	-0.27969503
124	0x3cf86054	0.03031937
125	0x3d55d2c9	0.052202974
126	0xbf12015b	-0.5703332
127	0xbeb30a2a	-0.34968692
128	0x3e508cc2	0.20366195
129	0xbf142158	-0.5786338
130	0x3c77ac63	0.015116784
131	0x3eccb8c1	0.39984706
132	0xbe84c603	-0.2593232
133	0xbd1916b4	-0.037375167
134	0x3f0ef90e	0.5584878
135	0xbe2838dc	-0.1642794
136	0xbf274b47	-0.6534924
137	0xbee4ab5a	-0.4466198
138	0x3d63f5b7	0.055654254
139	0x3f156b01	0.583664
140	0x3ebf9c0d	0.37423745
141	0x3dbbc17b	0.09167763
142	0xbe274418	-0.1633457
143	0x3f1b1859	0.60584027
144	0x3e094c7e	0.13408086
145	0xbb17d1ad	-0.0023165748
146	0xbebf0e79	-0.3731573
147	0xbde8a6ca	-0.113599375
148	0x3f023ab5	0.5087083
149	0x3f1deab2	0.6168624
