sbibm/tasks/slcp/files/num_observation_1/proposal.pt (torch, 333865 bytes, 83 tensors)

weight f4 [50, 2]
00000000: 41a2 343f b731 783e fdb8 fb3d 325b 2ebf
00000010: c267 e83d dece 5fbd 459d 25bd 8c29 fdbe
00000020: 077d 84be 4536 27bf b6dc e73c 7006 14bf
00000030: d572 d8be 40c4 8fbe ce5d c73d 247a 01bf
00000040: f75a 24bf dfd8 133f 0f77 f53e 9ff0 47bc
00000050: aca1 a9bd 47b7 953e e82a 7e3d d437 0a3f
00000060: 600c 0c3f 1d5e cfbe e079 2a3f 581c 3d3f
00000070: 4522 3abf aa38 ddbe 9d81 d3be 462b e4bd
00000080: 5239 10bf 728c 2abe ba91 26bf 3daa cdbe
00000090: 3416 f03e 397e a5be 8c77 043e 4039 86bc
000000a0: 4ce2 f63e 6cb1 0c3f f075 c6bd 56e0 4cbf
000000b0: 89a5 debd 58e8 90be f4ef 85bd 8d9e 34bf
000000c0: 6691 3a3d 31cd 163f 3127 32bf 0663 563e
000000d0: 76eb 0c3f a173 2c3d 7500 2e3e a7ab db3e
000000e0: 8270 e7be 5eea 2e3d 011b 54bf 1962 803d
000000f0: 79b0 1a3f 2bbd 10bf 84f9 cc3e ac52 5c3e
00000100: 704a efbe ff61 7ebd 561e 5c3e 99d9 34bf
00000110: 7fda 1a3f 00a8 3abe f894 413f 73ac a03e
00000120: 4d9b 9dbd 0758 973e ad2b 933b aa4f 23bf
00000130: ec0c 3fbf e6b6 463d ae33 283e 74db 813e
00000140: f0ad 2c3f 6e98 35bf f363 08bf 7b58 42bd
00000150: f320 75bc de88 44bf 968e db3d 1fca 773e
00000160: ce12 83be c9bd 223f 9f0e d4bd baa2 99bc
00000170: 45ef ba3e 0a3c 36be 63d7 2abf ba1e 4e3f
00000180: dd76 ac3e d778 8b3d 9fda 313f 031c d93e
0.7056008 0.24237715 0.12291143 -0.68107903 0.11347915 -0.054640643 -0.040433187 -0.4944576
-0.25876638 -0.65317184 0.028303485 -0.5782232 -0.4227511 -0.28079414 0.09734689 -0.50576997
-0.642013 0.57752794 0.47942397 -0.012203365 -0.082827896 0.29241392 0.062052637 0.53991437
0.5470638 -0.4050149 0.66592216 0.73871374 -0.7270854 -0.43207294 -0.41309825 -0.11141066
-0.56337464 -0.16655138 -0.6506611 -0.40168944 0.4689194 -0.32322863 0.12936229 -0.01638472
0.48219526 0.54958224 -0.096904635 -0.8002981 -0.10871417 -0.28302264 -0.06539908 -0.7055443
0.04554882 0.5890685 -0.6959105 0.20936212 0.55046785 0.04210246 0.16992362 0.42904398
-0.45203024 0.04270398 -0.82853705 0.06268711 0.60425526 -0.5653865 0.40034115 0.21515912
-0.4673648 -0.062105175 0.21495947 -0.7064453 0.6048965 -0.1822815 0.75617933 0.31381568
-0.07695637 0.29559347 0.0044912905 -0.6379343 -0.7462909 0.04851427 0.16425964 0.25362742
0.6745291 -0.70935714 -0.5327751 -0.047447663 -0.014961469 -0.7677134 0.107205555 0.24198197
-0.25600284 0.6357084 -0.10354351 -0.018754352 0.36510673 -0.1779634 -0.66734904 0.80515635
0.33684435 0.06810158 0.69474214 0.42404184

bias f4 [50]
00000000: d123 033e f2af 10bf 8d05 3fbf 2721 eb3e
00000010: 7c11 9ebe 60ee 25bf 8980 a2be ace5 cebe
00000020: 2302 4a3e 5674 093e a3c5 99be 4509 133f
00000030: 3434 2ebf 1969 9bbe cf7c 01be 0f75 8d3e
00000040: 8e93 5abf 82dd 4bbf f1ef 283f 1434 f33e
00000050: 9cdd d63e c330 d13a 62d1 8e3e c01e 283f
00000060: 29fc 0abf da24 dc3e 184e e93e 1837 24bf
00000070: 123a 65be edc6 2fbd 0e1f d8be 475b 90ba
00000080: 1b24 1b3f 149f 15bf d95d 0b3f b657 4dbf
00000090: 1fc8 3b3d 1a85 353d 46b0 fcbe 7089 f53c
000000a0: 7f33 4bbe 0559 0e3f b267 e83b 8ef7 6b3e
000000b0: 8b83 d8be d62f c63e 1b1e 203f 6be9 213f
000000c0: e599 b43e 97b8 c1bd
0.12806632 -0.5651847 -0.74617845 0.4592373 -0.30872715 -0.64816856 -0.3173869 -0.404096
0.19727378 0.13423285 -0.30033597 0.5743602 -0.68048406 -0.3035362 -0.12645267 0.2762837
-0.853814 -0.7963487 0.6599112 0.4750067 0.4196595 0.0015959967 0.2789412 0.6567192
-0.54291016 0.42996866 0.45567393 -0.64146566 -0.22385433 -0.04291432 -0.42211193 -0.0011013531
0.6060197 -0.5844586 0.54440075 -0.8021196 0.045845147 0.04431639 -0.49353236 0.029972762
-0.19843863 0.55604583 0.0070924396 0.23043653 -0.4228786 0.3870837 0.6254594 0.6324679
0.35273662 -0.09459036

weight f4 [50, 50]
00000000: 6dab 26bd cc31 fcbe b60d c2bd e0ca 3a3e
00000010: b2d6 a5bd 9fef 53bf 6894 67bc 50e4 2cbf
00000020: 7e10 293d 9f1f f23d 9ce6 debe 461d e0bd
00000030: e820 86bd 471a 09bd d9fa 1dbb 4f77 423e
00000040: a180 e8be b095 dbbd 1e6e 673e 86d3 043e
00000050: 5724 ec3d cf30 b9bd 3820 7bbd cc5d 0bbd
00000060: dc36 74be ee04 893c a93a 353b 3dcb 1fbe
00000070: 999b ddbd 1546 75bd 3438 dabd 487f 8cbd
00000080: 1bae 863d bcec f5be 7f58 163e 1188 663e
00000090: a4a3 eabd 5e35 163d 9fb2 bcbe 7937 373e
000000a0: 3247 393b cea4 5b3e 7d38 94bd c5f8 e23d
000000b0: c7b2 91be 537b 4e3e e429 0c3e cf8e 67bd
000000c0: a7cc 853d 3e95 293e f069 02be 3d55 903e
000000d0: b48b c73d 2731 87bd 700c 063e 543d db3e
000000e0: 2014 4c3d c2cb b33d d54b c53d 1b21 bdbd
000000f0: f611 313d ffbb 9c3d dff1 293e f8bb f73d
00000100: f9d4 bd3d 9c38 d53d 68d9 96be 5dcc 8bbd
00000110: 18c5 fa3d f555 a93b a450 4fbe d749 77bd
00000120: 2ef8 8c3d c14d 223e df12 aa3e c8bb 4d3e
00000130: 8759 6cbe 28e5 70be 64ab 423d 3183 b3bd
00000140: b08d 0f3e 901f debd 2444 38bc 1683 863e
00000150: 3b04 18be 1fa2 21be 8b62 c93d da14 923c
00000160: 5e12 e0bd 8874 6cbd 269d 313d 529d 093e
00000170: e9dc 203e aee4 443e 518b 063c 205f 25bc
00000180: 01c3 85bd 6371 023e 18e3 07bd c217 a03d
00000190: 3a62 463d 60d2 e93d 2dde eabc 5445 c7bc
000001a0: a370 113e 1498 3c3e e7b9 8fbf 50b8 983e
000001b0: 8765 68bc 42b7 02be 20b7 debd 6b5f 453d
000001c0: 7796 133d 757c 023e bb8b bdbe efee 2abe
000001d0: 7ab8 3c3d d8f6 58bf 579d 50be 3997 023e
000001e0: 63da f43d 1a14 ab3d 375e cebb 2add 4bbe
000001f0: a5ea bcbe 2571 4c3e 17ec 813c 3f06 26be
00000200: f7ae eebe 6938 01be a3e4 5a3e 5ca9 c7bd
00000210: b36b a83d cbd7 2f3e d5b2 0ebe 533d 643e
00000220: d763 e03d fa35 393d f779 a9be afb7 35bc
00000230: a030 993e 747c bdbb d744 553e 6ee6 8fbc
00000240: 240d 213e 98e7 76bd b0db 00be b849 e93c
00000250: 6929 cdbd 791a 6bbd a7bb af3d 045c 833e
00000260: 241b be3d a369 023e 09a7 203c d1ae b23e
00000270: 2c9d 0f3d 7318 c23d d8bb 103d 77b3 033e
00000280: 6f45 ac3e 251c e3bb 77ad 563e c75d e1bd
00000290: f7b5 743c 3883 7f3d 358f 8abe 86df a3bd
000002a0: 1bcc 7bbd 364f f2bd b8c5 38bb 39e3 5fbd
000002b0: 1b04 61bd 7cc9 fc3d 62a4 cf3e 113f 25bd
000002c0: 44e0 69bc 15f8 33bc 8e58 a23c 9192 85bd
000002d0: fe9b 363e 472f 113e 484a 6cbd edff 683e
000002e0: 9dc1 ddbd f0c7 3abe e3dc c6bd 47e7 053e
000002f0: 630f 01bc da0a 083e fb57 453c 29fc e3bc
00000300: 24c6 fc3d d139 273d 8dd3 133d d13c 10bc
00000310: f21a 0e3e ebf4 5a3e 26ed 333d 3783 0c3e
00000320: 9e83 b4bd ac93 88bd 357a aabb 13cd dd3c
00000330: df56 823e b02c 093e ba69 58bd a9f2 9c3d
00000340: c785 10bd aaa7 f6bd a451 b7bd 1540 3f3e
00000350: 4abe 8e3b 2e61 52bc bf61 1a3e bede 503e
00000360: 7bf9 2abf 9de7 12be 4df5 ba3d c9f6 efb9
00000370: 03b2 a93c b89b 9cbd b3aa c93d 7e4f 35be
00000380: 79c6 99bd 639a c0bd 8195 5cbe a21e a6bb
00000390: b68c b6be 9204 c53d 555b 7a3d 72de 0c3d
000003a0: b1bc d9bd 77a7 c53d 87b7 44be b85b 933e
000003b0: cc30 8a3e 8e70 0e3e 3b46 ddbe f720 cd3d
000003c0: 430e 44be ee7c fd3d 2690 353e a482 833e
000003d0: b463 253e 0ab1 14bd 6396 a63d 2fed 4a3e
000003e0: 500d febd dcea 5fb9 353e 01bd 6561 8fbe
000003f0: 5016 6a3d 74a2 113e 3d12 d0bb 07c5 36bf
-0.040690828 -0.49256742 -0.094752714 0.18241453 -0.080975905 -0.8278751 -0.014134504 -0.6753588
0.041275494 0.118224375 -0.43535316 -0.109430835 -0.06549245 -0.033472326 -0.0024105816 0.18990825
-0.45410636 -0.1072191 0.226006 0.12971315 0.11530369 -0.090425126 -0.061310023 -0.034025
-0.23849052 0.016725983 0.0027653372 -0.15604873 -0.108206935 -0.05988129 -0.10655251 -0.068602145
0.06576177 -0.48032176 0.14682196 0.22512843 -0.11456993 0.03667199 -0.36855027 0.17892255
0.0028271195 0.21449587 -0.07237337 0.11082605 -0.2845671 0.20164232 0.13687855 -0.056532677
0.06533175 0.16560838 -0.12735724 0.28190032 0.09743443 -0.06601172 0.13090682 0.42820227
0.04982388 0.08779098 0.096336044 -0.0923483 0.04323002 0.07653045 0.16596173 0.12096399
0.09269137 0.10411188 -0.29462743 -0.068260886 0.12244624 0.0051677176 -0.20245606 -0.060373154
0.06883274 0.15849973 0.33217523 0.20091164 -0.23081027 -0.23524916 0.047526732 -0.08765257
0.14018893 -0.10845864 -0.011246715 0.26271886 -0.14845364 -0.157845 0.09833249 0.017832208
-0.10941003 -0.05772832 0.04336276 0.13438919 0.1570927 0.1922786 0.008211927 -0.01009348
-0.06531335 0.12738566 -0.033175558 0.078170314 0.04843352 0.11417079 -0.028670395 -0.02432505
0.14203124 0.18417388 -1.1228608 0.2982812 -0.014184362 -0.1276522 -0.10874772 0.0481867
0.036032166 0.12742789 -0.37020668 -0.16692708 0.046074368 -0.84751654 -0.2037252 0.12753
0.119557165 0.083534434 -0.0062978524 -0.19908586 -0.3689777 0.19965036 0.015859647 -0.1621332
-0.46617863 -0.12619175 0.2137628 -0.097490996 0.08223667 0.17172162 -0.13935407 0.22289018
0.10956543 0.04521749 -0.33100864 -0.011091157 0.2991991 -0.0057826582 0.20827042 -0.017565932
0.15727669 -0.06027946 -0.12583804 0.028477535 -0.10017664 -0.057398293 0.08580714 0.2565614
0.092825204 0.1273561 0.009805449 0.34899 0.035062 0.094773196 0.03533539 0.12861429
0.33646724 -0.0069308453 0.20964609 -0.11004215 0.014935962 0.062381 -0.27062383 -0.08001618
-0.061473947 -0.118315145 -0.0028194021 -0.054660056 -0.054935556 0.123431176 0.40555102 -0.040343348
-0.0142746605 -0.01098444 0.019817617 -0.06522096 0.17832944 0.14178191 -0.057688028 0.22753878
-0.108279444 -0.18240333 -0.097100995 0.13076507 -0.007877204 0.1328539 0.012044902 -0.0278302
0.1234248 0.040826622 0.036090422 -0.008803562 0.13877466 0.21382491 0.043927334 0.1372193
-0.088141665 -0.06668791 -0.0052025565 0.027075326 0.25456902 0.13395953 -0.052835204 0.07663471
-0.03528383 -0.12043698 -0.089511186 0.18676789 0.0043561803 -0.012840552 0.1507635 0.2039747
-0.66786927 -0.14346166 0.09128819 -0.00045769502 0.020714765 -0.076468885 0.098470114 -0.17706105
-0.07508559 -0.09404447 -0.21541406 -0.0050695697 -0.3565423 0.09620012 0.061122257 0.034391828
-0.10631693 0.09651082 -0.19210635 0.28780913 0.26990354 0.13910124 -0.43217644 0.10016053
-0.19146065 0.12377344 0.1773077 0.25685608 0.16151315 -0.03630165 0.08134153 0.19817041
-0.12404883 -0.00021354429 -0.031553466 -0.28003994 0.057150185 0.14222127 -0.0063498304 -0.7139439

bias f4 [50]
00000000: 528d 8b3e 1c0d 66bd c02f fc3d 7840 dfbd
00000010: b2ce b93d d2f2 0f3e b44a 18bd 531a d23d
00000020: 5074 4d3e 3662 843d 9c7a bfbc b6d4 39bc
00000030: 451f 35bd a8cb c63b 586a c93d 12d3 93bd
00000040: 0969 9f3e 811a 043e 8cde e33c 8689 263e
00000050: d70b c73d d43f 1b3e e52c 8bbc 3fa1 963d
00000060: 9f5e 443e 2aeb 883c 9527 d7bd f4fe 423e
00000070: 29a8 f43d 5528 e13d 40b7 433e 893e 98bd
00000080: 8cfa e13d 7721 18be 3e09 4239 58c2 dabd
00000090: 2d93 c03d f611 283e 8c65 c43d 838f 62bd
000000a0: 26c7 433e 6c1c 0fbb 892d 4dbc 96b3 e7bc
000000b0: fbab 6cbc d520 2e3d 297e 4e3e 09f2 473e
000000c0: 6cc5 2c3e f803 48bd
0.27256256 -0.056164846 0.12313795 -0.10900968 0.09072627 0.14057472 -0.037180617 0.10258927
0.20063901 0.06464045 -0.023373894 -0.011342218 -0.044219274 0.006066758 0.098347366 -0.07217993
0.31134823 0.12900735 0.02781608 0.16263399 0.09719055 0.15161067 -0.01698918 0.07354974
0.1917672 0.016713697 -0.105055965 0.1904257 0.119461365 0.10994021 0.19112873 -0.07433803
0.11034116 -0.14856516 0.00018504725 -0.106815994 0.094030716 0.16413102 0.09589681 -0.055312645
0.19118938 -0.002183701 -0.012523063 -0.028283875 -0.0144453 0.04251178 0.20165314 0.19525923
0.16872185 -0.04883191

weight f4 [50, 50]
00000000: 9131 a93d 3465 6ebd 35d2 fbbd 54df d5bd
00000010: c2e9 c03c db9c 603d baa9 9bbc fed9 0d39
00000020: f2e4 2f3d adb9 e13d 657b 91bd b7cc 94bc
00000030: 9864 7bbd e31d 84bd f9f6 bc3d 82e4 5fbd
00000040: ea93 04bd d068 07be 6433 7c3b 855c 9dbc
00000050: 77bc 24bd 03fb 98bc 6291 adbd 661b f5bd
00000060: d44d c6bd d253 c0bd ac1c d8bc 9425 a63d
00000070: 6f80 c03b 4aa6 fbbd 847a 383e 0468 7cbd
00000080: cb58 94bc cde5 b03d 5bf2 cd3d 4ae4 babd
00000090: 3756 91bd e7ff e83c 3c82 5e3d a6ed 043d
000000a0: 4012 103e af9a 363d e6ef df3c 3a77 b5bb
000000b0: a0f7 02be 979a 90bd 06b0 ecbc 7ee8 a83d
000000c0: 4e80 19bb 75e2 883d 0ed4 1bbe 053c ba3d
000000d0: 3b64 0d3e e0d9 143d 10b2 2f3e da9e 263e
000000e0: e34d f43d 935f 1cbd 57ec cfbc dca6 8ebd
000000f0: bfa2 0a3d e5d9 1fbe c49a 0fbc 179a 6fbd
00000100: e8bb 0abe 0246 95be a31f 61be 2a7f d43d
00000110: 4cb8 c6bc f6e2 c13d 7ad8 edbd a4f9 f4bd
00000120: 5b07 bdbd 044f f7bd 2575 8bbd 5b38 17bd
00000130: fa07 86bd d9ba 0fbe c191 2e3e 2e9a 0ebe
00000140: d6b0 02be 6d15 f93d 11b2 2ebe 23ca a63b
00000150: c01c a83e 7381 0d3d a120 69be c0b9 42be
00000160: 090d 9dbc b10c e93d baa4 a7be 5576 a0bc
00000170: 1957 78bd 9986 5a3e 471b 563e 52e1 133e
00000180: 7e67 9abd 6855 26be e08d bfbd 7a81 3c3d
00000190: 4240 363e 8ec3 d83d 6df5 e33c 969f a33c
000001a0: 07e7 aebd 8542 a0bd 3038 cdbe ec83 80be
000001b0: 2cc0 52be a6b6 9d3d 8f3b a1bd fae4 5d3e
000001c0: 5088 31bb f5c0 eb3d b3ba f93d 2424 7cbe
000001d0: a5e8 c4bc d3ec 21be 1a25 6c3d 97de 0bbd
000001e0: 1834 97bd 23e7 2dbe e962 a0bd fbcf 36be
000001f0: f4d7 98be c503 d83b b894 8dbc 42cf 923d
00000200: bdc0 213e dd46 83be effe 1f3d 4754 5dbe
00000210: 1189 873e e77a 26be 955d ba3e 5414 2f3e
00000220: 19e8 d2bd d561 e2bb ceee 423d 6810 9e3c
00000230: b409 7d3e 57fd 143e a40f 9dbd bb80 77be
00000240: 8bf4 28be 9f05 43be 4e28 8ebd 0ade 293e
00000250: 8747 9d3b 334c 643d 30f8 32be 2317 30bd
00000260: 1a7d 66bd 084e 2cbc 06ac 2cbe d70d 05be
00000270: 3f2c a43d 641c 5e3d e50a d93d 6f13 9a3c
00000280: 89b0 0ebe 2e66 fe3d 5a5f 89bd 8e0b 4c3e
00000290: b00e ca3d ae9d f4bc ca0c edbd 201d 9f3e
000002a0: 3d79 cbbd 73d6 69bd 47d8 1a3d fe66 d53c
000002b0: 5b6d 9cbd 2510 00be 1da7 21be 31bf 27bd
000002c0: 7a48 57bd a799 8ebd 51b6 763e 2c1a 01be
000002d0: 4fc3 e33d 44a8 ea3c 2077 603d b40a e5bd
000002e0: 0909 13be cf9d 5f3e c4f0 e23d f180 583d
000002f0: cffd f3bc b3fa 11bd 3bca f03d c8a2 02bf
00000300: 4428 fdbc 10dc 1bbe ec38 22be 464c c13d
00000310: 2d75 1bbe 718d 4e3d 0044 8ebe dfc1 11be
00000320: 8adc 0cbd e387 42bc ddfe 613d 2d52 803c
00000330: 4fb6 9d3d b739 7b3c ee6d 55be a3a6 8cbd
00000340: 8524 47bc 8c88 5dbe a3d4 6e3d 88a0 43bc
00000350: 8fdf e23a e57c 2abe 38c7 b83c 5927 18be
00000360: df35 0abe ef92 863d c696 e6bb 646f 053e
00000370: 3fd9 463e f8ec d93c 6543 94bd e7de 663c
00000380: 5f4f 96bd 663b 0d3c a583 b6bc d86e 31be
00000390: 1fd2 e63d cdc6 12be ac2f 97be e84a 71bd
000003a0: 1afd 1a3d 5e1c 1abe 6805 6a3e 9e64 163e
000003b0: 07c1 70bc 74ad e23b 51b2 29be 3934 d6bd
000003c0: 233e 603e b94d bdbc eb09 88bd 883e 17be
000003d0: 8b69 3ebe 9862 073d 64e8 51be ecf0 2fbe
000003e0: 84da d83a 79eb c7bd de08 e2bd 5694 cc3d
000003f0: 0033 e03d 26d8 2d3c 77d5 a43c be62 f13d
0.08261407 -0.058201984 -0.12295953 -0.10442987 0.023548964 0.05483709 -0.01900183 0.00013528016
0.04294295 0.11021743 -0.07103614 -0.018164022 -0.06137523 -0.06451013 0.09226794 -0.05466128
-0.032367624 -0.13223577 0.003848278 -0.019209156 -0.040218797 -0.01867438 -0.08474995 -0.119681165
-0.09682813 -0.093909875 -0.02638086 0.08112636 0.0058746855 -0.122875765 0.18015486 -0.061622635
-0.018108746 0.08637581 0.10055991 -0.09125574 -0.07096522 0.028442336 0.05432342 0.0324532
0.14069462 0.04458111 0.027336072 -0.0055378946 -0.12789774 -0.07060736 -0.028892528 0.08247469
-0.0023422423 0.06683818 -0.15217611 0.09093479 0.13807766 0.036340594 0.17157769 0.16271535
0.11928918 -0.038177084 -0.02538125 -0.0696542 0.033846613 -0.15610464 -0.008764926 -0.05849656
-0.13548243 -0.29154974 -0.21984725 0.10375817 -0.024257801 0.094671175 -0.11613555 -0.11961678
-0.092299186 -0.12075618 -0.06809453 -0.03691898 -0.0654449 -0.1403612 0.17047788 -0.13926002
-0.1276277 0.1216229 -0.17060114 0.0050900145 0.32834435 0.03454728 -0.22766353 -0.1901617
-0.019171255 0.11379374 -0.32742864 -0.019587675 -0.060629938 0.21340407 0.20908843 0.14441422
-0.07539271 -0.16243517 -0.093532324 0.046021916 0.1779795 0.10584174 0.02782699 0.019973557
-0.08540159 -0.078251876 -0.4008193 -0.25100648 -0.2058112 0.07700853 -0.07872688 0.21669379
-0.0027089305 0.11511413 0.12193813 -0.24623162 -0.024036715 -0.15812998 0.05765257 -0.034147825
-0.07382983 -0.16982703 -0.078313656 -0.17852776 -0.2985226 0.0065922462 -0.017282829 0.071684375
0.1579618 -0.25640002 0.039061483 -0.2161418 0.2647176 -0.16257821 0.36399522 0.17097598
-0.10298175 -0.006908635 0.047591023 0.019294932 0.24710733 0.14549766 -0.07668999 -0.241702
-0.16499536 -0.19045113 -0.06941281 0.16588607 0.0047997865 0.05573673 -0.17477489 -0.042990815
-0.05627165 -0.010516651 -0.16862497 -0.1299356 0.08016252 0.054226294 0.10597781 0.018808095
-0.1393453 0.12421833 -0.0670764 0.19926283 0.09866083 -0.029860344 -0.11574705 0.31076908
-0.09935234 -0.05708928 0.037803914 0.026050087 -0.076380454 -0.12506159 -0.15786405 -0.04095382
-0.052559353 -0.069629006 0.24092986 -0.1260764 0.111212365 0.028644688 0.054801106 -0.11183682
-0.14358915 0.21837543 0.11081079 0.052857343 -0.029784111 -0.035639476 0.117573224 -0.51029634
-0.03090299 -0.15220666 -0.15842026 0.09438376 -0.15181418 0.050427858 -0.27786255 -0.14234112
-0.03439001 -0.011873218 0.055174697 0.015664184 0.07700788 0.0153335845 -0.20842716 -0.06867721
-0.012154703 -0.2163412 0.058308255 -0.011940129 0.0017309057 -0.16649206 0.022555932 -0.1485876
-0.13497113 0.06570994 -0.0070370166 0.13030773 0.1941881 0.026602253 -0.07239417 0.01409123
-0.073393576 0.008620119 -0.02227957 -0.1732744 0.11270546 -0.14333649 -0.29528558 -0.058909327
0.037839033 -0.15049884 0.22853625 0.1468682 -0.014694459 0.00691765 -0.16571929 -0.104591794
0.21898703 -0.02310835 -0.06642517 -0.14769948 -0.18594949 0.03305301 -0.20498806 -0.17181748
0.0016544615 -0.0976171 -0.110368475 0.0998923 0.109472275 0.010610616 0.02012132 0.11786412

bias f4 [50]
00000000: aac9 2dbc 5515 90bd ed4d 69bd 3e4f f2bc
00000010: ee46 edbc b29f 6bbd 9efb b9bb 18a1 ecbb
00000020: b18c f23c 0645 113d 0af7 f3bd cbe3 9e3c
00000030: ccfc 60bc 4fe7 60bd e153 cf3c e300 b73c
00000040: 1a43 55bc 3afc a9bd 3cff 453b 39eb 433c
00000050: c724 c5bc cf9c 023d 8e36 573c 034f 903d
00000060: 07f3 583c 4404 f83c 879b 8d3c 2a69 ecbc
00000070: df69 db3c 6a70 643d 5012 f63c 774f af3b
00000080: 247c 0e3c 2fdc 05bd ecfe 78bc 3eba 3ebd
00000090: a6d4 2e3b aab6 d63c b6d2 c73c 7bfe c7bc
000000a0: aaba 293d 7d73 483c 6c1a 69bc e06d 58bd
000000b0: f6fe cabc 347f 493d 807b c93c cb26 be3c
000000c0: bec7 6f3d 125c 4c3c
-0.0106071625 -0.07035319 -0.05695908 -0.029578801 -0.028964486 -0.057525344 -0.005675747 -0.0072213523
0.029608103 0.035466217 -0.11912353 0.01939573 -0.0137321465 -0.054908093 0.025308551 0.02233929
-0.013016487 -0.083000615 0.0030211946 0.011957937 -0.024065388 0.031887826 0.013135565 0.0704632
0.013241536 0.030275472 0.017286075 -0.02885874 0.026783882 0.05577127 0.030038029 0.005350049
0.00869659 -0.032680687 -0.015197497 -0.046564333 0.0026677041 0.026210148 0.024392467 -0.024413338
0.041437782 0.012234566 -0.014227491 -0.05283916 -0.024779778 0.049193576 0.024595022 0.023211857
0.0585401 0.012473123

weight f4 [50, 50]
00000000: 3346 c6bc 681a 82be 889d 953e d6e9 a03d
00000010: a032 303e 0ce9 36bd a294 29be 0b0c e13d
00000020: b1a2 933d 9a55 44bd 38bc 893e e80f 1fbe
00000030: 4765 803c ce9f d03d b419 3f3e e863 803d
00000040: ec49 7ebd c635 4d3c d269 923d 9bcc 73bd
00000050: 0229 053e 0dd2 a0be 3b9c 0cbe 5fac 9a3d
00000060: 363e 85bd 9aba 693e cdb1 66bc 41d5 b2be
00000070: 6f20 7a3e 2e4a e63d 9bc5 0c3e 7246 2a3e
00000080: eac8 153d 0739 593c d396 f13d 0887 153d
00000090: 4d43 e33c 4195 8a3d 948d a43c 29b3 323e
000000a0: 464d 2ebe 005e 2cbe d005 5fbd 1db5 0d3e
000000b0: b0b1 203e a272 8a3d cab3 0f3e 6b77 203e
000000c0: 1dcc 8dbe d901 8a3d c9b0 053e 5e77 453e
000000d0: 0238 803c 4fac b7be b883 a63e 1cb0 75bd
000000e0: 8be5 f7bd ba92 f13d 2411 e83d d21d 0c3d
000000f0: a8ac b9be db07 31bd 0911 b43d e38e 963e
00000100: 034b a83d 0c29 bb3c 7ed9 733e ee76 9b3e
00000110: fda6 08be 826a 39be c762 9c3d a975 32be
00000120: 0423 b83d a9c9 c2bd 62d6 d4be 6c4e 333e
00000130: a392 1b3e 5f7d 10be 00ef ae3e d05a b63d
00000140: bfe6 3b3e 4b62 623e 4fe5 a3bd 1238 9dbd
00000150: 0caa 0b3e a01e 14bc 817b 373e fc2a 2dbe
00000160: 5d8a 163e 47f9 f73d 6898 d33b ab3c 1d3e
00000170: 64ed 0bbd 7f6e 433e 8763 c5be fba3 dabd
00000180: 65f7 563d 3784 4dbd f162 9a3d ed45 ca3d
00000190: 8a92 a63d 4e8c 30be 5dc4 3dbf 5a73 ecbd
000001a0: 37f0 aebd 43b1 74be 89b4 45be 3526 f13d
000001b0: c038 9e3d 172a a63d f4c7 d03e a034 303d
000001c0: 1805 2fbe 33c4 02be 60c0 893e cd79 0fbe
000001d0: 2050 1a3f 466d b43e 161e a13e f44f e9bd
000001e0: aaa5 703c 213e 89bd de4a e73c a6ec 353e
000001f0: c9c9 6cbd 184d 16bc 887d 063e 4b75 b3be
00000200: 298f 0ebe b2a7 65be 802c 9abd 8933 b6be
00000210: f34d 45be b7c2 36be e314 b33d fb33 96be
00000220: 1751 13be 2754 623e aa83 2a3d 4bc6 903d
00000230: 11e2 88bd 0748 10be 28e2 37be 027a 1dbd
00000240: 5aa4 483e de70 b43d b53f 153e a3ee 023e
00000250: 7057 c53d deff 5a3d 89cf 9bbe 7f5e 353d
00000260: e1ef 943e 4541 d3bd b02b 9e3e afff 3f3d
00000270: 4ddf bf3d 3824 dc3d b662 2a3e 0965 2bbe
00000280: f7c4 dfbe 19d1 1e3d f942 abbe ce9b be3d
00000290: 6770 873e d415 d23d 3e95 aebd 1b99 6f3e
000002a0: 2df6 51bf 75c4 aaba 0694 0d3d 5e15 55bd
000002b0: 4ce7 babc c32d fb3c 23fe 933d 7da6 0a3e
000002c0: dce0 e73c e01f 13be 8e1d 7b3a 7e56 823e
000002d0: f8e8 1fbf 2805 74be 22f1 e43d f911 c33d
000002e0: 46c2 f2bd c1c6 59bd cdd1 953e 3a5c bcbd
000002f0: ecbe 0ebd 48fd e2bd bba6 f8be 65ec 943e
00000300: 599c 9f3d d2ac 993d 7f07 81bd e60e 063e
00000310: d32b eebe d02e c83d bae5 783f 81b5 143e
00000320: 525f 2c3d d4e0 c7bd 6484 e3bf f8f6 6d3e
00000330: 2b56 82bf b0ff 02bd a891 d5bd 02e2 1dbe
00000340: f66d 323d 22b9 1f3e ed1c 5e3e 0002 c33c
00000350: 64a3 783d d6b7 363d c9de a8bc 90e4 b2be
00000360: 4c35 a93e 2ce8 4fbc eb71 44bd 07fd d23d
00000370: 532a 1d3d 7cbe 5bbc 1c62 81bd fe00 f43d
00000380: 85cb 893d 6438 94bd 6cc0 463d b702 86bc
00000390: 99f1 c73d 87a6 57be ad15 483e f4d9 d23d
000003a0: 0334 9abb 3c9e 413d ef85 a4bd f787 ae3e
000003b0: 04b8 143e 0d3a 1b3e 2a7e a3bd 3f41 123e
000003c0: 2f13 213b 80a7 18be 291e 2f3e 6224 ddbd
000003d0: b8b1 0ebd 06e2 a43d e371 953c 3220 cb3d
000003e0: 1d10 0bbe 3818 2d3e 27a1 7abe bdbc 75bf
000003f0: 07b6 983e 3c5a 563e cf11 e83e b9da 04bf
-0.024203395 -0.2541077 0.2922175 0.07857101 0.17206812 -0.044655845 -0.16560605 0.10988625
0.07208765 -0.0479332 0.26901412 -0.15533412 0.015673293 0.1018673 0.18662149 0.062690556
-0.062082216 0.012525028 0.0714909 -0.0595213 0.13003924 -0.31410256 -0.13731472 0.075524084
-0.065060064 0.22825089 -0.014080477 -0.34928325 0.24426435 0.112446174 0.13747256 0.16628435
0.03656856 0.013258225 0.117963456 0.03650573 0.027742052 0.06766749 0.020087041 0.17451157
-0.17021665 -0.16832733 -0.054448903 0.1383862 0.15692782 0.06760146 0.14033428 0.15670554
-0.2769479 0.06738634 0.1305572 0.19283816 0.015651707 -0.3587365 0.32522368 -0.059982404
-0.12104329 0.11795564 0.11331394 0.034208126 -0.3626454 -0.043220382 0.08792312 0.2940589
0.08217432 0.022846721 0.23813435 0.30364174 -0.13344951 -0.18107036 0.07636028 -0.17427696
0.08991054 -0.0951112 -0.4156981 0.17510384 0.15192656 -0.14110325 0.34166718 0.0890404
0.18349741 0.22107808 -0.080027215 -0.0767671 0.13639086 -0.009040505 0.17918207 -0.16910928
0.14701219 0.12108093 0.006457377 0.15355174 -0.03416194 0.1908512 -0.38552496 -0.10675808
0.052482028 -0.050174918 0.07538403 0.098766185 0.08133419 -0.17241022 -0.7412775 -0.11545439
-0.08541911 -0.23895745 -0.1930715 0.117748655 0.07725668 0.08113497 0.40777552 0.043018937
-0.17091787 -0.12770157 0.26904583 -0.14011307 0.6027851 0.3523962 0.31468266 -0.11392203
0.014687935 -0.06701303 0.028233942 0.17766055 -0.057809625 -0.009173654 0.13133824 -0.35050425
-0.13921799 -0.22427252 -0.07528019 -0.35586193 -0.19268017 -0.17847715 0.08744218 -0.29336533
-0.14386402 0.22102414 0.04162947 0.070690714 -0.06683744 -0.14089976 -0.17957366 -0.038446434
0.19593945 0.0881059 0.14575084 0.12786345 0.09635818 0.05346667 -0.30431774 0.04427957
0.29089263 -0.103151836 0.30892706 0.0468747 0.09368763 0.10749096 0.16639218 -0.1673776
-0.4370496 0.03877363 -0.33449534 0.09307061 0.26452944 0.1025807 -0.085245594 0.23398249
-0.8201626 -0.001302852 0.034564994 -0.05202233 -0.02281537 0.03066147 0.07226207 0.13540073
0.028305463 -0.14367628 0.0009579294 0.25456613 -0.6246486 -0.23830092 0.11178805 0.095249124
-0.11853461 -0.053168062 0.29261628 -0.09197278 -0.034850046 -0.11083466 -0.48564705 0.29086605
0.07793493 0.07503666 -0.06300258 0.13091621 -0.4651781 0.09774554 0.97225535 0.14522363
0.042083092 -0.097596794 -1.7774777 0.23238742 -1.0182546 -0.031982124 -0.10428172 -0.15418246
0.0435619 0.15597966 0.21690722 0.023804665 0.060702696 0.044608913 -0.020614045 -0.34940004
0.33048475 -0.012689631 -0.047960203 0.103021674 0.03837044 -0.013412114 -0.06317541 0.11914252
0.067282714 -0.07237318 0.04852335 -0.016358716 0.09762878 -0.21059619 0.19539519 0.102954775
-0.0047059073 0.047270045 -0.08033358 0.34088108 0.14523321 0.15158863 -0.07983048 0.14282702
0.0024578085 -0.14907646 0.17101349 -0.10797955 -0.034837455 0.08050923 0.018242782 0.0991825
-0.13580365 0.1690377 -0.24475537 -0.95991117 0.29826376 0.20932859 0.45326087 -0.51896244

bias f4 [50]
00000000: dfa6 19be f66b 66bd 381d a63c 124d 8c3d
00000010: 5e75 aabd 0b7e 4b3c 44fc 273e ab33 a03c
00000020: a741 103d a1df 8b3d 60e4 093e fb30 af3d
00000030: d474 423e 43bf fbbb 9e69 473d 638a 633e
00000040: 162a 303e 6630 8d3d 8a8e 473e d452 433b
00000050: 6724 713d 2bd9 f5bd 0555 5fbd 5a0e 6b3d
00000060: be82 a1bd 6c27 313d 8291 d33c 7401 ab3d
00000070: 5b73 d83d d7bd f8bc 5ae0 2f3e b74d e3bc
00000080: 7596 47bd d259 213e b3c8 f83c 0889 623e
00000090: c1a6 903d 031c 1dbe 939b 063e 14c2 95bc
000000a0: 118f d53d c011 03be abc1 fd3d 26fe 943c
000000b0: 7837 c43d b75f 013e f24a acbc 096e 15bd
000000c0: 2d24 093e 1d29 0b3e
-0.15005063 -0.056255303 0.020277604 0.068506375 -0.08323167 0.012420188 0.16404825 0.019555887
0.03521886 0.06829763 0.13466024 0.08554264 0.18989879 -0.0076827123 0.04868471 0.22220759
0.17203555 0.06893997 0.19487968 0.0029804008 0.058872607 -0.12004312 -0.05452444 0.057386734
-0.07886265 0.043250486 0.02582622 0.083498865 0.10568877 -0.03036396 0.17175427 -0.027747018
-0.04872747 0.1575692 0.030369138 0.22122586 0.07063056 -0.15342717 0.13145284 -0.01828102
0.104276784 -0.1279974 0.12390455 0.018187594 0.09580892 0.12634169 -0.02103183 -0.03648189
0.13392706 0.13589902

weight f4 [50, 50]
00000000: 5fa3 773d 710c 2cba 1142 4dbd 16e3 0fbc
00000010: 468b 5cbd f0f0 23bc 9399 73bc b0a0 efbd
00000020: 087d a8bd 7229 9bbd 9e7a 633d e164 2ebd
00000030: 2d70 5cbd 102d 81bd 2bed 383d 9251 b23d
00000040: 0d04 a53d 8dfb b8bd a2c6 493d b253 8b3c
00000050: ffb3 573d 421d 0339 4c4b eb3c 8c21 833d
00000060: e474 84bd fe05 083e a30f f7bc 61fc d3bc
00000070: e875 2dbe f47b 713d 2e4e 1fbe 7809 06be
00000080: 954a 99bd cc13 f2bb 162b 203e 664c 3e3e
00000090: 0fa6 193e 275d f1bd 6849 403e 2bf8 043d
000000a0: 4789 37bd be81 d0ba c84d ad3d ab96 80bd
000000b0: 77c8 abbd a16c 85bd 6f83 65bd 8ba8 14bd
000000c0: dc09 95bb 4bf3 f4bb 00e0 f5bd 135e c3bc
000000d0: 3293 24be d36d 92bd a6de ff3c ab7b 073e
000000e0: 9be8 db3d ca80 743d 775b 35be c238 a73d
000000f0: 0847 293d f96c 0d3d 8a9d dd3d 2399 b5bd
00000100: 83bb 863e 3f52 833e 5789 313e 7a46 94bd
00000110: 7c66 f33d 8b1e 273e d22c 193e 8323 083a
00000120: a972 96bc f2ad 60bd 2612 66bd 8ef6 4a3e
00000130: 2285 443b b25e 1bbe 4996 f6bc 0ab1 823d
00000140: 576b fcbd 2daa 49be ed0d e6bd fe5c 213e
00000150: c71c 463e 12fc 673e 3b82 dd3d ebca 32be
00000160: c619 babd 368b 3bbc 1483 03bd a4bc 8c3e
00000170: 1099 253d 97d0 113e 634b b73d 5d54 9c3d
00000180: 7404 e43c 0e3f a5bc 8959 c53d 9660 953d
00000190: afd6 ffbd 9dc3 923d 5ea2 92be 5dda 333d
000001a0: 6ccc b8bd f467 ca3d 5eb0 a53d 7ca4 eabd
000001b0: 8686 16be 7981 72bd 59a0 223e cdd8 b43d
000001c0: 6260 a13e e3f8 31bd a49c f73c 0b4c e53d
000001d0: b1c1 ca3d 3f6a 0a3e 7f7e 603e 79a0 103e
000001e0: d2b3 843c 2757 563a fd25 583c b50c 98bc
000001f0: 093c 68bc 45b7 0f3e eac8 0e3e 5ba2 f0bc
00000200: 1945 26be 7cc1 203d 6440 2b3e 8cd7 86bc
00000210: e59f 70bd 0613 86bd b685 94bd 1736 583e
00000220: 4686 59bc 4c5b f23d e127 e7bd eeab 6abe
00000230: fab6 cebd 81d4 213e 8fb7 763e c0ce 8b3e
00000240: 06be b4ba 07a4 49be 81fb ccba f662 d03d
00000250: 1b7d c23d 30c7 d5bd 1cc6 fabc 6b54 acbe
00000260: 57f8 c0bb b291 8c3d 917f f83c d52d 8fbe
00000270: fe98 a7bb a067 923e cf95 5f3e 7bce 87bd
00000280: 2c9c 81be 3395 f1bd d712 9f3e cc00 153d
00000290: b50e 483d ac28 873d 27e8 533d 07d0 953e
000002a0: 2e76 f63d 6739 c4bb 659a 663d 27d2 89ba
000002b0: 63b9 2a3c fec4 64be 1cad bf3d 1436 df3c
000002c0: 9ce5 c6bb c8d0 d3bd 373c 11be 3f2a 493e
000002d0: b90e 8a3e ea44 00bd a54c ba3c 0266 b4bd
000002e0: 22f3 01bc 4625 ad3d 1c92 4bbd 036a 40bd
000002f0: b55d 4dbe 595c 3abd 37ca d3bc 06bb 873e
00000300: 4013 053d ff30 913e 79ba 6fbd 9fc9 45bc
00000310: 1940 9e3d c00e 35be d959 3a3c 8914 e7bc
00000320: 6ef8 a4bd 7f7a 02bd 29a4 93bc 7efc 90bd
00000330: ff14 90bc df59 4cbd de01 0ebc 1dbf 01be
00000340: df48 24bc 1baa ff3d e790 b63d b05b 073c
00000350: 2981 623e b762 14bd c11a 47bd 553d 943e
00000360: 6b61 653e 7a84 14bd 1f91 393e f84a 053d
00000370: 7942 94bc c865 ad3a a239 1bbc f680 473d
00000380: 2f8d 843d ffc7 9a3e 4a51 883b 15aa cc3d
00000390: 55ee 84bd fd80 403e 1d44 f23d e1cb 76bd
000003a0: 0c4e b3bd e6c5 7a3d 8b44 f73d 8d76 843d
000003b0: 691a 3c3e b6e4 58bd d0ac af3d 6aad 86bd
000003c0: aa21 fe3b 1098 4fbe 2515 323d e47d ac3d
000003d0: 792d 1c3a d67e 4a3e 1462 bb3d f526 b5bd
000003e0: a987 853d d75b 973e 56d0 18bd 3138 323e
000003f0: 6ee2 2dbd ce7c ddbb c71f 623d b943 d93d
0.060458537 -0.0006563133 -0.050111834 -0.008782169 -0.05384376 -0.010006174 -0.014868158 -0.117005706
-0.08226973 -0.075762644 0.05553686 -0.042576674 -0.053817917 -0.06307423 0.045148056 0.087069646
0.08057413 -0.090323545 0.049261697 0.017007682 0.052661892 0.00012504033 0.028722428 0.06402883
-0.064676076 0.13283536 -0.030158823 -0.02587718 -0.16939509 0.0589561 -0.15557167 -0.1308955
-0.074849285 -0.007387614 0.15641436 0.18583831 0.15004753 -0.117853455 0.18778002 0.032463234
-0.044808652 -0.0015907807 0.08462101 -0.06278738 -0.08387845 -0.0651486 -0.056033548 -0.036293548
-0.0045482945 -0.007475292 -0.12005615 -0.023848569 -0.16071776 -0.071498536 0.031234097 0.1323077
0.10737725 0.059693135 -0.17710672 0.081651226 0.041327506 0.034527753 0.10821064 -0.08867099
0.26314935 0.25648686 0.17337547 -0.07240005 0.11884782 0.16320245 0.14958504 0.000519328
-0.018365221 -0.054853387 -0.05616965 0.19820616 0.002998658 -0.15172842 -0.030100958 0.06381424
-0.12325161 -0.19693823 -0.11233125 0.1575813 0.19346915 0.22654751 0.10815855 -0.1746022
-0.09086947 -0.011446765 -0.032107428 0.2748767 0.040429175 0.14239727 0.08949926 0.076332785
0.027834155 -0.020171668 0.09636218 0.07293813 -0.124921195 0.071662165 -0.286395 0.04390942
-0.090233654 0.09883109 0.0809028 -0.11457154 -0.14699754 -0.059205506 0.1588148 0.08830414
0.31518847 -0.043450247 0.03022606 0.11196145 0.09900225 0.13517092 0.21923254 0.14123715
0.016199026 0.0008176439 0.013192651 -0.018560747 -0.01417447 0.14034756 0.1394383 -0.029374292
-0.16237296 0.03924702 0.16723782 -0.016460203 -0.058746237 -0.06546597 -0.07252066 0.21114384
-0.013276642 0.1183382 -0.11286903 -0.22917148 -0.10093494 0.1580372 0.2409346 0.27306175
-0.0013789542 -0.19691478 -0.0015638919 0.10175125 0.09496518 -0.104383826 -0.030612044 -0.33658156
-0.0058889794 0.06863727 0.030334266 -0.27964655 -0.0051146736 0.28594685 0.21834491 -0.0663118
-0.25314462 -0.117960356 0.3106906 0.036377713 0.04884215 0.065995544 0.05173507 0.29260275
0.1203426 -0.005988288 0.056299586 -0.0010514901 0.010420176 -0.22340772 0.0935919 0.027247466
-0.006069852 -0.10342556 -0.14183126 0.19645022 0.26964357 -0.03131572 0.022741625 -0.08808519
-0.007931503 0.08454375 -0.049699888 -0.0469761 -0.20055278 -0.045498226 -0.02585326 0.26509875
0.03248906 0.28357694 -0.058527444 -0.012071996 0.077270694 -0.17681408 0.01137396 -0.028208034
-0.08055197 -0.031855103 -0.018022614 -0.07079409 -0.017588137 -0.049890395 -0.008667437 -0.1267056
-0.010027139 0.12483617 0.08914357 0.008261606 0.22119583 -0.036226954 -0.0486095 0.28953043
0.22400443 -0.036259152 0.18121766 0.0325422 -0.018098103 0.0013229186 -0.00947419 0.04870697
0.06472241 0.3023071 0.004160081 0.09993378 -0.06490771 0.18799205 0.11829398 -0.060253028
-0.08755121 0.061223887 0.120736204 0.06467924 0.1836945 -0.05295249 0.08577883 -0.06576045
0.007755478 -0.20272851 0.043477196 0.08422449 0.00059577037 0.19774947 0.09149566 -0.08845321
0.06520016 0.29562256 -0.03730806 0.17404248 -0.04245227 -0.0067592626 0.055206086 0.1060862

bias f4 [50]
00000000: adf7 cabc 164b c23c 3506 60bd 2bd6 6cbc
00000010: a0a3 c3bc c401 78bc 7c65 713d 9156 713d
00000020: 32d9 4e3d c3c9 833d f70d 8a3c 6d78 be3b
00000030: 2485 08bc b637 d7bd 62f4 7eb8 b1d4 853c
00000040: fe33 2bbd 5871 12be e332 09bd 5502 97bd
00000050: 03ce 23bc 2edb a6bc 846e 9cbb b437 f13d
00000060: 1a75 b03d 323a 153d 30b6 f63c 5806 03bd
00000070: 76af 8ebc ad28 0e3e bd45 c93c 8927 8d3d
00000080: 866a 58bd e388 ebbc 9ccd b63b 4df2 94bc
00000090: ce32 883d 9e48 82bc e7f0 0a3d 4770 8fbc
000000a0: 15e8 d0bc 8301 e2bc a95c ba3c 4d92 88bd
000000b0: 91d1 103d 91a1 8a3d 8eaf dd3a 767d 023c
000000c0: b784 223d 1fcc 91bd
-0.024776304 0.023717444 -0.05469342 -0.0144553585 -0.023881733 -0.01513714 0.058934674 0.058920447
0.050500102 0.06434967 0.016852362 0.0058126957 -0.008332524 -0.10508673 -6.078592e-05 0.01633677
-0.04179763 -0.1430105 -0.033495795 -0.07373492 -0.0099978475 -0.020368185 -0.0047739167 0.11778203
0.08616085 0.036432452 0.03011617 -0.03198847 -0.01741765 0.13882704 0.024569387 0.06892306
-0.052835964 -0.028751796 0.0055787098 -0.018181944 0.06650315 -0.015903767 0.03392115 -0.017509593
-0.02550129 -0.027588611 0.022749262 -0.0666853 0.035356108 0.067690976 0.0016913281 0.0079644825
0.039677348 -0.07119011

weight f4 [87, 50]
00000000: bfa1 8abd c8ea c0bd 904c 39be 1f45 533d
00000010: 1963 603e 6685 0b3e 1022 0dbe 0011 c93c
00000020: f086 a83d 9cc1 03be f738 5cbd 9742 863d
00000030: 21d8 dabd c67e 37bd b342 313e 8bfb 0a3e
00000040: 1ef9 25be 769c b4bd a3bd 05bc 63ff 39be
00000050: 6417 323c 1b88 f1bc e182 02bd 2cea 6c3e
00000060: a8ca 233e 9f90 243e baf3 6fbd 8884 75be
00000070: 2fa9 843d 5cfd ea3c a2b2 d03d 844d 083e
00000080: ae6d 36be 46b0 bdbd 56ee 4ebe bf17 d63d
00000090: d8c7 b33d 118f 23bd 1080 1d3c cadf 0ebc
000000a0: e97b 943c 8c83 25bc 1e57 e2bd 3967 f0bc
000000b0: ae9a 893e 23c6 c63c ce7b 55bd e24d 39be
000000c0: 7991 e73d 0913 21be 5e65 703e 936e 4c3d
000000d0: 4942 0f3e 8cf6 5bbe 15e6 b4bd b3b9 88bd
000000e0: 220a f4bd 9dae c5bd ec7e 863d fa50 c03d
000000f0: 52cb 613e b84a e73d d55b 663d 8ff8 0b3e
00000100: 3c2a 733b ea2c b5be 92e9 44be 66db 0c3e
00000110: c693 0cbe 99c1 07bb 19a7 953d af1a 6fbe
00000120: 85db 233d 6102 4dbd e054 1bbc 74fd 003d
00000130: 164c e03d 4f19 b23d 7ea1 f8bd dfeb 12bd
00000140: 05cf f5bd 1452 b43d ad22 5cbd 2cb1 ba3c
00000150: 1435 1d3e 4f7e 8c3d 207f b33a 90c6 1dbe
00000160: fbff 66bd 3951 b33d 5f8f a43d af05 e0bd
00000170: cd77 f93d baa1 6bbd eef1 53be 774f 60be
00000180: a87c d93d 6e92 d93d e06d 9abd d612 263e
00000190: accf 10be dc8b da38 a9a9 0abd 3813 bfbc
000001a0: 755b 85bb 7dfa 7cbd 8a54 233e 2e36 dc3d
000001b0: a058 143e 0c02 223e 6063 013e 2262 bdbd
000001c0: 8d2f 603c 003b 80bd 0370 38bd f347 bdbc
000001d0: a7cf 5b3e 1249 9b3d 28fe ba3d afe8 c83c
000001e0: 2f2e 693d 235a 213e af48 ee3d 35ea ccbd
000001f0: 10e7 57bd 1829 e53c 3c0a 68be 2f4a 133e
00000200: 2f2d 6b3d 63c8 e1bd a56d cfbd 20d5 24be
00000210: 04f2 063e e914 1d3d f290 f33d 75e3 6c3d
00000220: 067c 81bd a380 53bd 388a d23c 0f6d 293e
00000230: c843 a5bd d199 8fbc bf3a 173e 139f 673e
00000240: 606e 8b3a e0a0 253d a52a 0bbd db22 243e
00000250: 220a 253d 4657 e6bd 7ecc 283d 57ce b83b
00000260: b654 aabb 271a 03be d696 bc3d 61ff 15be
00000270: 637e bd3d 4515 d9bc b1b2 e1bd 574f 1dbb
00000280: 57c6 a1be 7f6f 20be 5810 98bc 4622 1b3e
00000290: dcee 85bc 2612 8cbc 94b9 7d3d 778c eebd
000002a0: 46bf 19be 0fce 06be a874 9b3d a534 b73d
000002b0: 9c28 28bd 20e6 0d3d 4690 ffbd 6984 d3bc
000002c0: 9e7d 0cbe e749 a4bd c42f a43e 6970 ddbd
000002d0: 9f13 303e b153 a0be 72c5 053e 0a5a 133e
000002e0: e029 10bd 9577 07be 6edb 7fbd 4a49 1dbe
000002f0: 37bf 8b3d 2893 30be f1bc 0d3e a5fc 38bb
00000300: 847d 9f3c b2e0 0f3e 649f fe3d 3fe8 9e3d
00000310: a0c7 d53d 9cc8 ea3d 99cb d0bd 4190 2cbe
00000320: 7911 22be 366d a1bd f13f 133c 5355 813e
00000330: ea1b c2bd ca7d a7bd 03d7 02bd 3107 4d3e
00000340: ff16 023e 6fc2 0e3e e79b 2d3e a4a1 113c
00000350: 190a 7cbb 9d27 aa3d 0a6b 9ebd 933f cbbd
00000360: b079 a2bc 4c2d 70be 65f9 9a3c c9b8 6a3d
00000370: 15bb c8bc 49fc 3cbe b31c 513e 3d1b 6b3e
00000380: a94e 843d ced7 22be 3757 ea3d 0173 c4bd
00000390: 0f7b d3bd 6ccd 70bb 37dc 443d 95b4 303d
000003a0: 6dd1 9a3d 502a 893d 46ea 323e aa05 ebbd
000003b0: 6f89 c8bd bfd9 01bd 6257 16be d6fe 823c
000003c0: 4093 c13d e07b 873c 4f61 54be f49f 183e
000003d0: 125f 55be 350a 80bd f841 703d fd23 1abe
000003e0: a634 f33c 6678 2d3e b759 56bd 7c36 ea3b
000003f0: d3fe c03d 8af7 573e 5b1a bf3d f88a b9bd
-0.06769132 -0.09419781 -0.18095613 0.05157959 0.21912803 0.13625106 -0.13782525 0.024544239
0.08228862 -0.12866825 -0.053765263 0.0655567 -0.106857546 -0.044798635 0.173106 0.13572519
-0.16208312 -0.08818905 -0.008162889 -0.18163829 0.010869835 -0.029483845 -0.031863097 0.23136204
0.15995276 0.16070794 -0.058582045 -0.23976338 0.06477582 0.028685264 0.101903215 0.1331082
-0.17815277 -0.09262137 -0.20208105 0.10453748 0.087783515 -0.03993136 0.009613052 -0.008720348
0.018125491 -0.010102164 -0.110517725 -0.029346095 0.26875824 0.0242644 -0.052120022 -0.18096116
0.113070436 -0.15729918 0.23476169 0.04991014 0.1399013 -0.21480769 -0.08832947 -0.06676044
-0.11915995 -0.096524455 0.06567177 0.09390445 0.22050217 0.11293548 0.05623992 0.13669036
0.003710403 -0.3538583 -0.19229725 0.13755569 -0.13728246 -0.0020714758 0.07307262 -0.23350023
0.040004272 -0.050051097 -0.009480685 0.03149171 0.10952012 0.086962335 -0.12140177 -0.035869475
-0.120023765 0.08804718 -0.053744007 0.02278956 0.15352279 0.06860029 0.0013694502 -0.15407777
-0.056396466 0.08755726 0.08035158 -0.10938584 0.12181053 -0.05752728 -0.20697758 -0.21905313
0.106194794 0.10623632 -0.07540488 0.16218123 -0.1414172 0.00010421101 -0.033853207 -0.023324594
-0.0040697404 -0.06176232 0.15950218 0.107525215 0.14486933 0.15821093 0.12635565 -0.09247233
0.013683212 -0.06261253 -0.045028698 -0.023105597 0.21465932 0.075822964 0.09130508 0.024525015
0.05692881 0.1575704 0.11634957 -0.10005609 -0.052710593 0.027973697 -0.22660154 0.14383768
0.057416137 -0.11024549 -0.10128335 -0.16096926 0.13178259 0.03835002 0.118928805 0.057834107
-0.06322484 -0.05163635 0.025700673 0.16545509 -0.08069569 -0.0175294 0.14768504 0.22619276
0.0010637753 0.040436625 -0.033976216 0.16028921 0.040292867 -0.11247115 0.041210644 0.005639832
-0.0051980866 -0.12802945 0.09208457 -0.146482 0.09252622 -0.0264994 -0.11020411 -0.002400359
-0.31596634 -0.15667532 -0.01856248 0.15149793 -0.016349249 -0.017098498 0.06194456 -0.11647885
-0.15014371 -0.13164543 0.0759061 0.08945588 -0.041054353 0.034643292 -0.1247869 -0.025819974
-0.13719794 -0.08021908 0.32067692 -0.10812456 0.17194985 -0.3131385 0.130636 0.14389816
-0.035196185 -0.1322921 -0.062465124 -0.15359989 0.06823581 -0.17243636 0.13841607 -0.002822676
0.01946903 0.14050558 0.12432745 0.07759141 0.10438466 0.114640445 -0.10195083 -0.16851903
-0.15826978 -0.078821585 0.008987413 0.2526041 -0.094779804 -0.08178289 -0.031943332 0.20022275
0.12704085 0.13941358 0.16954003 0.008888636 -0.0038458167 0.08308337 -0.0773526 -0.09924235
-0.019833416 -0.2345478 0.018917749 0.05730513 -0.02450327 -0.18455614 0.20421104 0.2295961
0.06460316 -0.15902635 0.11442416 -0.09592248 -0.10326206 -0.0036743535 0.048061576 0.043140966
0.07559476 0.066975236 0.1747218 -0.1147569 -0.097918384 -0.0317018 -0.14681771 0.015990656
0.09451914 0.01653856 -0.20740245 0.14904767 -0.20837048 -0.06251947 0.058656663 -0.15052791
0.02968819 0.1694046 -0.052331652 0.0071476083 0.09423604 0.21090522 0.09331199 -0.09059709

bias f4 [87]
00000000: afa9 6f3d a8dc 28be 6fba 073d 3ce6 1ebd
00000010: 05a4 62bd 28c2 f4bd fc0d 183e 87ca 4dbb
00000020: ce16 a03d 84a5 efbb f27d b53d 7f47 ccbc
00000030: a39b 013e 15af fbbd f0ee a3bd bc04 52be
00000040: 5cc5 91bc 559b b7bd 1c6d 143e 6598 59bd
00000050: 3166 0fbd 2604 8b3c f43a 2a3e acf9 1c3e
00000060: 3c0b c23c e478 fc3d 1f7c b5bd a61e 523e
00000070: e5aa 733c 47b4 08be f1ce d7bd c493 f9bd
00000080: 76d5 0b3e 13ab bd3d 067c 04be 19dd abbd
00000090: 4e96 403d cda7 a93c ba09 01be ede5 06bc
000000a0: 78d6 2abb fdfc 193e 040d a33c fa1a 87be
000000b0: 60fd c73d 036b cf3d 515d 33bc 4c9c 81bd
000000c0: 0739 013e 2bb7 c93d bff9 a8bd 79c4 2f3c
000000d0: 2894 20be 8d8e c8bd 1fe7 373d 9558 21bd
000000e0: 61e4 f9bd 3dcb 303e 1eb6 1b3e 4894 4cbb
000000f0: f8c5 9a3d c73b b43d cec2 d5bd 8165 aabc
00000100: ace2 82bd ff92 30be e398 6cbc ceea 643b
00000110: c0d9 813c c9eb 4f3d 54fc 18bc 1d84 6dbe
00000120: 8950 283e 71c8 05bd fafa 3fbc 634a 9b3d
00000130: 7bea d63d dbb1 bcbd 67fe 9b3d 2ae3 54bd
00000140: 38f3 2cbe 2b75 7b3d ff8b 17bd fd06 cf3c
00000150: 95fb 87bc bd81 823d 3ec9 843d
0.058511432 -0.16490424 0.03313678 -0.038793787 -0.055332202 -0.11951095 0.14849085 -0.0031401233
0.0781685 -0.007313432 0.08861913 -0.024936436 0.12657027 -0.122892536 -0.08004558 -0.20509619
-0.017794304 -0.08965174 0.14494747 -0.05312385 -0.035009567 0.016969752 0.16624051 0.15329617
0.023686998 0.123277456 -0.08861565 0.20519504 0.014872287 -0.1335002 -0.10537518 -0.12186387
0.13655648 0.092611454 -0.12937936 -0.083917804 0.04701834 0.020709896 -0.12601367 -0.0082335295
-0.0026067775 0.15037914 0.019903667 -0.2638777 0.09765124 0.10127833 -0.010947541 -0.063286394
0.1261941 0.0984939 -0.0825076 0.010727995 -0.15681517 -0.097928144 0.04489815 -0.03939112
-0.12201763 0.17265029 0.15206191 -0.0031216312 0.07557291 0.08800464 -0.10437547 -0.020800354
-0.063908905 -0.17243575 -0.014440748 0.0034929994 0.015850902 0.05076197 -0.009337503 -0.23194928
0.16436972 -0.03266186 -0.011717552 0.075825475 0.10493942 -0.09213611 0.07616883 -0.051974453
-0.16889656 0.061391037 -0.036998745 0.025271887 -0.016599456 0.06372402 0.064836964

bias f4 [5]
00000000: 0636 87bc 7701 71bb 108a c03c bb04 363b
00000010: 8607 88bc
-0.016505253 -0.0036774555 0.023503333 0.0027773816 -0.01660515

lower_entries f4 [10]
00000000: 9375 813b 5dc4 30bb 9d3f 263b 7cdd 2fbb
00000010: 524f 3abb e8c9 babb 6b65 d9bb 3408 3b3c
00000020: 6bb9 dfbb d208 a3bc
0.0039507835 -0.002697251 0.0025367506 -0.0026834896 -0.0028428626 -0.0057003386 -0.0066344044 0.01141553
-0.0068275235 -0.019901667

upper_entries f4 [10]
00000000: e5d4 543a fe15 df3b 8b04 8b3c baec 7fba
00000010: c2f2 9b3a 9f83 90ba e934 243c 318e b43a
00000020: e355 8abb c51a db3b
0.0008118882 0.0068080416 0.01696994 -0.0009762753 0.0011897909 -0.0011025554 0.01002238 0.0013775286
-0.0042216643 0.006686541

unconstrained_upper_diag f4 [5]
00000000: 589a 023f e91d 013f 54f6 063f a1d1 043f
00000010: 7c6c 023f
0.5101676 0.50436264 0.52719617 0.5188237 0.50946784

weight f4 [50, 3]
00000000: 0c01 b4be 3c92 dd3e 39b4 4d3e e0e3 093f
00000010: f5e5 1cbd ba84 023f 4347 69be a70a d63e
00000020: 46b1 1abf d9a4 0ebe 4ea5 123f f59b f5be
00000030: 0d72 003d 3980 04bf 48be 103f 1f6a 1c3c
00000040: 3956 fe3e 13c3 b3bd 38ef f33e 013b 00be
00000050: 0fa7 113f 4e06 78be 0c69 28bf c4a1 5cbe
00000060: dedc 7d3e d036 a2be 3c54 da3e 105e 87be
00000070: d0ee aebd e9ea 263e f9ef 433f cce5 74be
00000080: 889f cbbe e576 5dbe db05 b83e 6894 cc3e
00000090: baa8 b63d e814 2a3f b34e 95be e8b6 0dbf
000000a0: 7a01 113e 736e 833e adfd a33e 3c6c fdbd
000000b0: a738 31bf e79d 03bd b612 12be 749c d1be
000000c0: 60fc 23bd cff0 743e f753 f5be bcb3 873e
000000d0: d000 ebbe 5fa9 ce3e 7d1f 89be f2d1 bfbe
000000e0: 60c1 54be f742 f8bd 93c5 94be 1d36 48be
000000f0: 19b0 d73e 6637 f43e c010 e83e bc14 033f
00000100: feab d8be 3e2f 0c3f c1c8 98bd ff44 b13e
00000110: 73b6 123f 698b babd 1bef f4be 68ae 8cbe
00000120: dc77 eabe 39f4 ffbe 5ae4 69be 12a0 8d3e
00000130: a2db 0c3f f35f c33d 8bcc 08bf bb5c 15bf
00000140: c29e 413d 3ed8 0fbf 1502 51bd 5477 033e
00000150: 0b72 13bf 3a3a 8fbd 65d5 77be 83c1 3bbc
00000160: 0c64 993e 2571 b23e e870 d53e 14be f83c
00000170: 877c 10bf ff50 c9be 6230 92bd c075 4fbe
00000180: e3b3 d2be 7586 c6be 8fe7 ecbd 0526 b1be
00000190: 8308 09bf c3fc 0bbe a60b 293e 1dd8 04bf
000001a0: 0277 ffbc 8ae0 5fbe f114 7bbe 3318 293e
000001b0: 1ffe c7bc d540 9fbe 5740 54be a469 8f3d
000001c0: 91d0 bc3e d7a4 cdbd f6c1 233e 8a30 883d
000001d0: dd67 f9be a76e 1d3f 7e79 963e 49ef 2cbf
000001e0: 6dcf dfbe 561b 4f3e 8343 b33d 2c33 673e
000001f0: 7035 99be a5c9 f63d 9c28 893c 4305 98be
00000200: 2bc7 2fbf 0ae3 50be a5b0 063e 9566 a3bd
00000210: d1c7 c7be 39cc 05be bb0c 5d3e 5427 02be
00000220: dbd6 6d3e 1262 e6be 5b0d 153f 437b 593e
00000230: 860a 9fbe abea a2be 7f12 f13e c001 29bd
00000240: f0d1 533d 270e 04bf 56b6 a6be 8b20 20bd
00000250: 9ba2 e23e f473 f8be
-0.3515705 0.4327563 0.2008828 0.53863335 -0.03830524 0.50983775 -0.2278109 0.41805002
-0.6042675 -0.13930072 0.57283485 -0.47970548 0.031358767 -0.5175815 0.56540346 0.009546786
0.49675158 -0.08777442 0.47643447 -0.12522508 0.56895536 -0.24221155 -0.6578529 -0.21546084
0.24791285 -0.31682444 0.4264239 -0.26438951 -0.085416436 0.16300549 0.76538044 -0.23915786
-0.3977015 -0.21627386 0.35941967 0.39956975 0.08918901 0.6643815 -0.29161605 -0.5535722
0.1416072 0.25670204 0.32029477 -0.1237416 -0.6922707 -0.03213301 -0.1426495 -0.40939677
-0.040035605 0.23919986 -0.47915623 0.26504314 -0.45899057 0.40363595 -0.26781836 -0.37464863
-0.20776892 -0.121221475 -0.29056987 -0.19551893 0.4212654 0.47698516 0.4532528 0.51203513
-0.4231872 0.54759586 -0.07460166 0.34622952 0.57309645 -0.091086216 -0.47838673 -0.2747681
-0.4579457 -0.49991015 -0.22841015 0.27661186 0.55022633 0.09539785 -0.5343711 -0.5834462
0.047270544 -0.56189334 -0.051027376 0.12838489 -0.5759589 -0.06993528 -0.24202497 -0.011459711
0.29959142 0.34851947 0.41687703 0.030364074 -0.56440014 -0.39319608 -0.071381345 -0.20259762
-0.41152868 -0.38774458 -0.11567604 -0.3459932 -0.5352861 -0.1367064 0.1650835 -0.5189226
-0.031184677 -0.21862999 -0.24519707 0.16513138 -0.024413167 -0.3110415 -0.20727669 0.07002571
0.36877874 -0.10041206 0.15991959 0.06649883 -0.48712054 0.6149697 0.29389566 -0.6755262
-0.4371294 0.20225272 0.08753111 0.22578114 -0.29923582 0.120501794 0.016742997 -0.29691514
-0.6866328 -0.20399109 0.13153322 -0.0797855 -0.39019635 -0.13066186 0.21586888 -0.12710315
0.23226492 -0.44996697 0.58223504 0.21238427 -0.31062716 -0.31819662 0.47084424 -0.041261435
0.051713884 -0.51584095 -0.32560986 -0.039093535 0.44264683 -0.48525965

bias f4 [50]
00000000: acb5 16bd f922 d9be 0701 d6be 7ba6 1c3e
00000010: f914 b7be 1834 213d 904f 14bf 4afb 72be
00000020: 43dc 813e 08cb f83d d7d7 d5be d044 99be
00000030: 0f9a e3be c0c6 18be fdeb 2d3c ac12 73bd
00000040: 07a4 9ebe d3d2 03be 15ad 95be fc6f 193f
00000050: 31a4 1d3e a78c ce3e 4377 eebe d01c bb3e
00000060: f593 033f fc90 0abf 1705 a7be d578 2fbf
00000070: 898f 8ebe 3b37 823d 0c65 afbe e2aa 20bf
00000080: 2455 03bf 1229 af3d 1871 babe d7fd 82be
00000090: dcd8 903e 920c 51be e849 273f af4a b43e
000000a0: 0858 b73e a784 143f 7954 053e 2ced 213f
000000b0: c3d3 0e3f 3f2a 073f c5f3 21be b232 213e
000000c0: d1c0 363e 946a 02bf
-0.03679435 -0.42409495 -0.4179766 0.15297882 -0.35758188 0.03935632 -0.579339 -0.23728672
0.2536336 0.121481 -0.41766235 -0.29935312 -0.44453475 -0.14919567 0.010615346 -0.05934398
-0.30984518 -0.12873392 -0.29233614 0.599365 0.15394665 0.40341684 -0.46575364 0.3654542
0.5139764 -0.5412748 -0.3262107 -0.6854375 -0.27843884 0.063581906 -0.3425678 -0.62760746
-0.5130179 0.085527554 -0.3641441 -0.2558429 0.2829045 -0.20414951 0.65347147 0.3521323
0.3580935 0.5801491 0.13020505 0.6325252 0.5579187 0.5279884 -0.15815647 0.15741995
0.17846991 -0.50943875
