sbibm/tasks/slcp/files/num_observation_10/proposal.pt (torch, 334833 bytes, 83 tensors)

weight f4 [50, 2]
0	0xbe8d38b0	-0.27582312
1	0x3ec8088a	0.39069015
2	0xbd3b13b5	-0.04567309
3	0xbeaf0d8c	-0.34190023
4	0xbed1dc84	-0.40988553
5	0x3efd277a	0.4944418
6	0x3ee0df8f	0.43920562
7	0x3f314f18	0.6926131
8	0x3f116e77	0.5680918
9	0xbe9c3df8	-0.30516028
10	0xbe46c152	-0.19409683
11	0xbe78ff35	-0.24316104
12	0xbe636094	-0.2220481
13	0xbeef1481	-0.4669533
14	0xbe214e77	-0.15752588
15	0xbeb7d737	-0.35906383
16	0x3d9cd6cc	0.07658157
17	0x3f3bdb21	0.7338124
18	0xbf107498	-0.5642791
19	0x3eca76e4	0.3954383
20	0xbedce623	-0.4314433
21	0x3d0ef4fc	0.034901604
22	0x3eadc69c	0.3394059
23	0x3e533270	0.20624709
24	0xbee2f3ba	-0.44326574
25	0x3bd7f220	0.006590143
26	0xbea33cca	-0.31882316
27	0xbf0c77a2	-0.54870045
28	0x3e886c99	0.26645353
29	0xbeba76a9	-0.36418656
30	0xbe8f4f42	-0.27990156
31	0x3f0cecd4	0.5504887
32	0x3f234f80	0.6379318
33	0xbea9accd	-0.3313965
34	0xbefdc495	-0.49564043
35	0x3ef97d13	0.48728237
36	0x3e9b5d2b	0.3034452
37	0x3ed32136	0.41236275
38	0xbf0e02d0	-0.5547304
39	0xbe7e4ec3	-0.24834733
40	0xbd562d40	-0.052289248
41	0x3f35cc5f	0.7101497
42	0xbe06f8fe	-0.1318092
43	0x3f246608	0.6421819
44	0xbebcf5c8	-0.36906266
45	0x3eb2fffe	0.34960932
46	0x3e599c5b	0.21251051
47	0xbe9edddc	-0.3102864
48	0xbe9df145	-0.30848137
49	0x3f020224	0.50784516
50	0xbe92a0bd	-0.2863826
51	0xbece3fa2	-0.40282923
52	0xbdcf3a74	-0.10118571
53	0xbf024a21	-0.5089436
54	0xbeb07840	-0.34466743
55	0xbdad6c7f	-0.084679596
56	0x3f2446ac	0.64170337
57	0x3edcca1f	0.43122956
58	0x3ec4de05	0.38450637
59	0x3e5a0239	0.2128991
60	0x3e09ea3c	0.1346826
61	0xbed88932	-0.42292172
62	0x3ccd8d7e	0.025091883
63	0xbf03d7d7	-0.5150122
64	0x3f02fd11	0.511674
65	0x3f05edea	0.52316153
66	0x3f4cef01	0.8005219
67	0xbe0a52f8	-0.13508213
68	0x3e478b62	0.19486764
69	0xbf493b5f	-0.7860622
70	0x3e94cad5	0.29061
71	0xbe090100	-0.13379288
72	0x3ef83bdb	0.48483166
73	0x3f0ee4ed	0.55818063
74	0x3eb0ec69	0.34555367
75	0xbf4b65bc	-0.7945211
76	0xbeb63dec	-0.35594118
77	0xbbe6b754	-0.0070408974
78	0x3e7fa67c	0.24965852
79	0xbf0466d7	-0.5171942
80	0x3f39f684	0.7264178
81	0xbf2418f8	-0.641006
82	0xbedc935a	-0.4308117
83	0xbeb06072	-0.34448582
84	0xbd3abeea	-0.045592226
85	0x3f558f6d	0.83421975
86	0x3c308b41	0.010775388
87	0xbf1b0f87	-0.6057057
88	0x3ed4f865	0.4159576
89	0x3dcd0433	0.100105666
90	0x3ef23d2a	0.4731229
91	0xbf1687fe	-0.5880126
92	0x3ed56726	0.4168026
93	0x3ec7bc49	0.39010838
94	0xbf032c38	-0.5123935
95	0xbf3d2bdd	-0.73895055
96	0xbe4a8131	-0.19775845
97	0xbef4278c	-0.47686422
98	0x3ed87954	0.42280066
99	0xbf3506f3	-0.7071373

bias f4 [50]
0	0x3f117e1c	0.5683305
1	0xbf52d4cd	-0.8235596
2	0x3ef5c80f	0.48004195
3	0xbf11d0a3	-0.5695898
4	0xbea3554b	-0.3190101
5	0x3dce896b	0.10084804
6	0x3c979d0e	0.018507507
7	0x3e7cc895	0.24685891
8	0xbf0acbc0	-0.5421715
9	0xbeedc7fa	-0.46441633
10	0xbf3a4f18	-0.7277694
11	0xbf591c1c	-0.84808517
12	0xbe3f4402	-0.18678287
13	0xbf11b347	-0.5691418
14	0xbf5224ea	-0.82087576
15	0xbe8b19fb	-0.2716826
16	0xbf1bc903	-0.60853595
17	0x3e74b8c5	0.23898609
18	0x3dbc174f	0.09184133
19	0xbe22454e	-0.1584675
20	0x3f382167	0.7192597
21	0x3efbfaac	0.49214685
22	0x3ef9ed12	0.48813683
23	0xbe333802	-0.17501834
24	0xbe395e7b	-0.18102448
25	0x3e92b2a4	0.28651917
26	0xbf49d803	-0.7884523
27	0x3f49034e	0.7852067
28	0x3effff34	0.49999392
29	0x3ed7bfd0	0.4213853
30	0x3ef9db08	0.4879992
31	0xbe14ddff	-0.1453781
32	0xbe0f8adb	-0.14017813
33	0xbc92605f	-0.017868219
34	0xbf1ccf3c	-0.61253715
35	0x3e297dc3	0.1655188
36	0x3ee078c5	0.4384214
37	0x3e8feee4	0.28111947
38	0xbe1d55f0	-0.15364814
39	0x3e874872	0.2642246
40	0x3de64ca3	0.11245086
41	0x3f164bcb	0.587094
42	0xbf26a3d7	-0.6509375
43	0x3e668c73	0.22514515
44	0xbeb34a9e	-0.35017866
45	0xbee9af66	-0.4564163
46	0x3f19b59c	0.6004274
47	0xbf320d71	-0.6955176
48	0xbdbcbd80	-0.09215832
49	0xbe677247	-0.22602187

weight f4 [50, 50]
0	0x3c70ebcb	0.014704655
1	0xbe222d15	-0.1583751
2	0x3e17c9f3	0.14823131
3	0x3c16d786	0.009206658
4	0x3ed9407b	0.42432007
5	0xbdbf9fdb	-0.09356662
6	0x3c6fb3f7	0.014630309
7	0x3c9a1494	0.01880864
8	0xbf0f9f8f	-0.5610284
9	0x3d356694	0.04428728
10	0xbd73598c	-0.05941157
11	0x3f1c717d	0.6111067
12	0x3dfd86a9	0.123792
13	0x3e0d3585	0.13789947
14	0xbea1bb9f	-0.31588456
15	0xbe244aed	-0.16044207
16	0x3e83698e	0.2566647
17	0xbc82ee99	-0.015982913
18	0x3e0d3a87	0.13791858
19	0xbd134310	-0.035952628
20	0xbd95a0d3	-0.073060654
21	0x3c436b9f	0.011927514
22	0x3dc743ed	0.09729753
23	0x3de5ae69	0.11214907
24	0x3e1a50ff	0.1506996
25	0x3e2f4b7b	0.17118637
26	0xbf83eafd	-1.0306088
27	0x3cc878d2	0.024471674
28	0xbdf68399	-0.12036819
29	0x3e24e117	0.1610149
30	0xbe21da6d	-0.15805979
31	0xbe95d8e1	-0.29267028
32	0x3de88868	0.113541424
33	0x3e1ef0cd	0.15521546
34	0xbe9634b1	-0.29337075
35	0x3e8448e8	0.25836873
36	0x3d8aab7b	0.067709886
37	0xbe8b5260	-0.27211285
38	0x3d03e768	0.032203108
39	0xbe0d6198	-0.1380676
40	0x3e847d33	0.2587677
41	0x3e3bbd34	0.18333894
42	0xbf214b1b	-0.63005227
43	0xbe1f7eca	-0.1557571
44	0x3ed2982e	0.4113173
45	0x3e959be5	0.292205
46	0xbdd79661	-0.105267294
47	0x3d8aac8c	0.06771192
48	0x3db08a96	0.08620183
49	0x3da480bb	0.08032366
50	0xba18adeb	-0.00058242556
51	0xbfc3fbf4	-1.5311265
52	0xbdf7e83d	-0.12104843
53	0xbde2378e	-0.110457525
54	0xbedb2222	-0.4279948
55	0x3d85c184	0.06531051
56	0x3cc78405	0.024354944
57	0x3db7784e	0.08958493
58	0x3db5ded2	0.0888039
59	0x3c16aeea	0.009196976
60	0x3e67496f	0.22586606
61	0xbee10afd	-0.43953696
62	0xbe2f3b63	-0.17112498
63	0x3cbf878c	0.023380063
64	0xbea42d9d	-0.3206605
65	0xbed43151	-0.41443875
66	0xbe71d236	-0.23615345
67	0xbe523797	-0.20529018
68	0x3df0c10b	0.1175557
69	0x3dbaf2ad	0.09128318
70	0xbe48ad26	-0.19597301
71	0xbe811067	-0.25207826
72	0x3d4b0ea8	0.049574524
73	0xbe579b6c	-0.21055382
74	0xbe2e9b8e	-0.17051527
75	0x3dd0c290	0.1019336
76	0xbf266ac4	-0.6500666
77	0x3e111289	0.14167227
78	0x3e4bb8ee	0.19894764
79	0x3d0df992	0.034661837
80	0x3dfe5da9	0.12420208
81	0xbd000621	-0.031255845
82	0x3e7589ee	0.23978397
83	0x3cb4b2df	0.022057949
84	0xbe45936a	-0.19294515
85	0x3d83025c	0.063969344
86	0x3e012db7	0.12615095
87	0xbde64318	-0.11243266
88	0xbe10bb91	-0.14134051
89	0x3d856a6a	0.065144375
90	0x3e0c012d	0.13672324
91	0xbcd23fc0	-0.025665164
92	0x3d02c59c	0.031926736
93	0x3e13082d	0.14358588
94	0x3e3ffb54	0.18748218
95	0xbd49a2b2	-0.049227424
96	0x3e476e5f	0.19475697
97	0x3afdead8	0.0019372357
98	0x3de8ed10	0.11373341
99	0xbe124af7	-0.1428641
100	0x3e5b1f55	0.21398671
101	0x3fae1ae3	1.3601955
102	0x3c9348cb	0.017979046
103	0xbd8ed2f6	-0.06973831
104	0x3e0db3ee	0.13838169
105	0x3dbf054c	0.09327182
106	0xbd6f57b2	-0.058433242
107	0xbd837d23	-0.06420352
108	0xbf6109ac	-0.87905383
109	0xbc9506f9	-0.018191801
110	0xbdbe4116	-0.09289758
111	0xbf1fb20c	-0.6238105
112	0xbe2fdf97	-0.17175137
113	0x3d5edf00	0.054411888
114	0xbf2b54a8	-0.6692605
115	0xbf677bb1	-0.90423113
116	0xbe64e574	-0.22353154
117	0xbe33520a	-0.17511764
118	0x3ea990c7	0.3311827
119	0xbca5747e	-0.02019715
120	0x3dc6c063	0.097046636
121	0x3bbeaf6d	0.005819252
122	0x3db98a9b	0.0905964
123	0xbe1d2280	-0.15345192
124	0xbf3d2e4a	-0.73898757
125	0xbde2ce93	-0.11074557
126	0x3e6d36f0	0.23165488
127	0x3e25902e	0.16168281
128	0x3e648be0	0.22318983
129	0x3d9afdf7	0.07567971
130	0x3e2a725d	0.16645189
131	0xbdfd6847	-0.12373405
132	0x3c713946	0.014723128
133	0x3df6da50	0.120533586
134	0xbe87202e	-0.2639174
135	0xbd2cdf8f	-0.04220539
136	0x3da34844	0.07972768
137	0x3d991c17	0.07476061
138	0xbe91a384	-0.28445065
139	0x3d97c149	0.07409913
140	0xbdb6c89a	-0.089249805
141	0xbd10077b	-0.035163384
142	0xbf90472b	-1.1271719
143	0x3a7e1585	0.0009692538
144	0x3da480ab	0.08032354
145	0xbd7a5eb8	-0.061125487
146	0x3e903935	0.28168646
147	0x3e1402c0	0.14454174
148	0x3dac12a3	0.08401992
149	0x3d49d5c3	0.049276125
150	0x3daef276	0.085423395
151	0x3fe4b7d0	1.7868595
152	0x3dc7ee88	0.09762293
153	0xbe25b956	-0.16183981
154	0x3e8aad66	0.27085418
155	0xbdba8de6	-0.09109096
156	0xbdee9765	-0.1164997
157	0xbda2b18f	-0.07944023
158	0xbf945039	-1.1586982
159	0xbcbd4a05	-0.023106584
160	0xbe9eeb01	-0.3103867
161	0xbf698cee	-0.91230667
162	0xbeb70515	-0.35746065
163	0x3e817017	0.2528083
164	0xbeb87671	-0.36027864
165	0xbe37da6e	-0.17954418
166	0x3e93a144	0.28833973
167	0x3df9fb31	0.12206114
168	0x3cbfddee	0.023421254
169	0xbeb6ea7c	-0.35725772
170	0x3e341811	0.17587306
171	0xbb2d7880	-0.0026469529
172	0x3e55221a	0.2081379
173	0x3d87915b	0.06619521
174	0xbe244846	-0.16043195
175	0x3c9513fa	0.018198002
176	0xbe7a0c39	-0.24418725
177	0x3d6ae8e7	0.05735102
178	0xbc85a2fb	-0.016313067
179	0x3dbd456d	0.092417575
180	0x3dd026b7	0.10163634
181	0xbe4ef8db	-0.20212118
182	0xbe731759	-0.23739375
183	0xbcb46e13	-0.022025144
184	0xbe34b5de	-0.17647502
185	0x3dbdba5b	0.0926406
186	0x3d88b07d	0.066742875
187	0xbd5ef1ef	-0.054429945
188	0xbe892bdf	-0.26791283
189	0xbe2c367b	-0.16817658
190	0x3d078412	0.033084936
191	0x3d14786b	0.036247652
192	0xbf085394	-0.5325253
193	0xbe3baa76	-0.18326744
194	0xbdf7f669	-0.12107546
195	0x3e4e6c20	0.20158434
196	0x3e6a6ed4	0.2289384
197	0x3e7b7c4e	0.24559137
198	0x3d76305b	0.06010471
199	0x3e1f2979	0.15543164
200	0x3d8dc156	0.069216415
201	0x3e895d31	0.26828912
202	0x3cc16919	0.023609685
203	0xbe5259b4	-0.20542032
204	0x3d77b921	0.060479287
205	0xbe01aa43	-0.12662606
206	0xbe23cf72	-0.15997103
207	0xbe72f5fb	-0.23726647
208	0xbe653060	-0.22381735
209	0x3e1fc3fd	0.15602107
210	0x3ec7f411	0.39053395
211	0xbd8541c9	-0.06506688
212	0xbe0e1224	-0.13874108
213	0x3e572ada	0.2101244
214	0xbeadab31	-0.3391967
215	0x3e130a79	0.14359464
216	0xbe6b9ff8	-0.23010242
217	0x3dedfe57	0.11620777
218	0x3d3c8e4a	0.046034135
219	0x3d5301a5	0.05151524
220	0x3d5c6f04	0.05381681
221	0xbdda3131	-0.10653914
222	0xbdd21440	-0.10257769
223	0x3dc09232	0.094028845
224	0x3e14fc89	0.1454946
225	0xbd961f9f	-0.0733025
226	0x3df1186e	0.11772238
227	0xbc80cb46	-0.015721928
228	0x3d944f71	0.07241715
229	0x3c9f6603	0.019457823
230	0xbd8e3b6b	-0.06944927
231	0x3d63f357	0.05565199
232	0x3dcd2899	0.10017509
233	0xbc6aa295	-0.014320989
234	0x3d80cc9c	0.06289026
235	0x3e34e3cb	0.17665021
236	0xbd12c952	-0.035836525
237	0x3db5732f	0.0885986
238	0x3d014010	0.031555235
239	0x3de50d94	0.111842304
240	0x3e22c4b0	0.15895343
241	0xbb7143d1	-0.0036814103
242	0x3d49faa5	0.0493113
243	0xbe32a927	-0.17447339
244	0xbe64fa2a	-0.22361055
245	0x3d7f3084	0.062302127
246	0x3b93c476	0.004509504
247	0x3e284c9a	0.16435471
248	0xbdab1b7f	-0.08354854
249	0x3e264560	0.16237402
250	0x3e03a6e9	0.1285664
251	0xbfe20e1a	-1.7660553
252	0x3ddd554c	0.10807285
253	0x3dd88a84	0.10573295
254	0xbe655aa2	-0.22397855
255	0x3dd52ea5	0.10409287

bias f4 [50]
0	0x3e2f0295	0.17090829
1	0x3e4cb94f	0.19992565
2	0x3d0805c5	0.033208627
3	0x3e7fd05e	0.2498183
4	0x3d28ab1a	0.0411788
5	0x3e56db1d	0.20982023
6	0xbc91cccf	-0.017797856
7	0xbb8f37d9	-0.004370671
8	0x3e4d8b35	0.20072635
9	0x3e8a9106	0.2706377
10	0x3de72180	0.112856865
11	0xbe031e69	-0.1280457
12	0xbe36e7aa	-0.1786181
13	0xbca7c093	-0.020477569
14	0xbe037686	-0.12838182
15	0x3d719085	0.058975715
16	0xbc3f0cf8	-0.011660807
17	0x3eb653be	0.35610765
18	0x3e99a918	0.3001182
19	0x3d8b6eed	0.06808267
20	0x3e96ace3	0.29428777
21	0xbe332d10	-0.17497659
22	0x3e10bfb5	0.1413563
23	0xbdd13537	-0.10215228
24	0xbe04cdb8	-0.129691
25	0x3e9c978c	0.3058437
26	0x3e1afc04	0.15135199
27	0x3da45b90	0.08025277
28	0x3d0e8cb8	0.03480217
29	0x3e4c9974	0.19980413
30	0x3d75ac65	0.05997886
31	0x3d031b56	0.03200849
32	0x3e06d59e	0.13167426
33	0x3e20e46a	0.15712133
34	0xbd01c926	-0.03168597
35	0x3e810ebd	0.25206557
36	0x3e76ef4b	0.2411472
37	0x3d4f5537	0.050618377
38	0xbdad0074	-0.08447352
39	0x3d942d7a	0.072352365
40	0x3e61847b	0.22023194
41	0x3d7aa234	0.061189845
42	0xbd7de274	-0.06198354
43	0xbe0e9e31	-0.13927533
44	0x3e21740b	0.15766923
45	0x3de19a65	0.110157765
46	0x3ec23c51	0.37936643
47	0x3e597c94	0.21238929
48	0x3dcd28f1	0.100175746
49	0xbd64eec4	-0.055891767

weight f4 [50, 50]
0	0xbd9373ee	-0.07199846
1	0x3cb3f063	0.021965211
2	0x3e4a787a	0.1977252
3	0x3e35857f	0.17726706
4	0x3d8d3bc0	0.06896162
5	0xbd0b3a17	-0.033990946
6	0xbd819c7d	-0.06328676
7	0x3d077380	0.033069134
8	0xbe12337c	-0.14277452
9	0x3d602f4a	0.0547326
10	0x3e2b315d	0.1671805
11	0xbc8db3a8	-0.01729758
12	0x3e08c1d1	0.13355185
13	0x3d08a5f0	0.033361375
14	0xbd8e36d9	-0.06944055
15	0xb87390c5	-5.8070542e-05
16	0xbe65b6a2	-0.2243295
17	0xbebc7f51	-0.36815885
18	0x3da0e099	0.078553386
19	0x3e871004	0.26379406
20	0x3e1a05d2	0.15041283
21	0x3ba87b86	0.0051416783
22	0x3de12e0c	0.10995111
23	0x3c81b18f	0.015831737
24	0xbd5c1078	-0.053726643
25	0xbdfdf987	-0.12401109
26	0x3d13fb44	0.036128297
27	0x3daa3b48	0.08312088
28	0x3e768e42	0.24077705
29	0xbe29b081	-0.16571237
30	0xbc573faf	-0.013137742
31	0x3dbd2cde	0.09237073
32	0xbd9a9186	-0.07547288
33	0xbdd4e2d1	-0.10394824
34	0x3e32628a	0.17420402
35	0xbcc09850	-0.023510128
36	0xbd057054	-0.032577828
37	0xbeb34f51	-0.3502145
38	0xbe017112	-0.12640789
39	0xbd003dfc	-0.031309113
40	0x3dfefb96	0.1245033
41	0x3ca913cc	0.020639323
42	0x3e133925	0.14377268
43	0xbd33bb1c	-0.043879613
44	0x3e4ca757	0.1998571
45	0xbc554807	-0.013017661
46	0xbdbec72f	-0.09315335
47	0xbe0587ad	-0.13040037
48	0xbe5ac775	-0.2136515
49	0x3d00f8ad	0.031487156
50	0x3e352738	0.17690742
51	0xbe893fbb	-0.26806435
52	0x3e0f0f9d	0.139708
53	0x3cf84d4e	0.0303103
54	0xbd881b7c	-0.06645867
55	0xbd87b6c6	-0.06626658
56	0x3df7714b	0.12082156
57	0x3d60353e	0.054738276
58	0xbd17737b	-0.036975365
59	0xbd6fd705	-0.058554668
60	0x3d57883c	0.052620158
61	0xbe589fc0	-0.2115469
62	0x3d98f64b	0.07468852
63	0x3c0571bf	0.008144795
64	0xbe336a5f	-0.17521046
65	0x39e4d6bd	0.0004364754
66	0x3e9e57e5	0.30926433
67	0xbd8c4b83	-0.0685034
68	0xbcae77f2	-0.021297429
69	0x3e96086c	0.293033
70	0x3d420f63	0.047377955
71	0x3dac5c71	0.08416069
72	0xbdbfb4cc	-0.09360656
73	0xbc4929dc	-0.012278046
74	0xbe22371a	-0.15841332
75	0xbd5e18c8	-0.054222852
76	0x3dce81a6	0.10083322
77	0x3d699369	0.057025347
78	0xbd14678f	-0.036231574
79	0xbd71ae70	-0.059004247
80	0x3ca980db	0.020691326
81	0xbcd10398	-0.025514409
82	0xbc42d601	-0.011891843
83	0x3e100412	0.14064053
84	0x3ce9a9e2	0.02852339
85	0xbdeed7b6	-0.11662237
86	0xbeaf08a5	-0.34186283
87	0x3d6dfa87	0.05810025
88	0x3e54e555	0.20790608
89	0x3e39c800	0.181427
90	0xbebd3f55	-0.3696238
91	0x3cbb197d	0.022839302
92	0xbe142d6e	-0.14470455
93	0xbe2baf61	-0.1676612
94	0xbc4cc97d	-0.01249921
95	0xbe78fcc7	-0.24315177
96	0xbeb74ed2	-0.35802323
97	0xbd4745fd	-0.04865073
98	0xbead73ee	-0.3387751
99	0x3e022e9f	0.12713097
100	0xbe14eb78	-0.14542949
101	0x3e6decd3	0.23234873
102	0xbea3864e	-0.31938404
103	0xbc0cc2f5	-0.008591403
104	0x3d1aa678	0.037756413
105	0xbce04ce2	-0.02738041
106	0xbe5a65ad	-0.21327849
107	0xbdef64fd	-0.11689184
108	0xbd90331d	-0.07040999
109	0xbc20783d	-0.009794292
110	0xbe0f5076	-0.13995537
111	0xbe59af3c	-0.21258253
112	0xbcff0420	-0.031129897
113	0x3d5083a3	0.05090679
114	0xbe3ecfd6	-0.1863397
115	0xb83b8ccd	-4.4715405e-05
116	0xbe20cb69	-0.15702595
117	0x3eaa5ae7	0.33272478
118	0x3e9aa9a7	0.3020756
119	0xbeb8e6b1	-0.36113504
120	0x3d90f503	0.07077982
121	0xbddb5f6d	-0.107115604
122	0x3bb8a8a4	0.005635338
123	0xbc1e902a	-0.009677926
124	0x3d9221f7	0.071353845
125	0xbe4bf038	-0.19915855
126	0xbda4ae72	-0.08041085
127	0xbcf2db2a	-0.029645521
128	0xbe483453	-0.1955121
129	0x3cbd2685	0.023089657
130	0x3d9f2891	0.07771409
131	0xbd9f7ba2	-0.07787253
132	0x3d2e1925	0.04250445
133	0xbe2a463a	-0.16628352
134	0x3d9d3863	0.076767705
135	0x3d664493	0.05621774
136	0x3cf574ae	0.029962864
137	0xbd02f3b1	-0.031970683
138	0x3cbf084d	0.023319388
139	0xbe17b7d1	-0.14816214
140	0xbdc9eec0	-0.09859991
141	0xbca0c879	-0.019626843
142	0x3e676fa3	0.2260118
143	0x3d82db06	0.06389432
144	0x3d9f1d14	0.07769218
145	0xbe6d95ae	-0.2320163
146	0x3c117709	0.008878478
147	0x3dbb50d3	0.09146275
148	0x3e181615	0.14852174
149	0xbe26ddc5	-0.16295536
150	0x3d35a8fd	0.044350613
151	0xbcf20b90	-0.029546529
152	0xbe85a782	-0.2610436
153	0xbeea4700	-0.45757294
154	0x3c073aed	0.008253795
155	0xbe821bb4	-0.2541176
156	0xbb7b0656	-0.0038303337
157	0xbe9ab67a	-0.30217344
158	0x3cf953c3	0.030435449
159	0xbc6233d1	-0.013806299
160	0x3dd0b639	0.10191006
161	0x3d8872d6	0.06662528
162	0xbc084c24	-0.008318935
163	0x3d0bb1a1	0.034104947
164	0x3dca73d0	0.09885371
165	0xb92c6690	-0.00016441406
166	0x3d7fc4b8	0.062443465
167	0xbe30e44f	-0.17274593
168	0xbd14985f	-0.036278125
169	0xbe12b704	-0.14327627
170	0xbe1c7ecc	-0.15282744
171	0x3ec8c58d	0.3921322
172	0x3daca0f6	0.08429138
173	0xbd0758c9	-0.033043656
174	0xbe9f38cf	-0.3109803
175	0xbe32566b	-0.17415778
176	0x3d80b77f	0.06284999
177	0x3db7c50f	0.08973133
178	0xbe71b70b	-0.23604982
179	0xbe0a8174	-0.13525945
180	0x3e89f98c	0.26948202
181	0x3d947ea4	0.07250717
182	0x3ec5e1a0	0.386487
183	0x3e290550	0.16505933
184	0xbe4aed4e	-0.19817087
185	0x3e8fb8a1	0.28070548
186	0xbe4806d6	-0.19533858
187	0x3e865b72	0.26241642
188	0x3e6e43d2	0.23268059
189	0x3d0d4ad8	0.034495205
190	0xbd461565	-0.048360247
191	0x3dbf0b4e	0.09328328
192	0x3df8a919	0.12141628
193	0x3cb57f93	0.022155559
194	0x3d4e5cba	0.0503814
195	0xbe989f93	-0.29809245
196	0x3d724bb3	0.059154224
197	0x3ddafe10	0.1069299
198	0x3e80fcce	0.25192875
199	0x3cdc5369	0.026895242
200	0x3ce3a8d4	0.027790464
201	0xbd279f34	-0.040923312
202	0x3d18f64c	0.037344262
203	0x3ea6e686	0.3259775
204	0x3d5ffa64	0.05468215
205	0xbe36e329	-0.17860092
206	0xbd3cf7a1	-0.046134595
207	0x3dd9c6e6	0.1063364
208	0x3ca2e894	0.019886293
209	0xbdf8ac2e	-0.12142216
210	0x3d08b839	0.033378813
211	0x3e89f600	0.26945496
212	0xbe2f0ac6	-0.17093953
213	0xbda57d43	-0.080805324
214	0x3eb566ea	0.3543008
215	0x375a5e36	1.3015748e-05
216	0x3d1801fd	0.03711127
217	0x3ebf8d60	0.37412548
218	0xbe5c1d8a	-0.21495643
219	0xbe18b21b	-0.14911692
220	0x3d819ce8	0.063287556
221	0xbd50a398	-0.050937265
222	0xbd31ac70	-0.04337734
223	0x3c958186	0.018250238
224	0x3c975075	0.018470982
225	0xbd03ca1b	-0.032175165
226	0xbda839b0	-0.08214128
227	0x3e36f696	0.17867503
228	0xbe4122b9	-0.18860902
229	0x3d311c44	0.043239847
230	0x3da475f4	0.0803031
231	0x3d5bb9f3	0.053644132
232	0xbdf98442	-0.12183429
233	0xbe25621e	-0.1615071
234	0x3e3ff6c5	0.18746479
235	0xbd13a889	-0.0360494
236	0xbdeef896	-0.11668508
237	0xbdd6a14e	-0.10479985
238	0x3d427150	0.047471344
239	0x3d093e49	0.033506665
240	0xbda19a64	-0.07890776
241	0xbe29dcf4	-0.16588193
242	0x3d4c2ad7	0.049845543
243	0xbd51a3a7	-0.05118146
244	0xbd8be579	-0.06830878
245	0x3d6f6979	0.058450196
246	0xbc4ce407	-0.012505538
247	0xbd16f4f1	-0.036854688
248	0xbde40251	-0.11133254
249	0xbe6c33ce	-0.23066637
250	0xbc8b6fb2	-0.017021034
251	0xbd052a6b	-0.032511156
252	0x3e43306f	0.19061445
253	0x3e1991ca	0.1499702
254	0xbb9cc2be	-0.0047839573
255	0xbdb9cde8	-0.090724766

bias f4 [50]
0	0xbd41907c	-0.04725693
1	0xbd3d4643	-0.046209585
2	0x3cb6fa7a	0.022336233
3	0x3cf8823a	0.030335534
4	0xbc5c6add	-0.013453213
5	0xbb2d2c1a	-0.0026423992
6	0x3d8ae68f	0.06782257
7	0x3d903c12	0.070427075
8	0xbd8398bd	-0.06425617
9	0xbddf8e13	-0.109157704
10	0xbd8d0978	-0.06886572
11	0x3c09f2ac	0.008419674
12	0x3bc535aa	0.00601836
13	0xbc8baa96	-0.017049115
14	0xbcf4fdbf	-0.029906152
15	0x3c17c181	0.0092624435
16	0xbc777be1	-0.015105219
17	0x3c01cfd8	0.007923089
18	0xbc2a3167	-0.010387755
19	0xbdd22fa0	-0.1026299
20	0x3d202341	0.03909612
21	0xbc102671	-0.008798228
22	0xbcf0e8a1	-0.029407801
23	0x3d571839	0.052513335
24	0x3a02decf	0.00049923075
25	0xbd0941d0	-0.03351003
26	0xbc9f71d4	-0.019463457
27	0x3d40b034	0.04704304
28	0x3c899a60	0.016797245
29	0x3da0babd	0.078481175
30	0x3d8bbd24	0.06823185
31	0xbd750fb8	-0.059829444
32	0x3d19f167	0.037583735
33	0xbd323ab4	-0.043513015
34	0x3d02598e	0.031823687
35	0x3ca6b33c	0.020349137
36	0x3c08bcd0	0.008345798
37	0x3d2c1b91	0.042018477
38	0xbd64b600	-0.05583763
39	0x3d19a079	0.037506554
40	0x3cc75bd3	0.024335777
41	0xbd09c6ab	-0.03363673
42	0xbda268e5	-0.07930163
43	0x3d794aca	0.06086234
44	0x3cedde11	0.029036554
45	0xbc8bc4a9	-0.017061548
46	0x3d2b0495	0.041752417
47	0xbbcf16b1	-0.0063198437
48	0x3ca8c96d	0.02060386
49	0xbd1208b9	-0.03565285

weight f4 [50, 50]
0	0xbdb92c69	-0.09041674
1	0xbf4e1794	-0.8050473
2	0x3e084c70	0.13310409
3	0xbe47a708	-0.19497311
4	0x3e1ca8b7	0.15298735
5	0xbd601ee8	-0.054716974
6	0x3e8df0cd	0.2772278
7	0x3da2a901	0.07942391
8	0xbd3327f4	-0.043739274
9	0xbe4530d5	-0.19256909
10	0xbf277a47	-0.65420955
11	0x3d3a257f	0.045445915
12	0x3d23e099	0.040009115
13	0xbec658b1	-0.3873954
14	0xbee0187b	-0.43768677
15	0xbd8ffabe	-0.07030247
16	0xbea4c12e	-0.32178634
17	0x3e22ffae	0.15917847
18	0x3d9bf23c	0.07614562
19	0x3e0227b4	0.12710458
20	0x3e440139	0.19141091
21	0x3ebb07a6	0.36529273
22	0x3d96a475	0.073555864
23	0xbf0a06e9	-0.53916794
24	0xbe1a8ca7	-0.15092717
25	0xbd80d589	-0.062907286
26	0xbee312c7	-0.44350263
27	0x3e651241	0.22370245
28	0xbe2f9c87	-0.17149554
29	0x3eba308e	0.3636517
30	0xbcdc2bb7	-0.026876314
31	0xbe2e7adc	-0.17039055
32	0x3e111fa9	0.14172234
33	0x3d7749bb	0.06037305
34	0xbf8166e0	-1.010952
35	0x3d91093c	0.070818394
36	0x3e93ca16	0.28865117
37	0x3e0b1ff3	0.13586406
38	0xbeeaa322	-0.45827585
39	0x3d97e524	0.07416752
40	0xbd6dc27f	-0.058046814
41	0xbc8268e0	-0.015919149
42	0xbea42a51	-0.32063535
43	0xbdee372e	-0.116316184
44	0xbd3fe76f	-0.04685157
45	0x3e74283d	0.23843475
46	0xbe27ab1b	-0.16373865
47	0x3e0e0058	0.13867319
48	0x3d980b29	0.07424004
49	0x3e7192da	0.23591176
50	0xbd267c33	-0.04064579
51	0xbecc4960	-0.3989973
52	0x3e6f0547	0.23341857
53	0xbe1f110f	-0.15533851
54	0x3d691076	0.056900464
55	0x3e735279	0.2376193
56	0x3ed8bad5	0.42330042
57	0xbde33a15	-0.11095063
58	0xbe2e7751	-0.17037703
59	0xbf61d9ce	-0.8822297
60	0xbea52140	-0.3225193
61	0xbe78b4b7	-0.24287687
62	0xbee5971a	-0.44841844
63	0xbdb8e159	-0.09027357
64	0xbf0fac50	-0.56122303
65	0xbdf399cd	-0.118945695
66	0x3e52fb76	0.20603737
67	0x3ea19bb3	0.31564102
68	0xbceb2f7e	-0.02870917
69	0xbe564fed	-0.20928927
70	0x3e1b18bf	0.15146159
71	0xbdb46289	-0.088078566
72	0x3df0db95	0.11760632
73	0xbe37662e	-0.17910072
74	0xbcb0d5eb	-0.021586379
75	0x3e4ad2d8	0.19806993
76	0x3c826275	0.015916089
77	0x3ddbc839	0.10731549
78	0x3e86f6fd	0.26360312
79	0xbeb02d5f	-0.34409615
80	0x3d4015e8	0.04689589
81	0x3ec16e7f	0.37779614
82	0xbe0bcb1e	-0.13651702
83	0x3e02e2dd	0.12781854
84	0x3ddc6206	0.10760884
85	0x3d9cfb2f	0.07665097
86	0x3c9a8b37	0.018865211
87	0x3eae9988	0.3410151
88	0x3e06f766	0.13180313
89	0xbd562beb	-0.052287977
90	0x3e4808dd	0.19534631
91	0xbd8d764a	-0.069073275
92	0x3dc60626	0.096691415
93	0xbc7f2628	-0.015573062
94	0x3b24c090	0.002513919
95	0xbdaf6178	-0.085635126
96	0x3e208610	0.15676141
97	0x3e8b7e08	0.27244592
98	0xbddaba2e	-0.10680042
99	0xbd998998	-0.07496947
100	0xbda44c99	-0.08022422
101	0x3db3c42b	0.087776504
102	0x3c833f15	0.01602129
103	0xbe7e7a71	-0.24851395
104	0x3c8453e5	0.016153285
105	0xbe25117d	-0.16119952
106	0xbd22b02b	-0.039718788
107	0x3eafd908	0.3434527
108	0x3e454e40	0.19268131
109	0xbe13d993	-0.14438467
110	0xbe919437	-0.2843339
111	0xbf647ff4	-0.8925774
112	0xbd958949	-0.07301576
113	0x3db3b1f6	0.08774178
114	0xbeed6509	-0.46366146
115	0x3c491e33	0.012275266
116	0xbf318092	-0.6933681
117	0xbe04aa16	-0.12955508
118	0x3e207c67	0.15672456
119	0xbe4fe62d	-0.20302649
120	0x3d913e45	0.07091955
121	0x3ea927f8	0.33038306
122	0x3cab0b66	0.020879459
123	0xbf348141	-0.70509726
124	0x3e48a6cb	0.19594876
125	0xbd6716c3	-0.05641819
126	0xbe839ff0	-0.2570796
127	0x3e3877a0	0.18014383
128	0x3b080c0e	0.0020759138
129	0x3d9b83c5	0.075934924
130	0x3e39f334	0.18159181
131	0xbef00f21	-0.46886542
132	0x3e4e3baf	0.20139955
133	0x3ef2b503	0.47403726
134	0x3e2fdc90	0.17173982
135	0x3e4117b1	0.18856694
136	0x3c9d805a	0.019226242
137	0x3e12dbd9	0.14341678
138	0xbe77c146	-0.24194822
139	0x3d7e1b9a	0.06203804
140	0x3e04e60e	0.12978384
141	0x3c6e19a3	0.014532479
142	0x3e06ec13	0.13175993
143	0x3e85da8c	0.261433
144	0xbeb04c5c	-0.34433258
145	0x3df3e111	0.119081624
146	0xbd1e6ba6	-0.03867688
147	0x3d25f056	0.040512405
148	0x3c3bb3f7	0.011456481
149	0xbd6e3835	-0.058159072
150	0xbd097131	-0.033555213
151	0x3cb2b8c8	0.021816626
152	0x3c501085	0.012699251
153	0x3d7f5f62	0.062346824
154	0xbca37ee4	-0.019957967
155	0x3da34d42	0.0797372
156	0xbceb6615	-0.0287352
157	0x3c38147f	0.011235355
158	0xbd139cde	-0.036038272
159	0xbdd8454c	-0.10560092
160	0xbda7b9aa	-0.081897095
161	0xbd9c5af7	-0.07634538
162	0x3d5c2ca2	0.053753503
163	0x3d71b2c8	0.05900839
164	0x3ce3ee98	0.027823731
165	0xbe01c84b	-0.12674062
166	0xbe0ff4ef	-0.14058279
167	0xbe09ecd7	-0.13469253
168	0x3ca73a5e	0.020413574
169	0xbda425df	-0.08015036
170	0x3d83a2f1	0.06427563
171	0x3dbc5b62	0.091971174
172	0x3da2f4a0	0.07956815
173	0xbd7d45aa	-0.061834015
174	0xbd219920	-0.039452672
175	0xbcca82b4	-0.024720527
176	0x3e0dec9a	0.13859788
177	0xbe0e5002	-0.13897708
178	0xbd3e4821	-0.046455506
179	0x3cf9690f	0.030445604
180	0xbd6492e4	-0.05580415
181	0xbdee7d3d	-0.11644981
182	0xbdf22e15	-0.11825196
183	0x3cb95480	0.0226233
184	0xbdc1ca5e	-0.094624266
185	0xbd6d0bad	-0.057872463
186	0x3d58b771	0.05290932
187	0x3dd86be1	0.10567451
188	0xbdef2c9e	-0.11678432
189	0xbddfab6a	-0.109213665
190	0xbd8359fd	-0.06413648
191	0x3da474e7	0.0803011
192	0x3bb4c672	0.0055168206
193	0xbc2f7215	-0.010708352
194	0xbd5aef6d	-0.05345099
195	0xbcd93bdd	-0.026517803
196	0xbe0abb5c	-0.13548034
197	0xbd7f74e6	-0.062367342
198	0xbd9dd654	-0.077068955
199	0x3dbaddfc	0.091243714
200	0x3dd7cfbc	0.10537669
201	0xbe976e3f	-0.295763
202	0x3c3b8d95	0.01144733
203	0xbf23dcda	-0.6400887
204	0x3e99da3d	0.30049315
205	0x3d216225	0.03940024
206	0xbd11c90d	-0.035592128
207	0xbf1f99d1	-0.6234408
208	0xbd3817d8	-0.044944614
209	0x3e0e8e83	0.13921551
210	0xbd852b91	-0.0650245
211	0x3d1ec326	0.038760327
212	0x3d926d60	0.07149768
213	0xbf862a70	-1.0481701
214	0xbf17609b	-0.59131783
215	0x3d0e2451	0.034702603
216	0x3e2ab485	0.16670425
217	0xbde39e2d	-0.11114154
218	0x3d16b2b1	0.036791507
219	0x3e18ed0c	0.14934176
220	0x3de51183	0.11184981
221	0xbd4eb080	-0.050461292
222	0x3e331648	0.17488968
223	0xbed7281e	-0.42022794
224	0x3e2782bb	0.16358463
225	0xbe574362	-0.21021798
226	0x3e0bbee6	0.1364704
227	0xbdb61ee5	-0.088926114
228	0x3c0b8120	0.0085146725
229	0x3d12a7b3	0.03580446
230	0x3e1e1180	0.15436363
231	0x3e43b83d	0.1911325
232	0xbee18e2e	-0.44053787
233	0x3f2dc972	0.67885506
234	0xbe059511	-0.13045146
235	0x3d70ea8f	0.058817443
236	0xbdb0cd5e	-0.08632921
237	0x3e5d6dfc	0.21623987
238	0x3ef36ea0	0.47545338
239	0x3de19e1f	0.11016487
240	0x3da89019	0.082306094
241	0x3d52ba10	0.051446974
242	0xbe0f1436	-0.13972554
243	0xbea047a5	-0.3130466
244	0x3d89f97d	0.06737039
245	0x3d42045f	0.04736745
246	0xbe362e88	-0.17791188
247	0x3c674a3c	0.01411682
248	0xbe976c31	-0.2957473
249	0x3e8f857d	0.2803153
250	0xbe549063	-0.20758204
251	0x3d67b258	0.056566566
252	0x3cbf0ec8	0.023322478
253	0xbbce4532	-0.00629487
254	0xbc33354d	-0.010938001
255	0x3daa5df1	0.08318699

bias f4 [50]
0	0x3e3e7152	0.18597916
1	0x3df0cd4c	0.11757907
2	0x3e2246f3	0.15847377
3	0x3d3bc3eb	0.04584114
4	0x3d20a16d	0.039216448
5	0xbd398c2b	-0.04529969
6	0x3b9b8a0b	0.0047466806
7	0x3e457c94	0.19285804
8	0x3adf13df	0.0017019472
9	0xbd462e09	-0.048383746
10	0x3e6675f8	0.22505939
11	0x3d616bc6	0.05503442
12	0x3e06dfa7	0.13171254
13	0x3e79bac5	0.24387653
14	0x3e51517c	0.2044124
15	0x3e608bfa	0.21928397
16	0x3c9290ee	0.017891373
17	0x3c6b04d3	0.014344412
18	0x3e0f2320	0.13978243
19	0xbd20b9c4	-0.03923966
20	0xbd4ad359	-0.049517963
21	0xbe0e0078	-0.13867366
22	0x3c4cb441	0.012494148
23	0x3db92f91	0.09042276
24	0xbcc66b88	-0.024221197
25	0xbcbd3ad9	-0.02309935
26	0xbd049c79	-0.032375786
27	0x3dfb7606	0.122783706
28	0x3d9058db	0.07048198
29	0xbcd89807	-0.02643968
30	0x3bce449b	0.0062947995
31	0xbe077b80	-0.13230705
32	0xbe09900d	-0.13433857
33	0xbe0bc3ae	-0.13648865
34	0x3ca4276b	0.020038327
35	0x3d9fb0c4	0.07797387
36	0x3dbde969	0.09273035
37	0x3d9599bd	0.07304714
38	0x3e9be5cc	0.3044876
39	0x3e37aa6a	0.17936102
40	0x3c3908e0	0.01129362
41	0xbd7d7636	-0.061880313
42	0xbdd20c6a	-0.10256274
43	0x3d6f6fb2	0.05845613
44	0x3c145dde	0.009055583
45	0x3d6947f2	0.056953378
46	0xbd34bd18	-0.044125646
47	0x3e0c2714	0.13686782
48	0x3e567c60	0.20945883
49	0x3d826eea	0.063688114

weight f4 [50, 50]
0	0x3eb9f96e	0.36323112
1	0xbd80c6f2	-0.06287946
2	0xbd8185bb	-0.06324335
3	0xb891d396	-6.95355e-05
4	0xbcf26b05	-0.029592047
5	0xbe313703	-0.17306142
6	0xbec406fd	-0.38286582
7	0xbe11e5a0	-0.14247751
8	0xbd5b7fa4	-0.053588524
9	0xbd3da6fd	-0.04630183
10	0x3eb9ea18	0.36311412
11	0xbe818ee9	-0.25304344
12	0xbe21c22d	-0.15796728
13	0x3e4be821	0.19912769
14	0xbe16deb3	-0.1473339
15	0xbe0a9bbb	-0.13535969
16	0xbcb6e811	-0.022327455
17	0x3ec25689	0.37956646
18	0x3ef1d64a	0.47233802
19	0x3d9ba6fe	0.076002106
20	0x3c6db9bb	0.014509614
21	0x3dba19f0	0.090869784
22	0x3d580417	0.052738275
23	0x3e3c8eaf	0.18413804
24	0xbdb79c85	-0.089654006
25	0xbe7659a4	-0.24057633
26	0x3e9be577	0.30448505
27	0x39dae140	0.00041748025
28	0xbd9bf76a	-0.0761555
29	0x3a2f3a7d	0.00066844356
30	0xbe849100	-0.25891876
31	0xbc696e51	-0.014247493
32	0x3c454834	0.01204114
33	0x3a64dbd8	0.0008730269
34	0xbd7cf1c1	-0.061753992
35	0xbe5cb954	-0.21555072
36	0x3bf06ce9	0.007337202
37	0xbdbd6002	-0.09246828
38	0xbd7db414	-0.061939314
39	0x3d196675	0.037451226
40	0x3d82c792	0.06385721
41	0xbd63ccac	-0.055615112
42	0xbe01eada	-0.12687245
43	0xbd871323	-0.06595447
44	0x3eebee5f	0.460803
45	0xbe4331c6	-0.19061956
46	0x3e4cbc65	0.19993742
47	0xbe428aa4	-0.189982
48	0xbd27ef30	-0.04099959
49	0x3d3e7608	0.046499282
50	0xbe030d3e	-0.1279802
51	0x3e11cd6a	0.14238515
52	0x3d8c717a	0.068575814
53	0xba3e6b73	-0.0007263936
54	0xbe116e2e	-0.14202186
55	0x3d9ccb2a	0.07655938
56	0x3e4c7453	0.19966249
57	0xbe8c3141	-0.27381328
58	0xbdb3518c	-0.08755788
59	0x3e0384bb	0.12843601
60	0x3e895a92	0.26826912
61	0xbd74e5b1	-0.059789363
62	0x3de8a600	0.11359787
63	0x3e6f9b05	0.23398979
64	0xbdec5a8f	-0.1154071
65	0xbdeb8c74	-0.11501399
66	0xbe148500	-0.1450386
67	0xbd9cd423	-0.07657649
68	0xbd5fe4b8	-0.054661483
69	0x3ded25d1	0.115794785
70	0xbdd17c39	-0.10228772
71	0x3df6911f	0.120393984
72	0x3e6d9066	0.23199615
73	0x3ed4a54a	0.41532356
74	0x3d3ff841	0.046867613
75	0xbd85b939	-0.06529469
76	0x3e8869bd	0.26643172
77	0xb9e60bf9	-0.0004387794
78	0x3ca768a6	0.020435642
79	0xba72f1d0	-0.00092676
80	0xbcf5bc69	-0.029997068
81	0xbda40119	-0.08008022
82	0xbc53df56	-0.012931665
83	0xba6e7459	-0.00090963166
84	0x3d2f9909	0.042870555
85	0xbdc9a96b	-0.09846767
86	0x3e6a42b5	0.22877009
87	0x3ddd1e1f	0.10796761
88	0x3e126f0e	0.14300177
89	0xbc31e9ea	-0.010858992
90	0xbd274244	-0.04083468
91	0x3cb88cbe	0.022528049
92	0xbda6207e	-0.08111666
93	0x3de4f7c9	0.11180074
94	0xbca3f257	-0.020013018
95	0xbca2fb9d	-0.01989537
96	0x3e00bab5	0.12571223
97	0x3db4aad7	0.088216476
98	0x3e93c7db	0.28863415
99	0xbdb2679f	-0.087111704
100	0xbe9b8ce8	-0.3038094
101	0x3dc3adf0	0.0955466
102	0x3ed5ab6b	0.41732344
103	0xb9c6f24e	-0.00037946034
104	0x3d157138	0.036484927
105	0x3dfc1ced	0.12310205
106	0xbeca2c38	-0.3948686
107	0xbe14e53e	-0.14540574
108	0x3c96ae25	0.018393585
109	0xbd9c0a9b	-0.0761921
110	0x3ee2e23e	0.44313234
111	0x3d1ee13f	0.03878903
112	0x3e539bee	0.20664951
113	0xbf192e9f	-0.59836763
114	0xbd9fc381	-0.07800961
115	0x3e868cd8	0.2627933
116	0xbe14ac3f	-0.14518832
117	0xbe83014e	-0.25586933
118	0xbe0dc2c2	-0.13843825
119	0x3e187ab5	0.14890559
120	0xbd0f87d1	-0.035041634
121	0x3e56994e	0.20956919
122	0xbe52005b	-0.20507948
123	0xbdb018d1	-0.08598483
124	0xbb97628b	-0.0046199015
125	0xbde338b2	-0.11094798
126	0xbe8a8c77	-0.2706029
127	0xb990f463	-0.00027647903
128	0xbd48b2b6	-0.048998557
129	0x38a03852	7.639885e-05
130	0xbc1f840d	-0.009736073
131	0x3e23ae86	0.15984544
132	0x3cbab24f	0.022790102
133	0x39972744	0.0002883022
134	0x3ea4b19e	0.3216676
135	0x3ed7684b	0.42071757
136	0xbe5ad555	-0.21370442
137	0x3dca0dff	0.09865951
138	0x3e47a727	0.19497357
139	0xbe2fbc4b	-0.17161672
140	0xbea99847	-0.3312399
141	0xbcdad177	-0.026711209
142	0x3d7cb955	0.061700184
143	0xba1104ad	-0.0005532008
144	0x3baa14fb	0.0051904893
145	0xbdbfa77f	-0.09358119
146	0xbe559231	-0.20856549
147	0xbdf419e4	-0.11919001
148	0xbc3d209c	-0.011543419
149	0xbcc3425f	-0.02383536
150	0xbcbd3307	-0.02309562
151	0x3e8ddbeb	0.27706847
152	0xbe623b9b	-0.2209305
153	0x3980c123	0.0002455796
154	0xbdb34c39	-0.08754773
155	0x3e9352f2	0.2877422
156	0x3e8e4163	0.2778426
157	0x3e85fb94	0.261685
158	0xbe22d4f8	-0.15901554
159	0xbbd4e510	-0.006497033
160	0xbdf02b86	-0.117270514
161	0x3e135c4d	0.14390679
162	0x3d81e5c5	0.06342653
163	0xbe29d625	-0.16585596
164	0xbd6d0d67	-0.05787411
165	0x3e551471	0.20808579
166	0x3d975c25	0.07390622
167	0x3edb5096	0.4283492
168	0x3af3fe12	0.0018615148
169	0xbcf3dd7d	-0.0297687
170	0x3e5f845a	0.21827832
171	0xbe1bcd94	-0.1521514
172	0xbe8a890f	-0.27057692
173	0xbd3ddaa5	-0.046351094
174	0x3e6808ee	0.22659656
175	0x3d3fb6d7	0.04680523
176	0xbe04dd8f	-0.12975143
177	0xb94e409c	-0.0001966976
178	0xbe18357b	-0.14864151
179	0xb9c30036	-0.00037193456
180	0x3e285c4e	0.16441461
181	0x3c9990a9	0.018745737
182	0x3c9503a8	0.01819022
183	0x3a340821	0.00068676664
184	0xbd8fb468	-0.07016832
185	0xbe32050b	-0.17384736
186	0xbe18a18e	-0.14905378
187	0x3c51cdd8	0.012805425
188	0xbee9fe13	-0.45701656
189	0x3c84311c	0.016136698
190	0xbce78ed8	-0.028266355
191	0x3e76ef7d	0.24114795
192	0x3e298529	0.16554703
193	0x3e9ea9e3	0.30988988
194	0xbd4bd8b9	-0.04976723
195	0xbdda1806	-0.10649113
196	0xbe9ba59b	-0.30399784
197	0xbdf6f47b	-0.1205835
198	0xbe018048	-0.12646592
199	0x3dcffdec	0.10155854
200	0x3e12e0d2	0.14343575
201	0xbe2397fd	-0.15975948
202	0xbe217202	-0.15766147
203	0xb9a4febd	-0.00031470312
204	0x3e558510	0.2085154
205	0xbda76b31	-0.08174742
206	0x3df13967	0.11778527
207	0xbdaa0e63	-0.08303525
208	0x3d642366	0.05569782
209	0x3dc9feb5	0.09863035
210	0xbd8c597c	-0.06853005
211	0x3d16f085	0.03685047
212	0xbd4e2a54	-0.050333336
213	0x3e4448d6	0.1916841
214	0x3e8769ef	0.26448008
215	0xbe8335ed	-0.2562708
216	0xbb899f48	-0.004199896
217	0xbe1179c2	-0.14206603
218	0x3b276f59	0.0025548546
219	0xbdb4e59b	-0.08832856
220	0x3def40bf	0.11682271
221	0xbddc7976	-0.10765354
222	0xbd9d28e4	-0.07673815
223	0x3be8ef53	0.007108608
224	0x3e30b71c	0.1725735
225	0x3e861d22	0.26194102
226	0xbe1f96bf	-0.15584849
227	0xba500965	-0.000793597
228	0x3d9fdc3d	0.07805679
229	0x3986346f	0.00025597538
230	0xbdd94b9f	-0.10610127
231	0xbc790a13	-0.015200156
232	0x3aac92f5	0.0013166355
233	0x3a2b2d01	0.00065298384
234	0xbe4ef1ed	-0.20209475
235	0x3e59202e	0.21203682
236	0x3e5e4ca3	0.21708922
237	0x3d7df6cb	0.06200294
238	0xbd1eef83	-0.038802635
239	0x3cedf30c	0.029046558
240	0xbd8daea3	-0.06918075
241	0x3b28a59f	0.0025733483
242	0x3b3ff733	0.002929163
243	0x3d300773	0.042975854
244	0x3e0948a6	0.1340662
245	0x3e12d8b5	0.1434048
246	0xbddae42f	-0.10688054
247	0x3dcc0412	0.09961714
248	0x3d8ac81b	0.06776448
249	0x3caec074	0.021332003
250	0xbea6e133	-0.32593688
251	0x3df6b031	0.120453246
252	0xbd8f7e29	-0.07006485
253	0xb87efa3e	-6.0791375e-05
254	0xbe437e10	-0.19091058
255	0x3e083ad3	0.1330369

bias f4 [50]
0	0xbd57236a	-0.052524008
1	0xbd188ad2	-0.037241764
2	0xbd90bf35	-0.0706772
3	0x3dbebacd	0.09312973
4	0x3c63b590	0.013898268
5	0xbd09406a	-0.033508696
6	0xbd8c6bf3	-0.06856527
7	0x3b131604	0.0022443542
8	0xbd60b86a	-0.05486337
9	0xbe387e33	-0.18016891
10	0x3c6a33a3	0.014294538
11	0x3d040ad0	0.032236874
12	0xbd8b93f5	-0.0681533
13	0x3c39608e	0.011314524
14	0x3dc4f7e7	0.09617596
15	0xbd52ec11	-0.05149466
16	0x3c516a6a	0.012781719
17	0x3ce1cf6c	0.027564727
18	0xbaae5d78	-0.0013303002
19	0xbdc887ad	-0.09791503
20	0xbd777aa4	-0.060419694
21	0xbda48416	-0.08033006
22	0xbca30cb7	-0.019903524
23	0x3dd9400e	0.106079206
24	0x3c9a4a30	0.018834203
25	0xbd162661	-0.036657695
26	0x3dcce216	0.1000406
27	0x3ca7f7d0	0.020503908
28	0x3dff8091	0.12475694
29	0x3dae5a32	0.08513297
30	0x3d722908	0.05912116
31	0x3d68d2ac	0.056841537
32	0x3dfdb6aa	0.12388356
33	0x3d09ab09	0.033610377
34	0x3d25dd05	0.040493984
35	0x3b043f68	0.0020179395
36	0x3dae6e98	0.08517188
37	0x3d93b7e4	0.07212809
38	0xbc9712ac	-0.01844152
39	0x3d412b78	0.047160596
40	0x3da6b9ff	0.08140945
41	0xbd0dcd0d	-0.03461938
42	0x3d89dcc3	0.0673156
43	0xbc3c3c09	-0.011488923
44	0x3c6a586e	0.01430331
45	0x3b39379f	0.0028261913
46	0x3db9a1be	0.09064053
47	0xbc14b5a4	-0.00907651
48	0xbc9935b8	-0.018702373
49	0x3c76125d	0.015019027

weight f4 [87, 50]
0	0xbce39d55	-0.027784983
1	0x3d2fdefc	0.042937264
2	0xbd85c0c3	-0.06530907
3	0xbd0b1d9f	-0.033963796
4	0x3dcf4225	0.10120038
5	0xbeb9d6bf	-0.3629665
6	0xbd9d44d4	-0.076791435
7	0xbca5c48b	-0.02023532
8	0x3bc5764c	0.006026065
9	0x3e6286a8	0.2212168
10	0xbd78a85c	-0.060707435
11	0x3d792573	0.06082673
12	0xbd551c9e	-0.052029245
13	0xbd97cbda	-0.074119285
14	0xbcc9d185	-0.02463604
15	0x3e0f428b	0.13990228
16	0x3db94f5b	0.09048339
17	0xbd7c7aac	-0.061640427
18	0x3de5c550	0.11219275
19	0xbd98c400	-0.07459259
20	0x3d400908	0.046883613
21	0xbe6264a0	-0.22108698
22	0x3d5b167d	0.053488243
23	0xbd4aa76b	-0.04947607
24	0xbd8499ca	-0.064746454
25	0xbd559997	-0.052148428
26	0xbe189201	-0.14899446
27	0xbe09b576	-0.13448128
28	0xbd47d274	-0.048784688
29	0x3d6ca366	0.057773016
30	0xbd81ff81	-0.06347562
31	0x3e160a91	0.14652468
32	0x3d909981	0.070605285
33	0xbd9cffcd	-0.076659776
34	0x3e408fd3	0.18804865
35	0xbdfb8118	-0.12280482
36	0xbe00e567	-0.1258751
37	0xbdd93b50	-0.10607016
38	0x3c2e289a	0.010629797
39	0x3c1a2d0d	0.009410155
40	0xbdb0408f	-0.086060636
41	0x3d002370	0.031283796
42	0xbe341da5	-0.17589433
43	0x3da711f9	0.08157725
44	0x3d494f3d	0.049147833
45	0x3e00c738	0.12575996
46	0x3e49709c	0.19671863
47	0x3cf92a70	0.030415744
48	0xbcd1cea2	-0.025611226
49	0xbcb02103	-0.021500116
50	0x3dbc8248	0.09204537
51	0x3c8da165	0.017288873
52	0xbe908348	-0.2822516
53	0x3e0ef6e2	0.13961366
54	0xbe34d415	-0.17659028
55	0x3ca30968	0.019901946
56	0xbd16ee54	-0.03684838
57	0x3e4f7462	0.2025924
58	0xbd36ec33	-0.04465885
59	0xbd265046	-0.0406039
60	0xbda1f7d0	-0.079085946
61	0xbc6fba87	-0.014631874
62	0xbe9e9530	-0.30973196
63	0x3cc00c35	0.02344332
64	0xbbe7d817	-0.0070753205
65	0x3d5296ac	0.051413223
66	0xbd1ecbe3	-0.03876866
67	0x3cda28ab	0.02663072
68	0x3dc98685	0.09840111
69	0x3d8ab44a	0.06772669
70	0xbe673181	-0.22577478
71	0x3d9020ac	0.07037482
72	0x3c87964c	0.01655116
73	0x3db42a34	0.08797112
74	0x3da78371	0.08179367
75	0x3d865383	0.06558897
76	0xbcce3440	-0.0251714
77	0x3c3bfc2d	0.011473698
78	0xbdc9f89a	-0.0986187
79	0xbdcb9e59	-0.09942312
80	0xbd93fd7a	-0.07226081
81	0x3c4ecf7e	0.012622712
82	0x3d8a94e7	0.06766682
83	0x3dde37b3	0.108504675
84	0x3e0cac50	0.13737607
85	0x3e216ee0	0.15764952
86	0x3e140525	0.14455087
87	0x3ca3e21e	0.020005282
88	0x3ddaddbe	0.10686825
89	0x3e407b5f	0.18797062
90	0x3d69b1f3	0.05705447
91	0x3d1d029d	0.03833257
92	0x3e15f1d0	0.14643025
93	0xbdb02999	-0.08601684
94	0xbd721f48	-0.059111863
95	0xbd63bea9	-0.05560175
96	0x3a234ba7	0.00062292296
97	0xbdfe1018	-0.124054134
98	0x3de72f32	0.11288299
99	0xbdc0de22	-0.094173685
100	0xbe4c6ef1	-0.19964196
101	0xbd38f180	-0.045152187
102	0x3e480afb	0.19535439
103	0x3df7000d	0.120605566
104	0x3d64a4c8	0.05582121
105	0x3d5e7ead	0.054320026
106	0x3df45910	0.1193105
107	0xbd106eb7	-0.035261836
108	0xbdbafa75	-0.09129802
109	0xbc0cd936	-0.008596709
110	0xbe4b07d9	-0.19827212
111	0xbd4cf03b	-0.05003379
112	0x3e67087d	0.22561832
113	0x3d599b5a	0.05312667
114	0x3da6fdb3	0.08153858
115	0xbcef84e6	-0.029238176
116	0xbd878bbd	-0.0661845
117	0xbe88ee49	-0.26744297
118	0x3dc7b217	0.09750765
119	0x3c94e3e7	0.018175079
120	0xbe45e3ec	-0.19325227
121	0xbe688076	-0.22705254
122	0xbd5a3d4c	-0.053281114
123	0x3da6b725	0.08140401
124	0xbdba3bb8	-0.09093422
125	0x3ea1803a	0.31543142
126	0x3d83abf3	0.06429281
127	0x3d062251	0.03274757
128	0x3cbe44a4	0.02322609
129	0xbd2e5078	-0.04255721
130	0x3e0ba720	0.13637972
131	0xbe587413	-0.21138029
132	0xbe08c4cb	-0.1335632
133	0x3de2752d	0.11057506
134	0x3ce85565	0.028361032
135	0x3e67a3b1	0.22621037
136	0xbea298f1	-0.3175731
137	0x3db91414	0.09037033
138	0xbebf997a	-0.3742178
139	0xbd7d19c8	-0.061792165
140	0x3dff1143	0.12454464
141	0xbd7db7cf	-0.06194287
142	0xbcfa35a1	-0.03054315
143	0xbd4d0b18	-0.050059408
144	0xbd5ee267	-0.054415133
145	0x3e3c9456	0.1841596
146	0xbdddc6fd	-0.1082897
147	0xbd0b7be9	-0.034053717
148	0xbd059302	-0.0326109
149	0x3dc331e3	0.095309995
150	0xbdf71404	-0.120643646
151	0xbc9a2672	-0.01881716
152	0x3e1b3dec	0.1516034
153	0x3e518b7b	0.20463364
154	0x3d992e5f	0.07479548
155	0xbdbe4a6c	-0.092915386
156	0x3d00fc6f	0.03149074
157	0x3da299cf	0.07939493
158	0xbd70a604	-0.058752075
159	0xbe6af7ce	-0.22946092
160	0x3e3bdae4	0.18345219
161	0xbe592464	-0.21205288
162	0xbe196f8d	-0.1498396
163	0xbdf940b8	-0.12170547
164	0xbe5235bd	-0.20528312
165	0xbe0c1cb4	-0.13682824
166	0xbe1521ce	-0.14563677
167	0x3e732565	0.23744734
168	0x3c47391c	0.012159612
169	0xbd45371f	-0.04814827
170	0xbd4d32ff	-0.05009746
171	0x3d92b1ab	0.07162794
172	0x3e2599d8	0.16171968
173	0x3db136af	0.08653008
174	0x3e1efc89	0.15526022
175	0xbd39b2a1	-0.04533637
176	0xbd56c90c	-0.052437827
177	0x3df8f2e0	0.121557
178	0xbdfaa474	-0.12238398
179	0x3da1a9ff	0.07893752
180	0xbd95b177	-0.07309239
181	0xbe1f8a05	-0.15579994
182	0x3c81bfdb	0.015838554
183	0xbe29cf87	-0.16583072
184	0xbd310e03	-0.043226253
185	0x3d024fae	0.03181427
186	0x3d9bf6ce	0.07615434
187	0x3de85c72	0.113457575
188	0x3dcf9618	0.1013605
189	0x3cf90991	0.03040007
190	0xbe44e479	-0.1922778
191	0x3df671ea	0.12033446
192	0xbe586256	-0.21131262
193	0xbd4c5512	-0.049885817
194	0xbd9bc30f	-0.07605564
195	0x3ca6706c	0.020317279
196	0xbe0cb852	-0.13742188
197	0xbe317198	-0.17328489
198	0x3e6d6aa6	0.23185214
199	0xbdcf74bf	-0.101296894
200	0x3aefcbf3	0.0018295035
201	0xbe7cc640	-0.24685001
202	0x3d947018	0.07247943
203	0xbc2ceb6a	-0.010554174
204	0xbcf750ce	-0.030189898
205	0x3e4af8e6	0.1982151
206	0xbe003f45	-0.12524135
207	0xbdd579ad	-0.104235984
208	0xbdd8bec3	-0.1058326
209	0xbe0aab19	-0.13541831
210	0xbe0aa0f5	-0.13537963
211	0xbba31171	-0.0049764444
212	0xbd851ca0	-0.064996004
213	0xbe809186	-0.25111026
214	0xba8b906b	-0.0010647898
215	0x3d871be4	0.065971166
216	0x3cfa656e	0.030565944
217	0xbdc6e39d	-0.097113825
218	0x3d90d850	0.07072508
219	0xbd24d646	-0.04024341
220	0x3e8f68c3	0.28009614
221	0x3d035a92	0.032068796
222	0xbe27d2d8	-0.16389024
223	0xbe3d34ce	-0.18477175
224	0x3daa318d	0.08310232
225	0xbca72dbe	-0.020407554
226	0xbd2adadb	-0.041712623
227	0x3dc94b43	0.09828808
228	0xbdb919c1	-0.09038115
229	0x3d8daf1d	0.06918166
230	0x3d019bca	0.031642713
231	0xbdeaf18a	-0.11471851
232	0x3e307419	0.17231788
233	0xbdf8f387	-0.12155824
234	0x3e239e35	0.1597832
235	0x3dfaba8c	0.12242612
236	0xbc5fad29	-0.013652124
237	0x3e6b6011	0.22985865
238	0xbc719850	-0.014745787
239	0x3e06c62d	0.13161536
240	0xbd02a470	-0.0318951
241	0xbb3f0bee	-0.0029151398
242	0xbded0ebe	-0.115750775
243	0xbdeadb08	-0.11467558
244	0xbd9b5e4d	-0.07586346
245	0xbe34c262	-0.17652276
246	0xbe1830ef	-0.14862417
247	0xbe57ae02	-0.21062472
248	0x3d833d35	0.06408159
249	0x3e395f53	0.1810277
250	0x3cef2830	0.029193968
251	0x3ecd6aac	0.40120447
252	0x3e287049	0.16449083
253	0xbdc6c50c	-0.097055525
254	0xbd47f998	-0.048822016
255	0x3e7a5a03	0.24448399

bias f4 [87]
0	0xbe0de122	-0.13855413
1	0x3dd9388f	0.10606491
2	0xbdb5d816	-0.08879106
3	0xbd21275a	-0.03934417
4	0x3df5627f	0.11981677
5	0xbe15771d	-0.1459622
6	0xbd881dac	-0.066462845
7	0xbe586fd3	-0.21136408
8	0x3df0e1f7	0.117618494
9	0xbde5c388	-0.11218935
10	0x3d6009ba	0.054696776
11	0xbe17222f	-0.14759134
12	0xbe738623	-0.23781638
13	0xbdea97d6	-0.11454742
14	0xbd7c6553	-0.061620068
15	0xbe1d3e48	-0.1535579
16	0x3d69c9ba	0.057077147
17	0xbd98e25d	-0.0746505
18	0x3d2ced19	0.0422183
19	0x3d8fd167	0.07022362
20	0xbbc0f7ab	-0.0058888993
21	0x3e4ba694	0.19887763
22	0x3da1e86b	0.07905658
23	0xbe744bf8	-0.23857105
24	0xbe031832	-0.12802199
25	0x3e4dfa37	0.2011498
26	0x3d2bafff	0.04191589
27	0x3cdd1099	0.026985453
28	0x3e06422f	0.13111185
29	0x3db7a14c	0.08966312
30	0xbca775f5	-0.020441988
31	0x3d234818	0.039863676
32	0xbd555cd0	-0.052090466
33	0x3d668b89	0.056285415
34	0xbe21f45d	-0.15815873
35	0x3d1f3162	0.038865454
36	0x3da4101c	0.08010885
37	0x3d4120b8	0.047150344
38	0xbd230861	-0.039802913
39	0xbd8324d5	-0.064035095
40	0xbc325d8d	-0.010886562
41	0x3caeb8e4	0.021328397
42	0x3e02a48a	0.12758079
43	0xbe0bc7cf	-0.1365044
44	0x3dc40740	0.09571695
45	0xbe044e8f	-0.12920593
46	0x3d289063	0.041153323
47	0x3db98810	0.09059155
48	0xbd7c2b44	-0.0615647
49	0x3e2d4015	0.16918977
50	0x3e28c4f4	0.16481382
51	0xbd925e17	-0.071468525
52	0x3d80ab08	0.062826216
53	0x3d9bc4a7	0.07605868
54	0xbd4dcf59	-0.05024657
55	0xbdff319e	-0.124606356
56	0x3c3b6919	0.011438631
57	0x3e726798	0.2367233
58	0xbe2ed8e1	-0.1707492
59	0xbc4845d1	-0.012223677
60	0xbcdfcf51	-0.027320536
61	0x3daa7069	0.08322222
62	0x3e338842	0.17532447
63	0x3e3c3c64	0.18382412
64	0x3acdbec5	0.0015697113
65	0x3dbf6a6f	0.093464725
66	0xbdd0e141	-0.10199214
67	0x3da36c6c	0.07979664
68	0x3d054d88	0.032544643
69	0x3e3429f2	0.17594126
70	0xbbe23772	-0.0069035823
71	0x3d3e6738	0.046485156
72	0x3daabe40	0.083370686
73	0xbddd8ea2	-0.10818221
74	0x3d0560aa	0.03256289
75	0xbdcc8965	-0.099871434
76	0x3d9d43a9	0.07678921
77	0xbc0893c2	-0.008336009
78	0x3e8f2ed4	0.27965415
79	0x3e41a8ab	0.18911998
80	0xbcc13984	-0.023586996
81	0x3d8a567d	0.067547776
82	0xbe60bd97	-0.21947323
83	0x3c5ee156	0.013603529
84	0x3db3c203	0.08777239
85	0x3d8fe6bc	0.07026431
86	0x3da7028a	0.08154781

bias f4 [5]
0	0xbbf706fb	-0.007538674
1	0x3c9370ff	0.017998217
2	0xbcfec8ed	-0.031101668
3	0x3ca1eb33	0.019765472
4	0x3cc0820c	0.023499511

lower_entries f4 [10]
0	0x3c401835	0.011724521
1	0xbc5cda74	-0.013479818
2	0xbc833c8a	-0.016020078
3	0x3be1f1a7	0.0068952623
4	0xbb7e2ae2	-0.0038782884
5	0x3c0e9335	0.008702089
6	0x3b87cd80	0.0041443706
7	0xb9e041f1	-0.0004277374
8	0xba73a4da	-0.0009294279
9	0x3aed31f6	0.0018096555

upper_entries f4 [10]
0	0xbc08b8be	-0.008344827
1	0x3ae7a448	0.0017672861
2	0x3c85473a	0.016269315
3	0xbc78fd80	-0.015197158
4	0xbbc6b01e	-0.0060634753
5	0xbb155bba	-0.002279027
6	0x3a1c19e0	0.00059547834
7	0xbb57a1e0	-0.0032902882
8	0xbc92c787	-0.017917408
9	0x3a1d8b7f	0.0006009861

unconstrained_upper_diag f4 [5]
0	0x3f04393f	0.5164985
1	0x3f05564b	0.520848
2	0x3f0acf71	0.5422278
3	0x3f00280c	0.50061107
4	0x3f06f61e	0.52719295

weight f4 [50, 3]
0	0xbef5418d	-0.47901574
1	0x3eadc5fd	0.33940116
2	0xbdb52e1f	-0.088466875
3	0x3f357430	0.70880413
4	0xbec2bff2	-0.38037068
5	0xbed57011	-0.41687062
6	0x3eb671ec	0.3563379
7	0xbe2afb8e	-0.16697523
8	0xbd9a2869	-0.07527239
9	0x3f0c2942	0.54750454
10	0xbe8c4eeb	-0.2740396
11	0xbeb2a87b	-0.34894165
12	0x3ea86db3	0.32896194
13	0xbf03e653	-0.5152332
14	0x3e9e41fa	0.3090971
15	0xbe79e178	-0.24402416
16	0xbcc59de5	-0.024123142
17	0x3df709b8	0.120624006
18	0x3e6203b2	0.22071722
19	0xbe8fbb88	-0.28072762
20	0xbf196781	-0.5992356
21	0x3f17fed7	0.5937323
22	0x3ee62f68	0.44958043
23	0x3f18184d	0.5941208
24	0x3e955c47	0.29171965
25	0xbebace9a	-0.3648575
26	0x3eb91153	0.3614603
27	0xbe8ae9a7	-0.27131388
28	0xbe86ce7a	-0.26329404
29	0x3e33e004	0.17565924
30	0xbe979685	-0.29607025
31	0xbec8842c	-0.3916334
32	0xbd91a726	-0.07111959
33	0xbea76c1d	-0.3269967
34	0x3eb88e7d	0.3604621
35	0x3ea1ffea	0.3164056
36	0x3ebe7c19	0.37204054
37	0xbee7fe5f	-0.45311257
38	0xbb87898c	-0.00413627
39	0x3cf5309c	0.029930405
40	0xbf282fbc	-0.65697837
41	0x3ea5b8e3	0.3236762
42	0xbe34bce2	-0.17650178
43	0x3f262c7a	0.64911616
44	0x3ec214d2	0.3790651
45	0x3ee20641	0.44145396
46	0x3f092b7a	0.53581965
47	0x3c9895c0	0.018626094
48	0x3ece52be	0.40297502
49	0xbdc6f58d	-0.09714804
50	0xbecef93b	-0.40424523
51	0x3ec0cb5d	0.37655154
52	0x3e56f5ae	0.20992157
53	0xbccf49e8	-0.025303796
54	0xbf2f8122	-0.68556416
55	0xbe1b91be	-0.15192315
56	0x3e840720	0.25786686
57	0xbe09855d	-0.1342978
58	0x3f02cde5	0.5109542
59	0xbd368f7d	-0.044570435
60	0x3eaa86a5	0.3330585
61	0x3ee7689d	0.45197
62	0x3ed7c20a	0.42140228
63	0x3ee7b0ed	0.4525217
64	0x3eaf885c	0.3428372
65	0xbe571073	-0.21002369
66	0x3dd65a71	0.10466469
67	0x3f34667c	0.7046888
68	0xbcb1b4aa	-0.021692593
69	0xbda429aa	-0.08015759
70	0x3f17e472	0.59332955
71	0x3f163de2	0.58688176
72	0xbf0b591d	-0.5443285
73	0x3f30c891	0.6905604
74	0x3f0cfa87	0.55069774
75	0xbde01e11	-0.10943235
76	0x3f1cdbfb	0.61273164
77	0xbe847a99	-0.25874785
78	0x3e90f16e	0.28309196
79	0x3dc7f0f5	0.09762756
80	0xbef19e97	-0.47191307
81	0x3e97c572	0.29642826
82	0xbeda5a0c	-0.42646825
83	0x3f3b4608	0.73153734
84	0x3ec5de86	0.38646334
85	0x3f405a36	0.7513765
86	0xbee2ba5d	-0.4428281
87	0x3e472e29	0.19451202
88	0xbe81117b	-0.2520865
89	0xbf0ccc6c	-0.54999423
90	0xbde21dbf	-0.1104083
91	0x3f369456	0.7132009
92	0xbe42c108	-0.19018948
93	0x3e80cbb0	0.251554
94	0xbe602bc9	-0.21891703
95	0x3e930761	0.28716567
96	0x3e72a036	0.23693928
97	0xbefe2a5d	-0.49641696
98	0xbf05603a	-0.52099955
99	0x3dd9a271	0.10626686
100	0xbdd8c67d	-0.10584734
101	0xbee6e0fe	-0.4509353
102	0xbf2b565c	-0.6692865
103	0xbd4bb9e4	-0.049737826
104	0xbdc84a13	-0.097797535
105	0x3cdf3bec	0.027250253
106	0xbe5bc385	-0.21461304
107	0xbea8e9c3	-0.32990846
108	0x3efc6cc8	0.49301744
109	0x3f107c7b	0.5643994
110	0xbe4ffa59	-0.20310344
111	0x3c592486	0.013253337
112	0xbd0d7a79	-0.034540627
113	0xbe97e993	-0.2967039
114	0xbedf499b	-0.43610844
115	0xbf084109	-0.53224236
116	0x3ed53422	0.41641337
117	0x3d5a183c	0.053245768
118	0x3e9e528a	0.30922347
119	0x3ea109f5	0.3145291
120	0xbef06af2	-0.46956593
121	0xbe172af2	-0.14762476
122	0xbf1d257e	-0.61385334
123	0xbe89f6f1	-0.26946214
124	0xbe9f7d3e	-0.3115024
125	0x3eaa306c	0.33240068
126	0x3f00e336	0.50346696
127	0xbea9d7dc	-0.331725
128	0x3f0ec46e	0.5576848
129	0xbeaef939	-0.34174517
130	0x3e028b82	0.1274853
131	0x3dbe0568	0.09278375
132	0xbc86fff4	-0.01647947
133	0x3e163fb0	0.14672732
134	0xbea58feb	-0.32336363
135	0xbecaca1f	-0.3960733
136	0x3e123fc4	0.14282137
137	0xbf131867	-0.5745911
138	0xbf390954	-0.7227986
139	0x3ee0f82e	0.43939346
140	0x3efe2bb6	0.49642724
141	0x3f01fa46	0.5077251
142	0x3ea7ac6c	0.32748735
143	0xbea07c99	-0.3134506
144	0xbe9646d9	-0.29350927
145	0x3f2a8fdb	0.66625756
146	0xbef34c63	-0.47519216
147	0x3ea057d9	0.31317022
148	0x3efdf13b	0.49598107
149	0xbd2691e5	-0.04066648
