sbibm/tasks/slcp/files/num_observation_9/proposal.pt (torch, 333865 bytes, 83 tensors)

weight f4 [50, 2]
0	0xbecf8a5e	-0.40535253
1	0xbe9a3010	-0.30114794
2	0x3eee225b	0.46510586
3	0x3ec695a2	0.38786036
4	0x3f11c212	0.5693675
5	0xbdb969cf	-0.090533845
6	0x3ea791c1	0.3272839
7	0x3efa9856	0.48944348
8	0xbe1fc5da	-0.15602818
9	0xbf13f8f4	-0.5780175
10	0xbd516dc6	-0.05113008
11	0xbe973817	-0.2953498
12	0x3f3283c2	0.69732296
13	0x3e35ca81	0.1775303
14	0x3de095b3	0.10966053
15	0x3e30d2b0	0.17267871
16	0x3e92233b	0.28542504
17	0x3ddcfb5b	0.1079013
18	0x3ebf5813	0.37371883
19	0xbeae1de8	-0.34007192
20	0x3ddcd0f7	0.107820444
21	0xbf1a0f6f	-0.601798
22	0x3e2b3916	0.16720995
23	0x3e87249f	0.26395127
24	0xbe675eb4	-0.2259472
25	0xbf02ac20	-0.5104389
26	0x3e9b526c	0.3033632
27	0xbe9208c5	-0.28522316
28	0x3f00ecfd	0.50361615
29	0x3dac8924	0.08424595
30	0xbd337934	-0.04381676
31	0xbe9c20ca	-0.30493766
32	0x3f2182de	0.6309031
33	0x3eec51ea	0.46156245
34	0x3ee1ca7a	0.4409979
35	0xbeaeb1f1	-0.34120134
36	0xbf1a5325	-0.6028312
37	0x3d4b5d4d	0.049649525
38	0xbec50197	-0.38477775
39	0xbf2cb30c	-0.67460704
40	0xbe966623	-0.293748
41	0xbe8c1f14	-0.2736746
42	0xbf125085	-0.57154113
43	0x3f12a297	0.5727934
44	0xbf195fab	-0.599116
45	0x3d1857eb	0.03719322
46	0x3e31d584	0.17366606
47	0xbe573e62	-0.21019891
48	0xbed525a2	-0.41630274
49	0xbf34aa0e	-0.7057198
50	0xbf050204	-0.519562
51	0x3f1c6b31	0.6110106
52	0x3e447442	0.19184974
53	0x3e9e780e	0.3095097
54	0xbe8b2784	-0.27178586
55	0xbd090665	-0.033453364
56	0x3df79ba7	0.12090235
57	0xbf067e6e	-0.52536666
58	0xbd73f66e	-0.059561186
59	0x3eb2536a	0.34829265
60	0xbe82b49a	-0.25528413
61	0x3f1a899a	0.60366213
62	0xbdfef203	-0.12448504
63	0xbf16b7b0	-0.58874035
64	0xbe026f6d	-0.12737818
65	0x3ef66039	0.48120287
66	0xbe631b7e	-0.22178456
67	0xbf08c35d	-0.534231
68	0xbee9442d	-0.45559826
69	0x3f14ea4a	0.58169997
70	0x3f040975	0.5157693
71	0xbefaf89e	-0.49017805
72	0x3f0bcabc	0.54606223
73	0xbe8313b5	-0.25600973
74	0xbdcdbc45	-0.10045675
75	0x3f029543	0.51009005
76	0x3eba2a87	0.3636057
77	0x3e8440e7	0.25830767
78	0xbeadadf0	-0.33921766
79	0x3d858c3c	0.06520888
80	0xbf21cac1	-0.632
81	0x3ebe1a11	0.37129262
82	0x3e62e11f	0.2215619
83	0x3c23b447	0.009991712
84	0xbd7076f6	-0.0587072
85	0xbf128179	-0.5722881
86	0xbf0ed980	-0.5580063
87	0xbef88874	-0.48541605
88	0xbf33840e	-0.70123374
89	0xbf002f72	-0.50072396
90	0xbe0857b3	-0.13314705
91	0xbf35ec02	-0.71063244
92	0xbf22a928	-0.6353936
93	0x3ed7c7f2	0.42144734
94	0x3ed7e85f	0.42169473
95	0xbe996c36	-0.2996537
96	0xbd1e5379	-0.038653824
97	0xbc524992	-0.012834923
98	0xbd22da19	-0.039758775
99	0xbe999cb9	-0.30002382

bias f4 [50]
0	0xbe6485ed	-0.22316714
1	0xbdd19f7b	-0.102354966
2	0x3f119057	0.5686087
3	0x3f133839	0.57507664
4	0xbef2ce57	-0.4742305
5	0xbe94e8a5	-0.29083744
6	0x3ea201c1	0.31641963
7	0xbeba255e	-0.36356634
8	0xbd947bb3	-0.07250156
9	0xbef1c180	-0.4721794
10	0x3f3e01d2	0.7422153
11	0x3f1d14d4	0.61359906
12	0xbe9a9816	-0.30194157
13	0x3e76b680	0.24093056
14	0xbf129786	-0.57262456
15	0xbf129982	-0.57265484
16	0xbe47d87a	-0.19516173
17	0x3f1b55a3	0.60677546
18	0xbd394bba	-0.045238234
19	0x3ea32428	0.31863523
20	0x3da30160	0.07959247
21	0xbf0f4314	-0.5596173
22	0x3f453b32	0.7704345
23	0xbe70ac3f	-0.23503207
24	0x3f2bced9	0.671125
25	0xbe54ca74	-0.20780355
26	0x3f371a5c	0.71524596
27	0x3ec4d46d	0.38443318
28	0x3f220284	0.6328509
29	0xbed655d7	-0.41862366
30	0x3f15b739	0.584827
31	0x3f05058d	0.51961595
32	0xbef95340	-0.48696327
33	0xbf0e47f8	-0.55578566
34	0x3e666215	0.22498353
35	0x3e87835e	0.26467413
36	0xbe96ab47	-0.2942755
37	0xbf16908a	-0.588143
38	0xbe87cae5	-0.26521984
39	0x3e7c49af	0.24637483
40	0xbeefa64f	-0.4680657
41	0x3f28ab02	0.6588594
42	0xbebd48ac	-0.36969507
43	0xbec43982	-0.38325125
44	0x3e8b74b7	0.27237484
45	0xbe9fe654	-0.31230414
46	0xbf126a16	-0.57193124
47	0x3f294de6	0.6613449
48	0xbf06e4ce	-0.5269288
49	0xbe4559a8	-0.19272482

weight f4 [50, 50]
0	0xbda062f7	-0.07831376
1	0x3c438df0	0.011935696
2	0x3d48555f	0.04890954
3	0xbdc09f95	-0.09405438
4	0x3d078eeb	0.03309528
5	0x3e55f374	0.20893651
6	0xbde57df5	-0.11205665
7	0x3e097548	0.13423645
8	0x3d7e7c87	0.062130477
9	0x3e155d20	0.14586306
10	0xbd699a45	-0.05703189
11	0xbce8ca6c	-0.028416835
12	0x3e3c6036	0.18396077
13	0x3d9c5874	0.076340586
14	0xbdf18461	-0.117928274
15	0xbed6b678	-0.41936088
16	0x3d9f15d5	0.07767836
17	0x3e2c69cc	0.16837233
18	0x3dc339d8	0.09532517
19	0xbde78c22	-0.11306025
20	0x3dc9e77e	0.09858607
21	0x3b3dc12c	0.002895425
22	0xbd5d0b9c	-0.05396615
23	0xbd2f831a	-0.042849638
24	0x3cdbbb46	0.026822697
25	0x3d310a2e	0.0432226
26	0xbcf9c311	-0.030488523
27	0xbde072b9	-0.109593816
28	0x3e35505f	0.1770644
29	0x3de7a40e	0.11310588
30	0x3e00a8b5	0.12564357
31	0xbd788acb	-0.06067924
32	0x3e525610	0.20540643
33	0xbdb2c392	-0.08728708
34	0x3de56de2	0.11202599
35	0x3d802e06	0.06258778
36	0x3e41a950	0.18912244
37	0x3e0222b4	0.1270855
38	0x3da12262	0.07867886
39	0xbdf3848e	-0.11890517
40	0x3e2dde94	0.16979438
41	0x3c468e68	0.012118913
42	0x3d79bbab	0.06096999
43	0xbe158a4a	-0.14603534
44	0xbdca5a47	-0.098805
45	0x3dc6a80d	0.09700022
46	0x3ada0cbb	0.0016635874
47	0xbc63d6c6	-0.013906186
48	0xbd6a01d7	-0.05713066
49	0x3de2ec23	0.11080196
50	0x3e421382	0.18952754
51	0x3e075982	0.13217738
52	0xbd6a2999	-0.057168577
53	0xbd87b3b7	-0.06626075
54	0xbd09e38e	-0.03366428
55	0x3d9f7bc0	0.07787275
56	0x3dcccd44	0.10000089
57	0xbe9383db	-0.28811535
58	0x3c93372d	0.017970646
59	0xbb977d44	-0.004623087
60	0xbdd288a0	-0.102799654
61	0xbe3e32b7	-0.18574034
62	0x3df73914	0.12071434
63	0xbccc9f81	-0.024978401
64	0x3d373a9d	0.044733632
65	0xbeaf2dda	-0.3421467
66	0x3e22f49a	0.1591362
67	0xbce74848	-0.028232709
68	0x3e1d03cc	0.1533348
69	0x3dbf0f3a	0.09329076
70	0x3defe86f	0.11714255
71	0x3d2447a9	0.040107403
72	0x3ae80368	0.001770121
73	0xbe90ba09	-0.28266934
74	0xbe05d6b9	-0.13070191
75	0x3e3f6bd8	0.18693483
76	0x3d8cd977	0.068774156
77	0xbdba07ee	-0.09083544
78	0xbd35235b	-0.04422317
79	0x3e009766	0.12557754
80	0xbcebb807	-0.028774275
81	0x3d1509a7	0.03638616
82	0x3ae128bb	0.0017178276
83	0x3e3319fc	0.17490381
84	0xbd1f85b9	-0.038945887
85	0x3de00ca5	0.10939912
86	0x3e2e0f1e	0.16997954
87	0x3bd3493a	0.0064479383
88	0x3dec7ef8	0.11547655
89	0xbd79d71a	-0.060996152
90	0x3d80d68b	0.06290921
91	0xbd93ada1	-0.072108515
92	0x3c827ed4	0.015929617
93	0x3e46ec5d	0.19426103
94	0x3dac2dc2	0.08407165
95	0xbc094ab9	-0.008379632
96	0x3d71c6b4	0.05902739
97	0x3e051934	0.12997895
98	0x3e0e434d	0.1389286
99	0x3dc9618d	0.098330595
100	0x3c9db338	0.019250497
101	0x3dd3adcd	0.10335884
102	0x3df48644	0.11939672
103	0xbdbe5896	-0.0929424
104	0xbe1023bb	-0.1407613
105	0x3d5c9b82	0.05385924
106	0xbd86139f	-0.06546711
107	0xbe00a80b	-0.12564103
108	0x3dfbd6b0	0.12296808
109	0xbe987c1d	-0.2978219
110	0x3d10b3c4	0.035327688
111	0x3c6c172d	0.014409822
112	0xbd9b29eb	-0.075763546
113	0xbbf013ea	-0.0073265927
114	0xbc785b84	-0.015158538
115	0xbd0cb293	-0.03434999
116	0xbd03ff6d	-0.032226015
117	0x3d4dfd76	0.050290547
118	0xbd028de6	-0.031873606
119	0x3db3cefc	0.087797135
120	0xbe1aa972	-0.15103701
121	0x3e069a0c	0.13144702
122	0xbcab03a4	-0.02087576
123	0xbede94fd	-0.43473044
124	0xbdb6c2c0	-0.08923864
125	0x3d0cfa15	0.034418184
126	0x3d98f973	0.07469454
127	0x3deaff27	0.11474448
128	0x3dc697d4	0.09696928
129	0x3d91fdf3	0.07128515
130	0xbdbbba85	-0.09166435
131	0xbd7ca9bb	-0.061685305
132	0x3dbc9517	0.09208124
133	0x3dd7e8d9	0.10542459
134	0x3d3fe33e	0.046847574
135	0x3e1a028f	0.15040039
136	0xbe6da037	-0.23205648
137	0xbddae42c	-0.106880516
138	0x3b4ef59e	0.0031579505
139	0x3d81b9e3	0.06334283
140	0x3cdd164b	0.02698817
141	0x3bc1e755	0.0059174695
142	0xbc0ca3f6	-0.008584013
143	0xbd0e409d	-0.03472959
144	0x3ceaa5cf	0.028643517
145	0xbdc596e8	-0.09647924
146	0x3e516706	0.20449457
147	0x3e162c08	0.14665234
148	0xbc19dfdc	-0.009391751
149	0xbdc6af9f	-0.09701466
150	0x3e2f7ecb	0.17138211
151	0x3dc65f7b	0.0968618
152	0x3d37c583	0.044866096
153	0xbd10a477	-0.035313096
154	0x3e858731	0.26079705
155	0x3e7d2505	0.24721153
156	0xbd05769e	-0.032583825
157	0x3e54d033	0.20782547
158	0xbd80eb92	-0.062949315
159	0x3de570cd	0.11203156
160	0x3dfd5f36	0.12371676
161	0xbe1314e0	-0.14363432
162	0x3e51bdd8	0.20482576
163	0x3c3aea2e	0.011408372
164	0xbe565658	-0.20931375
165	0x3d96c4ef	0.07361781
166	0x3e3b7bcf	0.18308948
167	0xbd4b4dab	-0.049634617
168	0x3c77cbf0	0.015124306
169	0x3d010216	0.03149613
170	0x3cb7acb0	0.022421211
171	0x3e148854	0.1450513
172	0xbe400a64	-0.18753964
173	0x3d5e4811	0.054267947
174	0xbc2d980e	-0.010595335
175	0x3e6e4457	0.23268257
176	0xbe05ff6d	-0.13085718
177	0xbd96f14d	-0.07370243
178	0xbcf0c366	-0.029390048
179	0x3f0baf88	0.54564714
180	0x3d4b9fec	0.04971306
181	0xbcbb074c	-0.022830628
182	0x3e89f8a6	0.26947516
183	0x3e7ef988	0.24899876
184	0x3e5dd1f1	0.21662118
185	0x3dad9ad8	0.084768
186	0xbceecbc8	-0.029149905
187	0x3e597271	0.21235062
188	0x3e95b874	0.2924229
189	0xbdf1899d	-0.11793826
190	0x3be2e080	0.006923735
191	0xbdf4f9b1	-0.11961687
192	0x3de3b0c7	0.11117702
193	0x3ddebe42	0.108761325
194	0xbe052d68	-0.13005602
195	0x3df77dbe	0.1208453
196	0x3e57ee30	0.21086955
197	0xbdf1f608	-0.11814505
198	0xbae199a8	-0.0017211931
199	0x3d90f3d3	0.07077756
200	0x3de3b0d2	0.1111771
201	0x3cf75b80	0.030194998
202	0xbd55ceee	-0.052199297
203	0xbdb94c57	-0.09047764
204	0xbdcba852	-0.09944214
205	0xbdf517b1	-0.119674094
206	0xbd3954ad	-0.04524677
207	0xbddfb489	-0.10923106
208	0xbde7ffb0	-0.113280654
209	0x3cc2a4f8	0.023760304
210	0xbdc901b6	-0.098147795
211	0xbde7fe56	-0.113278076
212	0x3e054ff7	0.13018785
213	0xbdf12a10	-0.11775601
214	0x3c268aa7	0.010164893
215	0x3dba455b	0.0909526
216	0x3e0db826	0.13839778
217	0xbd652ec2	-0.055952795
218	0xbd51994c	-0.051171586
219	0xbda67d43	-0.081293605
220	0xbde1dc0e	-0.110283
221	0x3d650f8a	0.055923022
222	0x3c1b4fb2	0.00947945
223	0xbd8523e2	-0.06500985
224	0x3d755a91	0.059900824
225	0xbe03286f	-0.12808393
226	0xbdafb763	-0.085799
227	0xb8c37acc	-9.321197e-05
228	0x3ceb9dc4	0.028761752
229	0x3d810110	0.06299031
230	0xbe0bc65c	-0.13649887
231	0xbd0b95ae	-0.034078293
232	0xbd436b2c	-0.04770963
233	0xbdca9a7f	-0.09892749
234	0xbb858171	-0.0040742685
235	0xbdeb962f	-0.115032546
236	0x3c172342	0.009224715
237	0xbdeff2f8	-0.117162645
238	0x3de2d44f	0.11075651
239	0xbe039256	-0.12848791
240	0xbddc49c9	-0.10756261
241	0x3e03f41c	0.12886089
242	0xbd96263f	-0.073315136
243	0x3db80868	0.08985978
244	0xbd71cb2d	-0.059031654
245	0xbdbbe688	-0.0917483
246	0xbc8ea4a8	-0.017412499
247	0xbdccb313	-0.09995093
248	0x3da0bad0	0.07848132
249	0xbdf537f6	-0.11973564
250	0xbd22aef3	-0.039717626
251	0x3e41c56a	0.18922964
252	0x3d831ec5	0.06402353
253	0x3e4eff89	0.20214666
254	0xbdd904db	-0.10596629
255	0x3dd47d0d	0.10375414

bias f4 [50]
0	0xbe0064e4	-0.12538487
1	0x3c2a786b	0.010404686
2	0x3d877e0b	0.06615838
3	0x3d667a18	0.05626878
4	0xbaf95be8	-0.0019024583
5	0x3dd31a38	0.10307735
6	0x3dd655a0	0.104655504
7	0x3e3718ff	0.17880629
8	0x3d7cc506	0.061711334
9	0x3bd7043c	0.006561784
10	0x3c6d95c8	0.014501043
11	0xbe191f89	-0.14953436
12	0xbc7184a8	-0.0147411
13	0xbd1a9271	-0.037737314
14	0x3daf2314	0.085516125
15	0xbd2e57d0	-0.042564213
16	0xbded2bb5	-0.11580602
17	0xb89cb1e3	-7.471794e-05
18	0xbd1f5805	-0.0389023
19	0xbc6ecb12	-0.014574783
20	0x3d92a825	0.07160977
21	0x3ce7cd33	0.028296089
22	0xbc31b613	-0.0108466325
23	0x3e8baffc	0.27282703
24	0xbdc83918	-0.09776515
25	0x3d464c0f	0.04841238
26	0x3d04b95f	0.032403346
27	0x3e283145	0.16425045
28	0xbdcd1f05	-0.10015682
29	0xbda483a0	-0.08032918
30	0x3b94a6e8	0.0045364983
31	0x3deef499	0.11667747
32	0x3e0744a1	0.13209774
33	0xbdb307c8	-0.087417185
34	0xbd8b9751	-0.06815971
35	0xbde65c8b	-0.1124812
36	0x3dbc3f3f	0.09191751
37	0x3dc47dc5	0.09594301
38	0x3d9f25ca	0.077708796
39	0xbdfbef5b	-0.12301513
40	0x3d49820b	0.049196284
41	0xbe310812	-0.17288235
42	0xbce9a2bc	-0.02851998
43	0x3cbd9e97	0.02314691
44	0x3e51a88c	0.20474452
45	0xbdf366e3	-0.118848585
46	0xbd1ffb9e	-0.03905832
47	0xbdbf4edd	-0.09341214
48	0xbd8e0fee	-0.06936632
49	0xbe2dd974	-0.16977483

weight f4 [50, 50]
0	0xbd4b55dc	-0.04964243
1	0xbbb8f5e2	-0.005644546
2	0x3cc91760	0.024547279
3	0x3d88ca6f	0.06679236
4	0xb9227473	-0.00015492905
5	0xbe72f7e7	-0.2372738
6	0x3c7f0dad	0.015567225
7	0x3da2f7c2	0.07957412
8	0x3e0a3786	0.13497743
9	0x3bb67ce7	0.0055690887
10	0x3d08d3fa	0.03340528
11	0xbc3e37d0	-0.011609986
12	0x39564fd0	0.00020438363
13	0x3c223419	0.009900116
14	0x3a09bc19	0.0005254164
15	0x3d4457a5	0.047935147
16	0x3d9e646a	0.07733996
17	0xba2a9019	-0.00065064576
18	0x3ee90e8f	0.4551892
19	0x3dcb786c	0.09935078
20	0xbd9da707	-0.076978736
21	0x3d58faa3	0.0529734
22	0x3d86c859	0.06581182
23	0x3dc46802	0.095901504
24	0x3a5aef1b	0.00083516695
25	0x3d861689	0.06547267
26	0x3db80bda	0.089866355
27	0x3d943d93	0.07238307
28	0x3d9cd27c	0.07657334
29	0xbd0fb16e	-0.03508132
30	0xbde473a4	-0.11154869
31	0x3e02764c	0.12740439
32	0xbe8ec5bd	-0.27885237
33	0xbd11cf8e	-0.03559833
34	0x3e322b09	0.17399229
35	0x3e013ccb	0.12620847
36	0x3dbc95c2	0.092082515
37	0xbcbecc41	-0.023290755
38	0x3d555d5c	0.052090988
39	0x3d9eaef0	0.077482104
40	0x3dd90091	0.10595811
41	0x3d80777a	0.06272788
42	0xbcd8f7ca	-0.026485343
43	0xbcc0b4d0	-0.023523718
44	0x3dfe757a	0.124247506
45	0x3d855b06	0.06511502
46	0x3cc08eec	0.02350565
47	0x3c026b11	0.007960097
48	0xbb69d386	-0.0035679056
49	0xbd3a910c	-0.045548484
50	0x3db75bd6	0.08953063
51	0xbd17de8d	-0.037077475
52	0x3dd2ccdc	0.1029298
53	0xbc34391f	-0.010999947
54	0xb993f005	-0.00028216853
55	0x3e24f657	0.16109596
56	0x3babc57a	0.005242047
57	0x3c58da08	0.013235576
58	0xbe4dfc27	-0.2011572
59	0xbdb7f6d0	-0.089826226
60	0x3d6021e1	0.05471981
61	0xbd014a6a	-0.031565107
62	0xbd00cabc	-0.031443343
63	0x3dc0a0eb	0.09405693
64	0x3a2dcbc1	0.0006629788
65	0xbe202851	-0.1564038
66	0x3cfd384f	0.03091064
67	0xb6a91375	-5.0388576e-06
68	0xbe4969bd	-0.19669242
69	0x3dccb873	0.099961184
70	0x3c169e50	0.009193018
71	0x3d811dd0	0.063045144
72	0xbcec55f4	-0.02884958
73	0x3d20b14c	0.039231583
74	0x397b1148	0.00023943663
75	0x3de500a9	0.111817665
76	0xbc32e42b	-0.010918657
77	0xbc680c48	-0.014163084
78	0xbda6bd0f	-0.08141529
79	0xbd7e22a4	-0.062044755
80	0x3e283305	0.16425712
81	0xbd387ab0	-0.04503888
82	0x3dcc99e8	0.09990293
83	0x3d58f066	0.052963637
84	0xbcedb718	-0.02901797
85	0x3c1d12fd	0.009587047
86	0xbd0cb2c5	-0.034350175
87	0x3e177ffb	0.14794914
88	0x3cf1598c	0.029461645
89	0x3d256e69	0.0403885
90	0x3e0fc698	0.14040601
91	0xbd5910aa	-0.052994408
92	0x3d32e970	0.043679655
93	0x3d2da970	0.042397916
94	0xbe7c17de	-0.2461848
95	0x3d66735e	0.056262366
96	0x3cabde60	0.02098006
97	0x3e095a10	0.13413262
98	0x3dc96168	0.09833032
99	0x3c71054b	0.014710735
100	0x3cef492c	0.029209696
101	0x3d8513ce	0.06497918
102	0x3c334327	0.010941303
103	0x3dccd1c4	0.10000947
104	0x39b7084e	0.00034910667
105	0xbd001939	-0.031274054
106	0x3c9d5e4d	0.019210005
107	0x3c98c565	0.018648813
108	0x3dec8665	0.11549071
109	0x3dc9d3a3	0.098548196
110	0x3ce30352	0.027711544
111	0x3ca23eeb	0.019805392
112	0x3d396b50	0.045268357
113	0xbb256fdd	-0.0025243678
114	0xba4c94c1	-0.00078041485
115	0x3dcb079f	0.09913563
116	0xbc87820d	-0.016541505
117	0x3a074b00	0.0005161017
118	0xbd2d736d	-0.042346407
119	0xbbb08d0a	-0.005387907
120	0x3d96e2fb	0.07367512
121	0x3891b112	6.947121e-05
122	0x3c4037e8	0.011732079
123	0x3dda692b	0.106645904
124	0x39a2374c	0.00030940247
125	0xba562bb4	-0.00081699644
126	0x3d1b0dc8	0.03785494
127	0xbc930fd7	-0.017951889
128	0x3cd45dd3	0.025923645
129	0x3df28073	0.11840906
130	0x3db7cf25	0.089750566
131	0x3cc675c7	0.024226082
132	0x3c91f579	0.017817246
133	0x3cf428e7	0.02980466
134	0x3ca214a1	0.019785227
135	0x3cc82821	0.024433197
136	0xbbcf5a3c	-0.0063278954
137	0x3d184f81	0.037185196
138	0x3b87a853	0.004139939
139	0x3bb5a780	0.005543649
140	0xbc20465b	-0.009782399
141	0x3d9e0ce8	0.077173054
142	0x3d04fdb2	0.032468505
143	0x3cedcb69	0.029027658
144	0x3df9380c	0.12168893
145	0x3c374470	0.01118575
146	0x3c47e17d	0.012199757
147	0x3d03beb3	0.032164287
148	0x3cda7381	0.026666405
149	0x3dc14afc	0.0943813
150	0x3d14d6ca	0.03633765
151	0x3c44c632	0.012010144
152	0x3cf2a99f	0.029621897
153	0xbddd2d9f	-0.10799717
154	0x3a1bf229	0.00059488654
155	0x3de61138	0.11233753
156	0x3d231a4a	0.039819993
157	0x3d8e1e70	0.06939399
158	0xbbab1a41	-0.0052216356
159	0x3d5491c7	0.051896837
160	0xbc9675fa	-0.018366802
161	0xbd06cad9	-0.032908294
162	0xbd9d1ede	-0.07671903
163	0xbd152af2	-0.03641791
164	0xb7a588f6	-1.973331e-05
165	0xbcea607e	-0.028610464
166	0xba847441	-0.0010105447
167	0x3a821586	0.0009924627
168	0xbca20f8f	-0.01978281
169	0xbdb9cfec	-0.09072861
170	0xbd93b30b	-0.07211884
171	0x3c5a9170	0.013340339
172	0xbd68818a	-0.056764163
173	0x3d26f457	0.040760364
174	0x371ff1aa	9.533405e-06
175	0xbd4df711	-0.05028445
176	0x3b5d0e3d	0.003373041
177	0x3b8011d1	0.003908374
178	0x3d21aa07	0.03946879
179	0xbd2f554c	-0.042805955
180	0x3d57bf62	0.05267275
181	0x3bd628fe	0.0065356484
182	0x3df7db2e	0.12102352
183	0xbd0ddd3d	-0.034634817
184	0xbc21eb2a	-0.009882728
185	0xbd0d3b99	-0.034480665
186	0x3d4347b5	0.047675807
187	0x3dc0e28a	0.09418209
188	0xbbc4fe9a	-0.006011796
189	0xbd4f5b0d	-0.050623942
190	0xbd79ad54	-0.060956314
191	0xbe0717d4	-0.13192683
192	0x3bf79ecd	0.0075567723
193	0x3a89f1ea	0.0010524367
194	0x3c3a06f2	0.011354195
195	0xbd9e916a	-0.07742579
196	0xbbb4189e	-0.0054960987
197	0xbca553c6	-0.020181548
198	0x3c1134af	0.008862658
199	0x3d571c44	0.05251719
200	0x3ccc97b4	0.024974681
201	0x3d190c6f	0.037365373
202	0x3d05cc9b	0.03266583
203	0x3e2372dc	0.15961784
204	0xba763a9a	-0.00093928876
205	0x3cfed048	0.031105176
206	0x3d0081ec	0.031373903
207	0x3b1a61e8	0.0023556892
208	0x3cd64bc8	0.026159182
209	0x3e09d41c	0.1345982
210	0x3c6f45f7	0.014604083
211	0x3d79f8c3	0.061028253
212	0x3bc20df5	0.005922074
213	0x3d6f30a1	0.058395986
214	0xb893ea6f	-7.053173e-05
215	0xbd962ae6	-0.07332401
216	0x3b0031d7	0.0019560957
217	0x3a164c30	0.0005733399
218	0x3cdcd33f	0.026956199
219	0x3cb18c17	0.021673245
220	0xbd161492	-0.03664071
221	0x3d8ce260	0.06879115
222	0x3e2b2860	0.1671462
223	0xbe5ee828	-0.21768248
224	0xba0f8652	-0.00054750324
225	0x3df73751	0.12071098
226	0x3d9d51e8	0.07681638
227	0x3c547c55	0.012969096
228	0xbbed44fa	-0.0072408887
229	0x3c717a84	0.014738683
230	0x3c95a683	0.018267876
231	0x3ca805f3	0.02051065
232	0x3dcb5542	0.09928371
233	0x3d79b220	0.06096089
234	0x3d67e282	0.0566125
235	0x3cdeeaf0	0.027211636
236	0x3db11400	0.08646393
237	0x3cf17013	0.029472386
238	0x3e20f65d	0.1571898
239	0x3e133b0c	0.14377993
240	0x3d60ce37	0.05488416
241	0x3df98292	0.121831074
242	0x3d0862b1	0.033297244
243	0x3d803685	0.06260399
244	0xbd69aca1	-0.057049397
245	0x3d3ccb08	0.046092063
246	0x3cbf737a	0.023370493
247	0x3e13df36	0.14440617
248	0x3d3274f2	0.04356856
249	0x3df1a495	0.1179897
250	0x3d6971fe	0.056993477
251	0xbb5d8f9b	-0.003380752
252	0xbc8fd3f8	-0.01755713
253	0x3d8467aa	0.06465085
254	0xba1431e2	-0.0005653185
255	0x3d08c8c0	0.033394575

bias f4 [50]
0	0x3d2ab586	0.04167702
1	0x3c8884c3	0.016664868
2	0x3c8a945a	0.016916443
3	0x3d3b5dbe	0.045743696
4	0x3cbfe617	0.023425145
5	0xbcfbb45e	-0.030725654
6	0xbace9b17	-0.0015762773
7	0xbcb3d772	-0.021953318
8	0xbbf7b49c	-0.007559372
9	0xbd32b5ca	-0.0436304
10	0xbdbe2654	-0.09284654
11	0x3d15ba8a	0.03655485
12	0xbcca45b1	-0.024691435
13	0x3c522cc7	0.012828059
14	0xbd5cf579	-0.05394504
15	0xbcbe60b8	-0.023239478
16	0xbb297108	-0.0025854725
17	0xbb9a1fe7	-0.00470351
18	0x3cfadb34	0.030622102
19	0xba01217a	-0.0004925948
20	0x3d60d236	0.054887973
21	0x3c857147	0.016289366
22	0x3da0452b	0.07825693
23	0xbd3400a6	-0.04394593
24	0x3d6d2a5a	0.057901718
25	0x3ca4b3b3	0.020105219
26	0x3c53224c	0.012886595
27	0x3b61a93d	0.003443315
28	0xbc94c16a	-0.018158633
29	0x3c37cf2e	0.011218829
30	0xbd501cec	-0.050808832
31	0xbcdf6377	-0.027269108
32	0xbc26d506	-0.010182625
33	0xbd2d0095	-0.042236883
34	0xbafe9a54	-0.0019424655
35	0xbbd33e93	-0.0064466684
36	0xbd163ffd	-0.036682118
37	0xbc1dbd5d	-0.009627667
38	0xbd0286b3	-0.03186674
39	0x3bd4078f	0.0064706276
40	0x3d15d592	0.03658063
41	0xbc1c2ace	-0.00953169
42	0xbdac06ac	-0.0839971
43	0xbca4cf4b	-0.020118376
44	0x3da11f20	0.07867265
45	0xbc68a7a0	-0.014200121
46	0xbcca13b6	-0.024667602
47	0x3d22cde2	0.039747126
48	0xbe0b4084	-0.1359883
49	0x3d256c9d	0.040386785

weight f4 [50, 50]
0	0xbec90dce	-0.39268345
1	0x3e0873e6	0.13325462
2	0x3c894e7c	0.016761057
3	0x3e117141	0.14203359
4	0xbeaeab0d	-0.34114876
5	0xbe07ec3c	-0.1327371
6	0x3e8b43fc	0.27200305
7	0xbe046a4a	-0.12931171
8	0xbe4b84f5	-0.19874938
9	0xbd8816b6	-0.06644957
10	0x3b9263f4	0.0044674817
11	0x3d29ddba	0.04147122
12	0xbd262ab1	-0.040568057
13	0xbd499b76	-0.049220525
14	0x3de122d7	0.10992973
15	0xbd097bdf	-0.0335654
16	0x3d8cf0c9	0.068818636
17	0xbd384674	-0.044989064
18	0x3e8aaf72	0.2708698
19	0xbf6c1f16	-0.92234933
20	0xbe0e73ae	-0.13911316
21	0x3e0b207e	0.13586614
22	0xbb317633	-0.002707851
23	0xbee74996	-0.4517333
24	0xbf1ea983	-0.61977404
25	0x3cd1e97b	0.025624027
26	0x3cdd1b09	0.02699043
27	0x3ddc8ab3	0.10768642
28	0xbee2a91d	-0.44269648
29	0x3df8e0a7	0.12152224
30	0x3dc2ed2e	0.09517895
31	0xbe9105b9	-0.2832468
32	0x3be1910a	0.006883745
33	0x3e01a5ce	0.12660906
34	0x3e20316f	0.15643857
35	0xbdd278c2	-0.10276939
36	0x3dbf35d9	0.093364425
37	0xbda1be6e	-0.0789765
38	0xbe3ae795	-0.18252404
39	0x3e1a6db1	0.15080906
40	0xbd2480c9	-0.04016188
41	0x3d935ae6	0.07195072
42	0x3aba678f	0.0014221537
43	0x3f58d9e4	0.84707475
44	0xbe4bba8f	-0.19895385
45	0xbc560499	-0.01306262
46	0x3e1f9809	0.1558534
47	0x3c91177b	0.017711392
48	0xbf160bb1	-0.5861159
49	0xbf1485c3	-0.58016604
50	0xbe4d2eaa	-0.20037332
51	0x3f01c3ad	0.506892
52	0x3d1c1a26	0.038110875
53	0xbed105fc	-0.40824878
54	0x3dd6c29b	0.10486337
55	0xbd92c2a8	-0.07166034
56	0xbe309ceb	-0.1724736
57	0x3da04bb0	0.07826936
58	0xbd2853f1	-0.041095678
59	0xbd24a5fa	-0.04019735
60	0x3e681262	0.22663262
61	0xbe1db453	-0.1540082
62	0x3e2e19ce	0.17002031
63	0x3dac5019	0.08413715
64	0x3ea36206	0.31910723
65	0xbd72842a	-0.059208073
66	0xbaf51bf4	-0.0018700347
67	0x3e10b034	0.14129716
68	0xbd4a7c05	-0.04943468
69	0x3e01d831	0.12680127
70	0xbe2fa6df	-0.171535
71	0xbe0ddc86	-0.13853654
72	0x3d4e8226	0.050417088
73	0x37109d08	8.6196305e-06
74	0x3d9a0123	0.07519748
75	0xbdc4e3cb	-0.096137606
76	0xbe5dc52b	-0.21657245
77	0x3dbe8749	0.09303147
78	0x3cdf8d29	0.02728899
79	0xbf02ca4b	-0.51089925
80	0xbe8f8896	-0.28033894
81	0xbd931bd4	-0.07183042
82	0x3d838bcb	0.06423148
83	0xbe0ae078	-0.1356219
84	0xbe243256	-0.16034827
85	0x3cfeb99d	0.031094367
86	0x3f1f6376	0.6226114
87	0x3cc94d61	0.02457303
88	0x3e6ede8b	0.23327081
89	0xbdc68f5d	-0.09695313
90	0x3d19c38e	0.03754001
91	0x3a98f549	0.001166978
92	0x3d13a97e	0.036050312
93	0x3e3bbe12	0.18334225
94	0x3e1ebbbc	0.15501302
95	0x3d6ac93b	0.057320815
96	0x3e90ede3	0.28306493
97	0xbc9c7a3e	-0.019101258
98	0xbeeb639f	-0.45974442
99	0x3df49acc	0.11943588
100	0xbca22201	-0.019791605
101	0x3e0d9a50	0.13828397
102	0xbdc966ec	-0.09834084
103	0xbe0a2a4c	-0.13492697
104	0xbd36f85d	-0.04467045
105	0x3d14c05f	0.036316272
106	0xbd93d423	-0.07218196
107	0xbd4c5bbd	-0.049892176
108	0x3d3f60ba	0.046723105
109	0x3dcf9dc1	0.10137511
110	0x3b46e2cd	0.0030347586
111	0xbd740536	-0.059575282
112	0xbca4fac8	-0.020139113
113	0xbe02a752	-0.1275914
114	0x3d9f002e	0.07763706
115	0xbd69f91c	-0.057122335
116	0xbdb11792	-0.08647074
117	0xbd8846d4	-0.066541344
118	0xbdddab40	-0.10823679
119	0x3df6221f	0.12018227
120	0x3beaf25d	0.0071700052
121	0x3d3c3881	0.045952324
122	0xbd09eff6	-0.03367611
123	0x3c8a223c	0.016862027
124	0x3ce24b87	0.027623905
125	0x3db01afc	0.08598897
126	0xbd50ce38	-0.050977916
127	0x3e0e4b41	0.13895895
128	0xbd80047e	-0.06250857
129	0x3dad4c97	0.08461874
130	0xbdde039c	-0.10840532
131	0xbd8cf11d	-0.06881926
132	0x3d394c3a	0.04523871
133	0xbe0e7a0e	-0.13913748
134	0xbd1409b5	-0.03614207
135	0xbda5bf43	-0.08093121
136	0xbd55b9d7	-0.052179184
137	0x3d5146be	0.051092856
138	0xbe0960e3	-0.13415866
139	0xbd9640f5	-0.07336608
140	0x3d1675ae	0.03673332
141	0x3d8481c1	0.06470061
142	0x3a9df2a1	0.0012050458
143	0x3dad267c	0.08454606
144	0xbe06f95c	-0.1318106
145	0x3ded0ee3	0.11575105
146	0x3e08553d	0.13313766
147	0x3e0a5720	0.13509798
148	0xbdd254c1	-0.10270072
149	0xbc8e93b0	-0.017404407
150	0x3e955d85	0.29172912
151	0x3dccd8f4	0.10002318
152	0xbdd12396	-0.102118656
153	0xbdaac23d	-0.08337829
154	0xbe0e22fc	-0.13880533
155	0x3ddf452a	0.10901864
156	0xbc8c8824	-0.01715476
157	0x3b950a89	0.004548375
158	0x3e5d8c6f	0.21635602
159	0x3d728717	0.059210863
160	0x3c610468	0.013733961
161	0x3caccec5	0.02109469
162	0x3e072879	0.13199033
163	0xbe1ca3d4	-0.1529687
164	0x3d9891f0	0.0744971
165	0x3d8df6e2	0.06931855
166	0x3df2345d	0.11826394
167	0xbd48e3a6	-0.049045227
168	0xbda71dc2	-0.08159973
169	0xbd024067	-0.0317997
170	0x3e37aa71	0.17936112
171	0x3d693885	0.056938667
172	0xbcc1abc2	-0.02364147
173	0x3d28dd3e	0.041226618
174	0x3de3b0c1	0.111176975
175	0xbc1c6b13	-0.009547013
176	0x3e03b66c	0.12862557
177	0x3dbbf537	0.091776304
178	0xbd406022	-0.04696668
179	0xbce8cb48	-0.028417245
180	0xbdd65492	-0.10465349
181	0x3c8459c5	0.016156087
182	0xbcfb7139	-0.030693637
183	0xbe080fa9	-0.13287224
184	0x3ce5e1e2	0.02806181
185	0xbcc3223f	-0.02382004
186	0x3daa0e5f	0.08303522
187	0x3eb8cd49	0.3609412
188	0x3e18fb23	0.14939551
189	0x3d4ed3c6	0.05049493
190	0xba933d99	-0.0011233567
191	0x3deca630	0.11555135
192	0x3dfdab3a	0.123861745
193	0xbd65d43c	-0.056110606
194	0x3d76a170	0.060212553
195	0xbe45d70a	-0.19320312
196	0xbe4ea435	-0.20179828
197	0xbd9bd6fb	-0.07609364
198	0x3ea3726b	0.3192323
199	0xbd0ffc72	-0.03515286
200	0xbcc80bee	-0.024419751
201	0x3d27a4aa	0.04092852
202	0x3d03a0db	0.032135826
203	0x3d271ef8	0.04080102
204	0xbe0e9522	-0.13924077
205	0x3dccbf98	0.09997481
206	0xbafd0b78	-0.0019305786
207	0x3ceb1214	0.028695144
208	0x3d874b98	0.06606215
209	0xbdef7704	-0.11692622
210	0x3c8df2db	0.017327717
211	0x3d0d6284	0.03451778
212	0xbdf7dde7	-0.121028714
213	0xbaa6388f	-0.0012681651
214	0x3caafd45	0.020872721
215	0xbdb5c539	-0.08875508
216	0xbd040dce	-0.032239728
217	0xbdbebc82	-0.09313299
218	0xbe096ed6	-0.13421187
219	0xbd9d7db6	-0.07689993
220	0xbdfeb1f3	-0.12436285
221	0x3deb80a5	0.11499146
222	0xbdcf5b30	-0.101248145
223	0x3d96b640	0.0735898
224	0xbc135d23	-0.0089943735
225	0xbe06dd0c	-0.1317026
226	0xbe0225db	-0.12709753
227	0x3d26c705	0.040717144
228	0x3c8f69d6	0.017506521
229	0xbc725cf2	-0.014792668
230	0xbdabd1fc	-0.08389661
231	0xbd2acfd2	-0.0417021
232	0xbd2479a6	-0.040155075
233	0xbcb5cf66	-0.022193622
234	0xbd80c0be	-0.06286763
235	0xbe045c20	-0.12925768
236	0x3ce5ab0c	0.028035663
237	0x3d83fe29	0.064449616
238	0xbd9abb15	-0.07555214
239	0xbd13937f	-0.036029335
240	0x3e053b68	0.13010943
241	0x3c3719e6	0.011175608
242	0xbdb99d59	-0.09063215
243	0xbde8b16d	-0.11361966
244	0x3df1eaef	0.11812388
245	0x3ba84ffa	0.005136487
246	0x3d49cfb7	0.049270358
247	0xbd48652a	-0.048924603
248	0xbc0f6e5c	-0.008754339
249	0xbda63958	-0.08116406
250	0x3e260767	0.16213761
251	0x3e55d14a	0.20880619
252	0xbda76a7a	-0.08174606
253	0x3dec2eb5	0.11532346
254	0x3de3e667	0.1112793
255	0x3dc40abb	0.09572359

bias f4 [50]
0	0x3daf643c	0.0856404
1	0x3d8d697b	0.069048844
2	0xbe0732db	-0.13202994
3	0xbd87a0f2	-0.06622495
4	0xbba99b9c	-0.005176021
5	0xbd4a2f48	-0.049361497
6	0x3ca652e7	0.020303203
7	0xbe05c806	-0.13064584
8	0x3d1b2b03	0.037882816
9	0xbdafb1fe	-0.08578871
10	0xbbff47d5	-0.0077905455
11	0x3c0d74ec	0.008633833
12	0xbd8ed878	-0.06974882
13	0xbcd860f7	-0.026413424
14	0xbcb18b8a	-0.021672983
15	0xbd9ba536	-0.07599871
16	0x3e4ce4b2	0.20009115
17	0x3e01655e	0.12636325
18	0x3d174213	0.036928248
19	0x3d1cfc9c	0.038326845
20	0x3d3d0ef6	0.046156846
21	0xbd31e343	-0.043429624
22	0xbda0cd74	-0.07851687
23	0xbd8fb833	-0.07017555
24	0xbbc86add	-0.0061162547
25	0x3dba6966	0.091021344
26	0xbe23b2e5	-0.15986212
27	0x3d70ca43	0.05878664
28	0x3d95c245	0.073124446
29	0xbc8e6207	-0.017380727
30	0xbd075211	-0.03303725
31	0xbcad5728	-0.021159723
32	0x3dbf1215	0.09329621
33	0xbdc18616	-0.09449403
34	0x3cfe52ca	0.031045336
35	0xbd9b4da0	-0.07583165
36	0x3d1c8333	0.03821106
37	0x3e0e7f70	0.13915801
38	0x3e113901	0.14181902
39	0xbda4392d	-0.08018718
40	0xbc136c48	-0.008997984
41	0xbab526ed	-0.0013820805
42	0xbd00887b	-0.031380158
43	0xbb4b4db8	-0.0031021666
44	0xbd572aba	-0.05253098
45	0x3db31f3a	0.0874619
46	0xbdcef261	-0.10104824
47	0x3daac04f	0.08337461
48	0xbdc457a0	-0.09587026
49	0x3dd9ce13	0.10635009

weight f4 [50, 50]
0	0xbdf2fd30	-0.11864698
1	0xbdd002a2	-0.10156752
2	0xb9c9aaf6	-0.00038465083
3	0x3d25f9f5	0.04052158
4	0x3a792c53	0.0009505201
5	0xbce66625	-0.028124878
6	0x3e0112a2	0.12604764
7	0xbe00e348	-0.12586701
8	0xbdb2bfcb	-0.08727988
9	0x3cdb068d	0.026736522
10	0xbaf8a3eb	-0.001896975
11	0x3da942af	0.08264672
12	0xbd6b3063	-0.057419192
13	0xbc32f1e7	-0.010921932
14	0x3d2dbd7e	0.042417042
15	0x3d749665	0.05971374
16	0x3c727bd2	0.014800029
17	0xbd02d11e	-0.03193771
18	0x39956a1e	0.00028498558
19	0x3ca850b2	0.020546291
20	0x39e1d3d8	0.0004307318
21	0xbd2a9374	-0.04164453
22	0x3da68829	0.08131439
23	0x3b907107	0.004408005
24	0x3ceca5cd	0.028887654
25	0xbc7fced1	-0.015613274
26	0x3e61f1f9	0.22064961
27	0x3bf7a175	0.007557089
28	0xbd40d5ef	-0.047079023
29	0x3e5c9bbd	0.21543784
30	0xbcf9ab24	-0.030477114
31	0x3d94541f	0.07242607
32	0x3da3ffc8	0.08007771
33	0x3d66011c	0.0561534
34	0x3db19f2e	0.08672939
35	0x3d923d07	0.07140546
36	0x3d442931	0.047890846
37	0xbc8c0a31	-0.017094703
38	0x3d2d260a	0.042272605
39	0xbd826708	-0.06367308
40	0x3e10c9b5	0.14139445
41	0xbd1b902b	-0.037979286
42	0xbc19eb9d	-0.0093945535
43	0xbd3789ca	-0.04480914
44	0xbd92a0f6	-0.07159607
45	0xbc9c3faf	-0.019073335
46	0x3e29477c	0.16531175
47	0xbdc23c6c	-0.09484181
48	0x3d647e32	0.05578441
49	0xbe005aca	-0.12534633
50	0x3d7a9961	0.06118143
51	0x3e22c096	0.15893778
52	0xb7d350e6	-2.5190831e-05
53	0xbcce7211	-0.025200875
54	0x382470a4	3.920555e-05
55	0xbdbc5e03	-0.09197619
56	0xbd8b3545	-0.0679727
57	0xbcd695c9	-0.02619447
58	0x3e93a264	0.28834832
59	0xbd40c5a2	-0.047063477
60	0xbe026ce6	-0.12736854
61	0xbc3ebd58	-0.011641823
62	0x3cdb0940	0.02673781
63	0xbde0f39e	-0.10983966
64	0xbe0a3526	-0.13496837
65	0x3daefe7c	0.08544633
66	0x3e8a0a8e	0.26961178
67	0xbc6ea600	-0.014565945
68	0xbd5f9732	-0.05458755
69	0xbc2dac1e	-0.010600118
70	0xbe2efa85	-0.17087753
71	0xbd196e06	-0.037458442
72	0xbcd090cb	-0.025459668
73	0xbd07c79d	-0.03314935
74	0xbd8a6545	-0.06757597
75	0xbb918815	-0.004441271
76	0x3e490985	0.19632538
77	0x3e0a5235	0.13507922
78	0xbd57165c	-0.052511558
79	0x3e42da56	0.19028601
80	0xbcbbb907	-0.022915376
81	0x3dcf21b4	0.1011385
82	0x3d1b3bc7	0.037898805
83	0xbda332cc	-0.07968673
84	0x3d144fb6	0.03620883
85	0xbd8a10e7	-0.06741505
86	0xba92ad62	-0.0011190588
87	0x3cc4ece2	0.024038736
88	0xbb48a215	-0.0030614187
89	0x3c5210f9	0.012821429
90	0x3e4e7de5	0.20165212
91	0xbce4d326	-0.027932715
92	0x3d990fd4	0.07473722
93	0x3d89e776	0.06733601
94	0x3cddddb6	0.02708326
95	0xbd43ae5e	-0.04777371
96	0xbc0b5785	-0.008504753
97	0x3a6c4e37	0.00090143405
98	0xbc942b71	-0.01808712
99	0x3d2e4c79	0.0425534
100	0xbc04be71	-0.008102045
101	0x3d3272a4	0.04356636
102	0xba16b22e	-0.0005748597
103	0xbd05b2e4	-0.032641307
104	0xba0c1c02	-0.00053447497
105	0x3c8a6dd3	0.016898071
106	0xbc4fb91f	-0.012678414
107	0x3db81e77	0.08990186
108	0x3bb291ea	0.005449523
109	0x3cd74cff	0.026281832
110	0x3ccb8d78	0.024847731
111	0x3d24d6fe	0.040244095
112	0x3cef06eb	0.029178103
113	0x3da13e2c	0.078731865
114	0x3cdfb938	0.027309999
115	0xbd9885b1	-0.074473746
116	0xbcc6e8ae	-0.024280872
117	0x3cd0c115	0.025482694
118	0x3ccb700e	0.024833705
119	0x3bfedb37	0.0077775973
120	0x3d9201c4	0.07129243
121	0x3d37a284	0.04483272
122	0xbc20719e	-0.009792713
123	0x3d51ee21	0.051252488
124	0xbcc0d36e	-0.023538318
125	0x3c6e8399	0.0145577425
126	0x3d8fe320	0.070257425
127	0xbc05212b	-0.008125584
128	0x3cdb07b5	0.026737073
129	0xbdb6b807	-0.08921819
130	0x3cb37425	0.021905968
131	0xbd207789	-0.039176498
132	0x3a19ca26	0.0005866609
133	0x3bbee9af	0.005826197
134	0xbcc54f79	-0.024085747
135	0xbc891c23	-0.01673705
136	0xbc76d932	-0.015066432
137	0x3b281c62	0.0025651683
138	0xbd0a6d93	-0.033795904
139	0x3c9d877b	0.019229641
140	0xbca2f9ff	-0.019894598
141	0x3d0c9d1c	0.03432952
142	0xbbfea53e	-0.0077711632
143	0x3bba2515	0.00568069
144	0xbad0f759	-0.0015942856
145	0x3d00e0c5	0.031464357
146	0xbd4c40c9	-0.04986647
147	0xbc4cfca6	-0.012511408
148	0x3c086abf	0.0083262315
149	0x3cc1abd9	0.023641514
150	0x3d46b9ed	0.048517156
151	0x3e1e5761	0.1546302
152	0xb9c71425	-0.00037971247
153	0xbb669a84	-0.0035187313
154	0xba48710d	-0.00076462404
155	0xbbe11f4a	-0.006870185
156	0xbc086e88	-0.008327134
157	0xbd3a4ab8	-0.045481414
158	0x3d73192a	0.05935017
159	0xbc8ea6a6	-0.017413449
160	0xbd90080b	-0.07032784
161	0xbc93ca68	-0.01804085
162	0xba28b110	-0.0006435076
163	0xbd8a6421	-0.06757379
164	0x3b5c2429	0.003359089
165	0xbe81158e	-0.25211757
166	0x3dc077ee	0.09397875
167	0x3b6ba574	0.0035956772
168	0xbc1859d7	-0.009298763
169	0xbcfd5039	-0.030922042
170	0xbda25e98	-0.079281986
171	0xbcee3d5c	-0.029081993
172	0xbcabbeeb	-0.02096506
173	0xbce0995d	-0.02741688
174	0xbe2823c8	-0.164199
175	0x3c0beb7b	0.00854003
176	0xbe4e0326	-0.20118389
177	0x3d39ff6c	0.045409605
178	0x3c21c22a	0.0098729525
179	0xbe01625d	-0.12635179
180	0xbcdb674e	-0.026782658
181	0x3ba82820	0.0051317364
182	0x3c848b7f	0.016179798
183	0xbd29b884	-0.041435733
184	0xbce61c59	-0.02808969
185	0x3ca04211	0.019562753
186	0xbc0cdca6	-0.008597529
187	0x3d643ae9	0.055720244
188	0xbd307bf1	-0.04308695
189	0x3c4b0b48	0.012392826
190	0xbdf32951	-0.11873115
191	0x3d2e00f3	0.042481374
192	0x3d449798	0.047996134
193	0x3c5dcd49	0.013537713
194	0x3d7bc40a	0.061466254
195	0xbcb7c6b1	-0.02243361
196	0xbe08c8ce	-0.13357851
197	0x3c80f924	0.0157438
198	0xbd64a906	-0.055825256
199	0x3b36bfed	0.0027885393
200	0x3e29a6ac	0.16567487
201	0xbd84b70a	-0.064802244
202	0x39171530	0.00014408375
203	0xbc8088e9	-0.015690284
204	0x3976b744	0.0002352866
205	0x3de50050	0.111817
206	0x3e045774	0.12923986
207	0xbd4ca7ed	-0.049964834
208	0xbcf4f884	-0.029903658
209	0x3d88cc2a	0.06679566
210	0x3d51af32	0.05119247
211	0xbdb58eb8	-0.08865112
212	0xbbb5e4a2	-0.005550937
213	0x3a91108a	0.0011067551
214	0x3c9489a5	0.01813204
215	0x3d839400	0.06424713
216	0xbb610bcc	-0.0034339307
217	0x3d5f9015	0.054580767
218	0x3d492921	0.04911149
219	0x3d57cd68	0.052686125
220	0x3ce452ce	0.027871516
221	0x3d9ee49e	0.07758449
222	0x3d8b7448	0.06809288
223	0xbc7c1088	-0.015384801
224	0x3dd1c6fe	0.10243033
225	0x3c7f9f72	0.01560198
226	0xbd63d252	-0.0556205
227	0xbcbf88a4	-0.023380585
228	0x3d8b43d6	0.06800048
229	0x3de362c4	0.111028224
230	0x3d7818d2	0.060570545
231	0x3d8c48ed	0.06849847
232	0x3d580a40	0.05274415
233	0x3d84ba74	0.064808756
234	0x3dc5146d	0.096230365
235	0x3ca5ce9f	0.020240126
236	0x3d640154	0.05566533
237	0x3ccb63af	0.024827806
238	0x3d9fcd0d	0.07802782
239	0x3d978ffa	0.07400508
240	0xbd7eaf4f	-0.062178906
241	0x3b90518b	0.004404252
242	0x3d60949d	0.05482923
243	0x3b903b49	0.0044015986
244	0x3cc833d3	0.024438774
245	0x3dadea3d	0.08491943
246	0x3e01c350	0.12672162
247	0x3e1cd69d	0.15316243
248	0x3dbe792e	0.09300457
249	0x3ca5fcff	0.02026224
250	0x3e146f06	0.14495477
251	0xbd1c8d65	-0.03822078
252	0xba2f0936	-0.0006677093
253	0xbe0d3c2a	-0.13792482
254	0x3a80d8d5	0.0009830246
255	0x3e24ccf5	0.1609381

bias f4 [50]
0	0x3dab6d75	0.08370487
1	0x3c6d8613	0.014497298
2	0x3b317e36	0.0027083284
3	0x3d502451	0.050815884
4	0x3d73d525	0.059529442
5	0xbcdf8b98	-0.027288243
6	0xbb6266ee	-0.0034546214
7	0xbcb293c6	-0.02179898
8	0xbbfe6d2b	-0.0077644787
9	0xbd269b66	-0.040675543
10	0xbd6c641b	-0.057712656
11	0x3c9c26bf	0.019061444
12	0xbc9065dd	-0.017626697
13	0x3ca9889d	0.020695025
14	0xbcf010e1	-0.029304923
15	0xbcb66484	-0.022264726
16	0xbc299dc7	-0.010352558
17	0xbc29cd66	-0.010363912
18	0x3c870fe1	0.016487064
19	0x3c2af692	0.0104347635
20	0x3adb487a	0.0016729974
21	0x3bfaa4e4	0.007649051
22	0x3d4f630f	0.05063158
23	0xbb168d82	-0.0022972529
24	0x3d8ef1a8	0.06979686
25	0x3c99fddd	0.01879781
26	0x3cc6bc3a	0.024259675
27	0x3cd049e4	0.025425859
28	0xbbe9849c	-0.007126404
29	0xbcba909d	-0.022774035
30	0xbd2ba992	-0.04190976
31	0xbd35ee35	-0.044416625
32	0xb994a29d	-0.00028349916
33	0x3cab3993	0.020901477
34	0xbc0f2576	-0.008736959
35	0xbb414af0	-0.002949413
36	0xbce9959c	-0.028513722
37	0xbc55e16f	-0.013054236
38	0xbaeea77c	-0.0018207873
39	0x3cb047d6	0.021518629
40	0x3cb75ac4	0.022382148
41	0xbbd47224	-0.006483333
42	0x3c9ba5b0	0.018999904
43	0xbc29ed27	-0.010371483
44	0x3dae97e9	0.08525068
45	0x3a10e06e	0.00055266067
46	0xbce08008	-0.0274048
47	0xbc68b137	-0.014202408
48	0xbd008a99	-0.031382177
49	0x3d3cc0fb	0.046082478

weight f4 [87, 50]
0	0x3cbe9878	0.023266062
1	0xbe5ba924	-0.21451241
2	0x3d8dc71b	0.06922742
3	0x3d2dafdf	0.042404052
4	0xbcf87056	-0.030327003
5	0xbcc3cdac	-0.023901783
6	0x3c9b13d7	0.018930359
7	0x3d760272	0.060060926
8	0xbd213e4c	-0.03936605
9	0xbe05f083	-0.13080029
10	0x3d780220	0.0605489
11	0x3d5aa51f	0.053380128
12	0x3da215a1	0.07914282
13	0x3d92dc0d	0.071708776
14	0xbd8f89a9	-0.070086785
15	0xbdb6febb	-0.08935305
16	0xbe0ef18f	-0.13959335
17	0xbcc7dbc1	-0.024396779
18	0x3de9eeae	0.11422478
19	0xbe0d0742	-0.137723
20	0xbddc3a99	-0.10753364
21	0x3ca64d25	0.020300457
22	0x3d8ade00	0.067806244
23	0xbd819dbf	-0.06328916
24	0xbdc12742	-0.09431316
25	0x3d42c484	0.047550693
26	0xbc0a6661	-0.008447261
27	0xbe0663d4	-0.13124019
28	0xbe0c021b	-0.13672678
29	0xbe309c7f	-0.17247199
30	0xbe122f63	-0.14275889
31	0xbd35ef18	-0.04441747
32	0x3aaccf88	0.0013184408
33	0xbe06a1c1	-0.13147642
34	0xbdcb6629	-0.09931595
35	0x3d3a4baa	0.045482315
36	0x3d81c563	0.06336477
37	0xbd791c73	-0.060818147
38	0x3da7a400	0.081855774
39	0x3dff9786	0.12480073
40	0x3ad72679	0.0016414664
41	0xbd8abd46	-0.06774382
42	0x3dc5cae3	0.09657838
43	0x3df48d4c	0.11941013
44	0xbda51ad1	-0.080617554
45	0xbd989500	-0.074502945
46	0x3da31975	0.0796384
47	0xbe10d87f	-0.14145087
48	0xbda66ab1	-0.081258185
49	0x3c3d98f7	0.011572114
50	0x3dec567d	0.11539934
51	0xbc90d048	-0.017677441
52	0xbce3a19c	-0.027787022
53	0x3db5ab50	0.08870566
54	0x3dbd258d	0.09235678
55	0xbce730a0	-0.028221428
56	0x3daeaade	0.08528684
57	0xbdc18f30	-0.09451139
58	0xbd83c0d5	-0.06433264
59	0x3dba0edd	0.09084866
60	0xbd94a298	-0.07257575
61	0x3d8bf258	0.06833333
62	0x3dabf6da	0.083966926
63	0xbd6179ad	-0.05504768
64	0xbcc03458	-0.02346246
65	0xbd85ff3b	-0.06542822
66	0xbdc1fc1b	-0.094719134
67	0x3de817ed	0.113326885
68	0x3db30412	0.08741011
69	0xbd2177c8	-0.039420873
70	0xbd9d2393	-0.07672801
71	0xbd07e1f3	-0.033174466
72	0xbc0e74e9	-0.008694866
73	0xbe3e9a14	-0.18613464
74	0x3e0fd83d	0.14047332
75	0x3aabd949	0.0013111021
76	0x3dfd4e21	0.123684175
77	0x3c9548c1	0.018223168
78	0x3e18e1fd	0.14929958
79	0xbe039f25	-0.12853678
80	0x3d341c02	0.043972023
81	0xbdac6b49	-0.084189005
82	0x3e087a47	0.13327895
83	0xbd96aaf0	-0.073568225
84	0xbde03a5e	-0.10948633
85	0x3dcac3c5	0.09900621
86	0xbd85d877	-0.06535428
87	0xbdbe3d4b	-0.092890345
88	0x3b9516e4	0.004549848
89	0xbdaf7d5e	-0.08568834
90	0xbdf10a2c	-0.11769518
91	0x3e13a557	0.14418541
92	0xbd69487c	-0.056953892
93	0x3e179f07	0.14806758
94	0x3ccbff16	0.024901908
95	0xbde160fc	-0.110048264
96	0x3e089067	0.13336335
97	0xbdbe4cee	-0.09292017
98	0xbdd883e8	-0.10572034
99	0x3e11f7f7	0.14254747
100	0x3b473bc1	0.0030400606
101	0xbdb2b8ec	-0.08726677
102	0x3da8355a	0.08213301
103	0xbceeeda6	-0.029166054
104	0x3d8f7ebc	0.070065945
105	0xbceda35f	-0.029008565
106	0x3c0c7b88	0.008574374
107	0x3d5f7bde	0.05456149
108	0x3d9a438b	0.07532414
109	0x3e0c074a	0.13674656
110	0x3b0436f4	0.0020174356
111	0xbd8a1fa4	-0.06744316
112	0x3dac9997	0.084277324
113	0x3e2602fb	0.16212074
114	0x3d1aa77c	0.03775738
115	0xbdbdf40c	-0.09275064
116	0x3dcf6297	0.101262264
117	0xbb0a6669	-0.002111817
118	0xbcc4f1ff	-0.024041174
119	0xba6dd9cb	-0.0009073286
120	0x3e313b67	0.17307816
121	0xbe51f7ec	-0.20504731
122	0x3d997c4c	0.07494411
123	0x3e9dd792	0.3082853
124	0x3c24e999	0.01006546
125	0xbd39fa3d	-0.04540466
126	0x3d12c5f8	0.03583333
127	0xbdd66d9b	-0.10470124
128	0xbd8488b3	-0.06471386
129	0x3e0ef9a8	0.13962424
130	0x3a9f1075	0.0012135642
131	0xbcf6f805	-0.030147562
132	0xbe2c0f7e	-0.16802785
133	0xbc9566aa	-0.01823743
134	0x3de3316d	0.110934116
135	0xbcbca21f	-0.023026524
136	0x3b18c5bf	0.0023311225
137	0xbe1b7165	-0.15179975
138	0xbd669704	-0.056296363
139	0x3de21d8b	0.11040791
140	0xbdfe5299	-0.12418098
141	0x3d4330b5	0.047653873
142	0xbe15c75c	-0.14626831
143	0xbe09a20d	-0.13440724
144	0x3cd941df	0.026520668
145	0x3c4feee7	0.012691236
146	0xbd991bbc	-0.07475993
147	0x3dae8625	0.0852168
148	0x3e6ab03b	0.22918789
149	0x3dcbfc86	0.099602744
150	0xbddf0f0b	-0.10891541
151	0xbe446d8a	-0.19182411
152	0x3de709fb	0.112812005
153	0x3ca0c0d0	0.01962319
154	0xbe18b393	-0.14912252
155	0x3e322efa	0.17400733
156	0x3d0206b6	0.03174468
157	0x3d7cfe5a	0.061766006
158	0x3c5fc0c4	0.013656799
159	0x3e17381c	0.14767498
160	0xbe0cbc6a	-0.1374375
161	0xbe806ee9	-0.25084618
162	0xbc74815d	-0.014923421
163	0xbd7b6542	-0.061375864
164	0x3d75ae15	0.05998047
165	0x3db59a1a	0.08867283
166	0x3d5e0dac	0.054212257
167	0x3e2e0b33	0.1699646
168	0xbdf9618c	-0.12176809
169	0x3dd28074	0.10278407
170	0xbdcb80df	-0.099366896
171	0xbda634ee	-0.08115564
172	0x3e00c09d	0.12573476
173	0x3da8f226	0.08249311
174	0xbdcc3bcf	-0.09972345
175	0x3a5dd9b9	0.0008462924
176	0xbaeaaa6f	-0.0017903576
177	0xbd36eb8e	-0.044658236
178	0xbd910e91	-0.070828564
179	0x3d3439c9	0.04400042
180	0xbcf94cd2	-0.030432139
181	0x3ddeefa0	0.108855486
182	0xbdb9ebd5	-0.090781845
183	0x3e02803c	0.1274423
184	0x3d8a1e30	0.06744039
185	0x3d62df5f	0.055388805
186	0xbc78c586	-0.015183812
187	0x3d70953e	0.05873608
188	0xbe42786e	-0.18991253
189	0x3d94267c	0.07233903
190	0x3e15bc83	0.14622693
191	0x3d91609f	0.07098507
192	0xbe0e2e82	-0.13884929
193	0x3c487ad2	0.012236314
194	0x3d9ab30c	0.07553682
195	0x3e3fc2e9	0.18726696
196	0xbde326d1	-0.11091388
197	0x3e0aabd3	0.13542108
198	0x3d48250b	0.048863452
199	0x3cd3019f	0.025757609
200	0x3dab876d	0.0837544
201	0x3dc85c7d	0.09783266
202	0x3c8a9c0d	0.016920114
203	0x3d3537d5	0.0442427
204	0x3d79c7d5	0.06098159
205	0xbdde1c25	-0.10845212
206	0xbdb3c509	-0.08777816
207	0xbddc0408	-0.107429564
208	0xbe18afec	-0.14910859
209	0x3d47dfa0	0.04879725
210	0x3d998fce	0.07498132
211	0xbd5395f8	-0.051656693
212	0x3d283669	0.041067515
213	0x3db37376	0.08762257
214	0x3ce2f6e6	0.027705621
215	0x3dcae65e	0.0990722
216	0xbd2fc75a	-0.042914726
217	0x3bb77916	0.0055991514
218	0x3cc8e34e	0.02452245
219	0x3db7a4ed	0.08967004
220	0x3e188a9d	0.14896627
221	0xbc30adbf	-0.010783612
222	0xbd117cc4	-0.035519376
223	0xbdc7b94b	-0.09752139
224	0x3e29e7a6	0.16592273
225	0x3e1cce12	0.15312985
226	0x3d4c4be2	0.049877055
227	0xbdb89c7c	-0.09014222
228	0xbd8fc8df	-0.07020735
229	0x3d80db16	0.06291787
230	0x3c0851af	0.008320256
231	0xbe036de9	-0.12834896
232	0xbcf17006	-0.029472362
233	0xbe657acc	-0.22410125
234	0x3d2e4cdb	0.042553764
235	0xbac7ae8c	-0.0015234514
236	0xbd19dfc0	-0.0375669
237	0x3d8415f4	0.064495
238	0x3daf7654	0.08567491
239	0x3e0606de	0.13088557
240	0xbd45f85f	-0.04833257
241	0x3d69adcf	0.057050522
242	0xbdef26b6	-0.116773054
243	0xbc849eb4	-0.016188957
244	0x3d92a8e4	0.071611196
245	0x3d8e7aca	0.06957014
246	0xbd1ee601	-0.038793568
247	0x3d5a8480	0.053349018
248	0x3c549d7f	0.012977003
249	0x3d450de8	0.048108965
250	0x3e021f51	0.12707259
251	0x3e1467a5	0.14492662
252	0xbd260543	-0.04053236
253	0xbdd35360	-0.10318637
254	0x3d995510	0.074869275
255	0xbd9f4352	-0.07776512

bias f4 [87]
0	0x3cad8a0c	0.02118399
1	0x3d255007	0.040359523
2	0x3e2fd3ab	0.17170589
3	0x3c28bb81	0.010298611
4	0x3d943d74	0.07238284
5	0x3d31ed6d	0.043439317
6	0x3e4528c9	0.1925384
7	0x3db60184	0.08887008
8	0x3dc698d4	0.096971184
9	0xbd8ba735	-0.068190016
10	0xbcea3756	-0.02859084
11	0xbcb4723a	-0.022027124
12	0x3cb51ad8	0.022107527
13	0xbb6b701f	-0.0035924984
14	0x3ceb400f	0.028717069
15	0xbd59d29a	-0.05317936
16	0x3d9e410b	0.0772725
17	0x3dcc15b6	0.099650785
18	0x3d931c7e	0.07183169
19	0x3e05e22b	0.13074557
20	0x3d267819	0.040641878
21	0x3e2e3194	0.170111
22	0x3de99fc3	0.11407425
23	0x3dab3a2e	0.08360706
24	0x3e33e100	0.175663
25	0x3ddb0d14	0.10695854
26	0x3d53861c	0.05164157
27	0x3b99c807	0.0046930346
28	0x3e1c8be2	0.15287736
29	0xbdee9ff4	-0.116516024
30	0xbc30130c	-0.010746729
31	0x3d466f2c	0.048445866
32	0xbd82ac6b	-0.06380542
33	0x3e2b8739	0.16750802
34	0x3e195705	0.14974602
35	0x3d5db1c3	0.054124605
36	0xbe13fa3b	-0.14450924
37	0x3cd12694	0.02553109
38	0xbdea5fa5	-0.11444024
39	0x3d35757a	0.044301488
40	0xbdb3f3b1	-0.08786715
41	0x3dfc17b1	0.12309206
42	0xbc150597	-0.009095571
43	0xbe0e4e3b	-0.1389703
44	0x3d0838f7	0.03325745
45	0x3d93fb23	0.07225635
46	0x3e0b5a8e	0.13608763
47	0xbde432eb	-0.11142524
48	0xbd6da818	-0.058021635
49	0x3e234976	0.15945992
50	0x3e13c2d6	0.14429793
51	0x3c14a0e5	0.009071563
52	0xbd2da6b5	-0.042395312
53	0x3dcc5804	0.09977725
54	0x3e006523	0.1253858
55	0x3e36f538	0.17866981
56	0x3b8be04c	0.0042686816
57	0xbd8e2a5c	-0.06941673
58	0x3cd5ba00	0.026089668
59	0xbd1e0c35	-0.03858586
60	0x3d645ebe	0.055754416
61	0x3d52d8e6	0.05147638
62	0xbd21c49a	-0.039494134
63	0x3de39ce8	0.11113912
64	0x3d634fdc	0.05549608
65	0xbdc66e6c	-0.0968903
66	0x3d12c09d	0.03582822
67	0x3dd0e7fd	0.10200498
68	0xbd5dee22	-0.05418218
69	0xbda9fdb7	-0.083003454
70	0x3c32f69c	0.010923054
71	0x3df94403	0.12171175
72	0xbd826f7d	-0.06368921
73	0xbd8c48ad	-0.06849799
74	0xbc7deb67	-0.015498019
75	0x3d75c953	0.06000645
76	0xbe518a51	-0.2046292
77	0x3c9e91aa	0.019356567
78	0x3dc1f161	0.094698675
79	0xbdbd2b1a	-0.092367366
80	0x3d39d855	0.045372326
81	0x3dd2694d	0.10273991
82	0x3d9dd859	0.07707281
83	0x3da7516f	0.08169829
84	0xbce786ca	-0.028262515
85	0xbd861e15	-0.065487064
86	0x3d159860	0.03652227

bias f4 [5]
0	0xbc9bb829	-0.019008713
1	0x3b4891d3	0.0030604496
2	0x3b37cc05	0.002804519
3	0x3afc2ad2	0.0019238836
4	0x3c17b754	0.009260017

lower_entries f4 [10]
0	0xbaf43fe6	-0.0018634766
1	0x3bcc213d	0.0062295482
2	0x3b78c07a	0.0037956522
3	0x3845fec1	4.7205718e-05
4	0xb9b135ad	-0.00033800062
5	0x3b3bb341	0.002864078
6	0x3c0da8d1	0.008646206
7	0x3bd7dc8b	0.00658757
8	0x3b91aaaa	0.0044453936
9	0x3b081109	0.0020762107

upper_entries f4 [10]
0	0x3ba2fea8	0.004974205
1	0xbb589cd9	-0.0033052473
2	0x3ba3fb49	0.0050043208
3	0xb80c3ddf	-3.3436223e-05
4	0xb970392f	-0.00022909486
5	0xba95772d	-0.0011403315
6	0xbbbd00fe	-0.0057679405
7	0xbb921f71	-0.0044593145
8	0x3b9f587f	0.0048628445
9	0x3a86ff2b	0.0010299435

unconstrained_upper_diag f4 [5]
0	0x3f041d26	0.51606977
1	0x3f03ae5c	0.51437926
2	0x3f0345b6	0.51278245
3	0x3f03687f	0.51331323
4	0x3f0578f9	0.52137715

weight f4 [50, 3]
0	0x3e7a2e93	0.24431829
1	0xbf079346	-0.52959096
2	0x3defc7d2	0.117080346
3	0xbd05407a	-0.032532193
4	0xbdd174ed	-0.1022738
5	0x3f09132e	0.5354489
6	0xbe81453d	-0.25248137
7	0xbea76284	-0.3269235
8	0x3ebb3e48	0.36570954
9	0xbef774f2	-0.4833141
10	0x3d067caf	0.03283375
11	0xbb552c7e	-0.003252774
12	0xbdb08d3b	-0.086206876
13	0xbec5232b	-0.38503394
14	0x3dd96190	0.10614312
15	0xbd9fd098	-0.07803458
16	0x3e4417f9	0.1914977
17	0x3d68f586	0.056874774
18	0xbe9facd7	-0.31186554
19	0x3e5670be	0.20941445
20	0x3e42bfbd	0.19018455
21	0xbed21f4c	-0.41039503
22	0x3d869ae8	0.06572515
23	0x3eaa7e03	0.33299264
24	0xbf0b5d2a	-0.5443903
25	0x3ed9dc38	0.42550826
26	0xbef94361	-0.4868422
27	0xbe7ecf84	-0.24883848
28	0x3f092a38	0.53580046
29	0xbe2cbeb9	-0.1686963
30	0xbe2aec43	-0.16691689
31	0x3f0569fc	0.52114844
32	0x3ee8422a	0.4536298
33	0xbf0a63be	-0.54058444
34	0xbee36915	-0.4441611
35	0xbdc60645	-0.096691646
36	0x3f0aab9b	0.541681
37	0xbf11f60a	-0.5701605
38	0x3d4581c0	0.048219442
39	0x3d9889f0	0.074481845
40	0xbf114469	-0.5674501
41	0x3ecb003e	0.39648622
42	0x3f17a9b3	0.59243315
43	0x3ec175b0	0.377851
44	0xbec5219f	-0.38502213
45	0xbe8ff893	-0.28119335
46	0xbf00528e	-0.5012597
47	0xbd7f6aee	-0.062357835
48	0x3e42f8d1	0.19040228
49	0xbe93a211	-0.28834584
50	0xbe40a8ae	-0.18814346
51	0xbf03dfd6	-0.5151342
52	0xbe01a8af	-0.12662004
53	0x3f0cc687	0.5499043
54	0xbe079532	-0.13240507
55	0xbea404b4	-0.32034838
56	0xbc01107e	-0.007877467
57	0x3f179a5a	0.59219897
58	0x3f14f5bc	0.5818746
59	0x3ece868b	0.40337023
60	0xbde82075	-0.11334316
61	0x3ee98877	0.45611927
62	0xbe2b68f3	-0.16739254
63	0xbf0330b5	-0.51246196
64	0x3c2e7c77	0.010649792
65	0xbf0aeac5	-0.5426448
66	0x3d562266	0.0522789
67	0x3f18dc7b	0.59711426
68	0x3e65812a	0.22412553
69	0x3d4414d0	0.04787141
70	0x3c1f5db3	0.0097269295
71	0xbeaf2eca	-0.34215385
72	0xbea4cc4e	-0.32187122
73	0x3ea63d96	0.3246886
74	0x3ebd67ee	0.36993355
75	0x3c8d7e39	0.017272102
76	0xbedded12	-0.43344933
77	0xbcc74051	-0.02432266
78	0xbcb5b521	-0.022181096
79	0x3f0b17d7	0.5433325
80	0xbec545d0	-0.38529825
81	0x3bb3bf51	0.005485453
82	0x3da05512	0.07828726
83	0xbf0167c6	-0.5054897
84	0xbe94af00	-0.29039764
85	0xbeffb3ac	-0.49941766
86	0x3eb0d485	0.3453714
87	0xbf0de0d8	-0.5542121
88	0xbe2c037b	-0.16798203
89	0x3e8fe764	0.28106225
90	0xbed13f87	-0.4086878
91	0xbdd3fd93	-0.103511
92	0xbf0d093a	-0.55092204
93	0x3f0dd37b	0.5540082
94	0x3ef9e958	0.4881084
95	0x3e58b6a5	0.21163423
96	0xbec3ef90	-0.3826871
97	0xbe6cf524	-0.23140389
98	0xbea0b136	-0.313852
99	0x3eea44e0	0.45755672
100	0x3e82e4e3	0.25565252
101	0x3ec26332	0.37966305
102	0x3ee0ca52	0.43904358
103	0xbeb09f12	-0.3449636
104	0x3eb5d8ca	0.3551696
105	0x3e953c83	0.2914773
106	0xbf13a5a2	-0.5767461
107	0xbd940094	-0.07226673
108	0xbdef41c7	-0.11682468
109	0x3efd10a4	0.49426758
110	0x3e9ca188	0.3059199
111	0xbd8cfbdf	-0.06883978
112	0x3f122bef	0.5709829
113	0x3da801fd	0.08203504
114	0x3ec0edb3	0.3768135
115	0x3e67ed35	0.22649081
116	0x3efc16a8	0.49236035
117	0x3e3dce99	0.18535842
118	0x3f174ad6	0.59098566
119	0xbee4f6c5	-0.4471952
120	0xbedd9d9a	-0.43284303
121	0xbe4ee083	-0.20202832
122	0x3d47d66c	0.048788473
123	0x3dfab97c	0.122424096
124	0xbf1319f6	-0.5746149
125	0xbe9506db	-0.29106793
126	0x3c3bfce1	0.011473865
127	0xbe8704d9	-0.26370886
128	0x3e014242	0.12622932
129	0x3f0a51d8	0.54031134
130	0xbe6d2da7	-0.23161946
131	0x3e006c6b	0.12541358
132	0x3ea025fd	0.31278983
133	0x3e9b046e	0.30276817
134	0x3ca3c558	0.019991562
135	0xbda02302	-0.07819177
136	0x3c693671	0.014234171
137	0x3e8a5115	0.27014986
138	0xbf180516	-0.5938276
139	0xbe528cda	-0.20561543
140	0xbc7ac468	-0.015305616
141	0xbf2f014c	-0.68361354
142	0xbe0802c6	-0.13282308
143	0x3e35bd30	0.1774795
144	0x3cfbdde6	0.030745458
145	0xbf118f48	-0.56859255
146	0xbd3b50e2	-0.045731433
147	0x3e463a16	0.19358096
148	0x3e936845	0.2879049
149	0x3edf11d1	0.4356828
