sbibm/tasks/slcp/files/num_observation_6/proposal.pt (torch, 333865 bytes, 83 tensors)

weight f4 [50, 2]
0	0x3ee5b894	0.44867384
1	0x3e302c5d	0.17204423
2	0xbe74ee65	-0.23919065
3	0xbe459824	-0.19296318
4	0xbf0181da	-0.5058876
5	0x3f030221	0.51175123
6	0x3f0bc31d	0.54594594
7	0x3e5e93a5	0.2173601
8	0xbf2c4ed8	-0.67307806
9	0xbe4ef763	-0.20211558
10	0xbebd55bd	-0.36979476
11	0x3eb09ace	0.34493107
12	0x3d2bc673	0.041937303
13	0xbf2c4a03	-0.6730043
14	0x3c4ede27	0.012626207
15	0xbeb30a8f	-0.34968993
16	0xbe84d3ee	-0.2594294
17	0x3eb65b18	0.35616374
18	0xbebc9fd3	-0.36840686
19	0x3f1682dd	0.5879343
20	0xbea7812e	-0.32715744
21	0xbee39ef9	-0.44457224
22	0x3bcde37e	0.0062832227
23	0x3e27d002	0.16387942
24	0xbf070efb	-0.52757233
25	0xbee9784f	-0.455996
26	0xbea70b65	-0.3262588
27	0xbef7cff5	-0.48400846
28	0x3e4e89d5	0.20169766
29	0x3e5996b7	0.212489
30	0x3edde200	0.43336487
31	0xbec463be	-0.38357347
32	0x3e64877c	0.22317308
33	0xbf2d26bf	-0.67637247
34	0x3f04a835	0.51819164
35	0x3eaccce3	0.33750066
36	0xbf0e8ccf	-0.55683607
37	0xbd4f457f	-0.050603386
38	0x3ef6c208	0.4819491
39	0x3e402f7f	0.18768118
40	0x3d8431e4	0.064548284
41	0xbee15149	-0.44007328
42	0x3e6356ee	0.2220113
43	0xbe7ba639	-0.24575128
44	0xbebba9c4	-0.36652958
45	0xbf03f6d4	-0.51548505
46	0x3ec335ae	0.38126892
47	0x3e45edec	0.19329041
48	0xbf03824b	-0.51370686
49	0x3f146f8e	0.5798272
50	0xbd58e9cd	-0.052957345
51	0x3e8078ac	0.25092065
52	0xbdeaacf0	-0.114587665
53	0xbecb68c8	-0.3972838
54	0x3f266645	0.649998
55	0xbe857b50	-0.26070642
56	0xbe67c686	-0.22634324
57	0x3efec38d	0.49758568
58	0xbeba8361	-0.3642836
59	0x3e24d063	0.16095118
60	0x3eec24c1	0.4612179
61	0xbee7fec5	-0.4531156
62	0x3eed4248	0.4633963
63	0xbbdfe1d4	-0.0068323407
64	0xbf1b4993	-0.6065914
65	0xbdaf2870	-0.08552635
66	0xbe249055	-0.16070683
67	0xbe69af99	-0.22820891
68	0x3e8f60c0	0.28003502
69	0xbe14f0cc	-0.14544982
70	0xbe5f25dc	-0.21791786
71	0xbe27a58e	-0.16371748
72	0x3d367a4b	0.04455022
73	0xbec8041f	-0.39065644
74	0xbf0ae911	-0.5426188
75	0xbe49b27b	-0.19696991
76	0xbdbf5bdb	-0.09343692
77	0x3d836074	0.06414881
78	0x3ea6e13c	0.32593715
79	0x3d91f935	0.071276106
80	0x3f1c0926	0.6095146
81	0xbe8bb9c8	-0.27290177
82	0x3dd66529	0.104685135
83	0x3ec66fb0	0.38757086
84	0x3d3fbefb	0.046812993
85	0x3e26ca36	0.16288075
86	0x3f2287b7	0.63488334
87	0xbed3154c	-0.41227186
88	0x3e8d933a	0.27651387
89	0x3e9ac885	0.3023111
90	0xbe62a5e1	-0.2213359
91	0x3d4005ca	0.04688052
92	0x3e925114	0.28577483
93	0x3f0dce43	0.55392855
94	0xbd4e0a49	-0.050302777
95	0x3f1bb054	0.6081593
96	0x3e875541	0.2643223
97	0x3f1d8e09	0.61544853
98	0x3d0555b9	0.032552455
99	0xbf283d38	-0.6571841

bias f4 [50]
0	0xbeb679eb	-0.3563989
1	0x3ef4ac50	0.47787714
2	0xbf39895c	-0.7247522
3	0xbe2272b5	-0.1586407
4	0xbe7912f0	-0.2432363
5	0x3e935098	0.28772426
6	0x3c7548a6	0.014970934
7	0x3f0572f5	0.52128536
8	0x3f0390b1	0.51392657
9	0x3e2f5261	0.17121269
10	0x3ef1fa35	0.47261205
11	0xbd967fdc	-0.07348606
12	0x3ee23ac5	0.44185463
13	0x3da921e4	0.08258417
14	0x3dfb944d	0.122841455
15	0xbcb8abb1	-0.022542806
16	0xbe0aaf23	-0.13543372
17	0xbeb10fcf	-0.34582373
18	0xbef8b503	-0.485756
19	0x3f0d531b	0.55204934
20	0xbdca38ec	-0.09874138
21	0xbf0551ee	-0.5207814
22	0x3ecfb121	0.40564826
23	0x3e98767f	0.29777905
24	0x3ea0796e	0.31342643
25	0xbe897847	-0.26849577
26	0xbe2c3ff7	-0.16821276
27	0xbe91179f	-0.28338334
28	0xbf01c7e2	-0.5069562
29	0xbdea7dbb	-0.114497624
30	0xbead29a2	-0.33820826
31	0x3eae5841	0.34051707
32	0xbe7e4785	-0.2483197
33	0xbe74219e	-0.23840949
34	0x3eb79709	0.35857418
35	0x3edeb4fa	0.4349745
36	0x3f0d809f	0.55274385
37	0xbe961ee5	-0.29320446
38	0xbd82faab	-0.06395467
39	0xbf3bf565	-0.7342132
40	0x3f026515	0.5093549
41	0x3f2f3d58	0.6845298
42	0x3ec2041a	0.37893754
43	0x3d8b6d51	0.0680796
44	0x3c745d59	0.014914834
45	0x3e040b3c	0.1289491
46	0xbf0bf947	-0.5467724
47	0xbd8fd1e2	-0.07022454
48	0xbe98dd01	-0.29856113
49	0xbe76fa38	-0.24118888

weight f4 [50, 50]
0	0x3e044e7e	0.12920567
1	0x3ce55d4d	0.02799859
2	0x3da13dbd	0.07873104
3	0xbccdf7c5	-0.02514256
4	0x3d9bc60e	0.07606135
5	0x3e1d3501	0.1535225
6	0x3dffed57	0.12496441
7	0xbbb60dd4	-0.0055558477
8	0xbd2922d1	-0.04129297
9	0xbc8fd345	-0.017556796
10	0x3e1ddcd7	0.15416275
11	0x3d647372	0.05577416
12	0xbdb48437	-0.088142805
13	0x3d6b6103	0.057465564
14	0xbc207cea	-0.009795407
15	0x3d109795	0.03530081
16	0x3e3395ea	0.17537656
17	0xbcb2427f	-0.021760223
18	0xbd932a01	-0.07185746
19	0xbd604c52	-0.054760285
20	0x3d7ba69f	0.0614382
21	0x3e11070c	0.14162844
22	0xbda31ee9	-0.0796488
23	0x3d99fcac	0.075188965
24	0x3dba8783	0.09107878
25	0xbd3c5cab	-0.045986813
26	0x3d1552ce	0.03645592
27	0x3cafdefe	0.021468636
28	0x3d87aaad	0.06624351
29	0xbcaae402	-0.020860676
30	0x3e10f041	0.1415415
31	0xbdd07372	-0.101782694
32	0x3ceb7694	0.028743066
33	0xbd891bc9	-0.06694753
34	0xbdb29cdd	-0.087213255
35	0x3dc758c5	0.09733728
36	0xbdf0d29a	-0.11758919
37	0x3d617ef6	0.05505272
38	0xbc9bf001	-0.019035341
39	0x3e4673cd	0.19380112
40	0x3de38f2f	0.111112945
41	0x3baf3511	0.005346902
42	0xbc9c6547	-0.019091262
43	0x3dc867ca	0.09785421
44	0x3d9cb1fd	0.07651136
45	0xbdc9a129	-0.09845192
46	0x3e47512b	0.19464557
47	0x3e2bc029	0.16772522
48	0x3e23ed72	0.16008547
49	0xbd1bb805	-0.03801729
50	0x3e42e526	0.19032726
51	0xbe09f37e	-0.13471791
52	0x3d7cfa4f	0.06176215
53	0x3e8b35bd	0.27189437
54	0x3e2a45f7	0.16628252
55	0xbc17019e	-0.009216694
56	0x3de5861b	0.11207219
57	0xbe326b2c	-0.17423695
58	0x3e02d23a	0.12775508
59	0xbd09030d	-0.033450175
60	0x3c2091ad	0.009800357
61	0xbdd1054b	-0.10206088
62	0x3d901bcb	0.07036551
63	0xbe496073	-0.19665699
64	0xbdb06b4c	-0.08614215
65	0x3dcf5499	0.101235576
66	0x3c054d7f	0.008136152
67	0x3c1e56d8	0.00966426
68	0x3d3e7640	0.04649949
69	0x3c11ca76	0.008898368
70	0xbd0c1dc3	-0.03420807
71	0x3cb8314e	0.022484448
72	0xbdf1e556	-0.118113205
73	0xbbcaba68	-0.006186772
74	0x3d22da9e	0.03975927
75	0x3d36c711	0.04462344
76	0xbd45a142	-0.04824949
77	0x3d9e1927	0.07719641
78	0x3c34b9b3	0.011030602
79	0xbcef55b0	-0.029215664
80	0x3dbb772b	0.09153589
81	0xbdb191db	-0.08670398
82	0x3df624be	0.12018727
83	0xbd99829e	-0.074956164
84	0x37b81fd0	2.1949323e-05
85	0xbc6b111d	-0.014347342
86	0xbcd08b9a	-0.025457192
87	0x3e1ca3e1	0.1529689
88	0x3db19a91	0.08672059
89	0x3e7fa15a	0.24963894
90	0xbdb2be22	-0.08727671
91	0xbe0907ce	-0.13381884
92	0x3d876dc6	0.066127345
93	0x3e13d83d	0.14437957
94	0xbe31fa23	-0.17380576
95	0x3ca3cc01	0.019994738
96	0xbe965cd4	-0.29367697
97	0x3dabf384	0.08396056
98	0xbde44566	-0.11146049
99	0x3d845a71	0.06462563
100	0x3d080d78	0.03321597
101	0xbdec2d69	-0.11532099
102	0xbc76ea78	-0.01507055
103	0xbe11a273	-0.14222126
104	0xbd488e73	-0.048963975
105	0x3d958408	0.073005736
106	0x3e354933	0.17703705
107	0xbd272f42	-0.040816553
108	0x3c4552cc	0.012043666
109	0x3d63bcad	0.055599857
110	0xbc31d720	-0.010854512
111	0x3cf11d7e	0.029433008
112	0x3d8bd66d	0.06828008
113	0x3dc31201	0.09524918
114	0xbc30509c	-0.010761406
115	0x3e0c6fb3	0.13714485
116	0x3e5c3807	0.21505748
117	0xbd7fd598	-0.06245956
118	0xbeba9e7b	-0.36449036
119	0xbd8a30de	-0.06747602
120	0xbc80a6ad	-0.015704477
121	0x3e12f64f	0.14351772
122	0x3af021d4	0.0018320628
123	0x3ccd390b	0.025051614
124	0x3e098ef5	0.1343344
125	0x3e13a3e8	0.14417994
126	0x3e1dacc3	0.15397935
127	0xbd03283a	-0.032020785
128	0x3e1a49e7	0.15067254
129	0xbda53c25	-0.08068112
130	0x3c0e9779	0.008703106
131	0x3d806bb3	0.06270542
132	0xbe1c6c67	-0.15275727
133	0x3d97bf2e	0.074095115
134	0x3e070b23	0.13187842
135	0xbdfb5e8a	-0.12273891
136	0x3d90c657	0.0706908
137	0xbcfca6a6	-0.030841183
138	0xbccfa8f7	-0.025349123
139	0xbbd321e7	-0.0064432505
140	0xbdb49415	-0.08817307
141	0xbd846cf2	-0.06466092
142	0xbd8c3ff6	-0.06848137
143	0xbe04e756	-0.12978873
144	0x3db2c3d3	0.08728757
145	0xbe0a1e8f	-0.1348822
146	0x3e806991	0.2508054
147	0x3a8cd09b	0.0010743322
148	0x3e56bf9e	0.20971534
149	0x3e040c6e	0.12895367
150	0xbe2e1246	-0.16999158
151	0x3df8755b	0.12131759
152	0xbda0faa6	-0.078603074
153	0xbdfbaed7	-0.122892074
154	0xbdac9a7c	-0.08427903
155	0xbd18b1f4	-0.037279084
156	0x3dac86aa	0.08424123
157	0x3dc788bb	0.09742876
158	0x3d08771d	0.03331672
159	0x3db445e6	0.088023946
160	0x3dfdeb70	0.12398422
161	0xbd9310ec	-0.07180962
162	0x3d9ca8a7	0.076493554
163	0xbd7b48ad	-0.061348606
164	0x3e04cbd2	0.12968376
165	0xbd80a61a	-0.06281681
166	0xbdc88ce2	-0.09792496
167	0xbe10d3c5	-0.14143284
168	0xbe8bcc7e	-0.27304453
169	0x3cd06581	0.025439026
170	0x3d1a1aab	0.03762309
171	0xbe98d7e7	-0.2985222
172	0x3cbe7de6	0.023253392
173	0x3d52042e	0.051273517
174	0x3b94263d	0.00452116
175	0xbe1150e1	-0.14191009
176	0xbe270450	-0.16310239
177	0xbce42352	-0.027848873
178	0xbd3b497d	-0.04572438
179	0x3d186caa	0.037213005
180	0xbd3a78a8	-0.045525223
181	0x3decef56	0.11569087
182	0xbdf87d9e	-0.121333346
183	0xbd205df3	-0.039152097
184	0x3d01a4cf	0.031651314
185	0x3df04245	0.1173139
186	0xbd9da78f	-0.07697975
187	0xbd71ec6c	-0.05906336
188	0x3e057774	0.13033849
189	0xbf12fb34	-0.57414556
190	0x3dc0bfb5	0.09411565
191	0x3dde16d6	0.10844199
192	0x3cacee80	0.02110982
193	0xbc948eba	-0.018134464
194	0x3d81d721	0.06339861
195	0x3e07efe6	0.13275108
196	0x3bcabd33	0.006187105
197	0xbe0fb016	-0.14032015
198	0x3dc83885	0.09776405
199	0xbda5b122	-0.08090426
200	0x3df003bb	0.117194615
201	0xbd48a875	-0.04898878
202	0x3de10d10	0.109888196
203	0xbc752f93	-0.014964956
204	0xbda08ef9	-0.0783977
205	0xbd931b39	-0.07182927
206	0xbe59db0e	-0.21274969
207	0x3debdc46	0.11516623
208	0xbe0ce23f	-0.13758181
209	0x3deac0b1	0.11462534
210	0x3d07d042	0.033157595
211	0x3d920b77	0.07131093
212	0x3c6f11dc	0.01459166
213	0xbc87bed8	-0.016570494
214	0x3c7892cc	0.015171718
215	0xbe05ecdd	-0.13078637
216	0xbe091173	-0.13385563
217	0xbcef2504	-0.029192455
218	0xbdb5c790	-0.08875954
219	0x3de37b45	0.11107496
220	0xbc9b2b91	-0.018941673
221	0xbe37b394	-0.17939597
222	0x3dc426f2	0.09577741
223	0xbdf244dc	-0.1182954
224	0xbc04bf47	-0.008102245
225	0x3e284353	0.16431932
226	0x3bf5b9af	0.007498942
227	0x3e14616e	0.14490291
228	0x3d9d5166	0.07681541
229	0xbd8f19fb	-0.06987377
230	0x3da471c4	0.080295116
231	0xbdf95977	-0.12175267
232	0x3dd28de2	0.10280968
233	0x3ce843f0	0.028352708
234	0xbb8640c3	-0.0040970757
235	0x3dc521cd	0.096255876
236	0x3dcf2c30	0.1011585
237	0x3cb23581	0.021754028
238	0xbd2ef4c5	-0.0427139
239	0xbe47e6ee	-0.19521686
240	0xbd84fc80	-0.06493473
241	0xbd43dc11	-0.047817294
242	0x3d9d6e97	0.07687109
243	0x3dd3996f	0.103319995
244	0x3daed4d8	0.085366905
245	0xbda10748	-0.07862717
246	0x3df51454	0.11966768
247	0xbda5ba2e	-0.080921516
248	0xbd5294d5	-0.05141147
249	0xbdc62af8	-0.096761644
250	0x3d8b82a6	0.068120286
251	0x3be53fb4	0.0069961194
252	0x3dd3e469	0.103463
253	0x3de7df7f	0.11321925
254	0x3e0f2f4a	0.13982883
255	0x3bbff32a	0.005857845

bias f4 [50]
0	0xbdb611e2	-0.088901296
1	0xbda6863c	-0.08131072
2	0x3d9fa37c	0.07794854
3	0x3e0d2b07	0.13785945
4	0x3dad1cc3	0.084527515
5	0xbcec9bcb	-0.028882882
6	0xbdf17451	-0.11789764
7	0xbd0cc92b	-0.034371536
8	0x3cb20718	0.021731898
9	0x3db0eb34	0.086386114
10	0x3df4222f	0.119205825
11	0xbd36b228	-0.044603497
12	0x3da967f6	0.08271782
13	0x3e4cca75	0.19999106
14	0xbd198705	-0.03748228
15	0xbd9109c0	-0.07081938
16	0x3e2d130f	0.16901802
17	0x3d9682e0	0.07349181
18	0xbe75bcd2	-0.2399781
19	0x3e0f7b2c	0.1401183
20	0xbd0fc937	-0.035104003
21	0x3dca976e	0.09892164
22	0x3e55e2e1	0.20887329
23	0x3de24241	0.11047793
24	0x3deb909c	0.115021914
25	0xbd89ceab	-0.06728872
26	0x3daa110d	0.083040334
27	0xbc29b6a9	-0.010358491
28	0x3e589046	0.21148786
29	0x3df27427	0.118385606
30	0xbda0ee54	-0.078579575
31	0xbc49931d	-0.012303141
32	0x3d88dabb	0.066823445
33	0xbd713326	-0.05888667
34	0xbd0b5023	-0.03401197
35	0xbd3d0e66	-0.04615631
36	0x3de4950b	0.1116124
37	0xbd973f1a	-0.073850825
38	0x3d2e1cab	0.04250781
39	0xbd4e609a	-0.050385095
40	0xbd4dfd91	-0.050290648
41	0xbbbd1b81	-0.005771101
42	0xbc9c510f	-0.01908162
43	0x3e4ab029	0.19793762
44	0xbddd3fed	-0.108032085
45	0x3e443c62	0.19163659
46	0xbe1a25fd	-0.15053554
47	0x3d88d464	0.06681135
48	0x3c39ebdd	0.011347738
49	0xbd9492da	-0.07254572

weight f4 [50, 50]
0	0x3d34f184	0.04417564
1	0xbca9d200	-0.020730019
2	0x3da78ecb	0.081815325
3	0xbcaf99d3	-0.021435654
4	0x3ba56914	0.0050479267
5	0xbcafb386	-0.021447908
6	0x365ee76d	3.3215285e-06
7	0xba544263	-0.00080970506
8	0xbdca999b	-0.09892579
9	0x3a4316d2	0.000744206
10	0x3c47110d	0.012150061
11	0xbe4b694e	-0.1986439
12	0xbe055c4c	-0.1302349
13	0xbe3ae119	-0.1824993
14	0xbda7a1b6	-0.08185141
15	0x3bd44818	0.006478321
16	0xbc90899f	-0.017643748
17	0x3d0c47b8	0.034248084
18	0x3bd7c5f4	0.006584877
19	0xbd745a31	-0.059656326
20	0xbe05b057	-0.1305555
21	0x3b0e268e	0.002169046
22	0xbd921376	-0.07132618
23	0xbd979773	-0.074019335
24	0xbe441bd3	-0.19151239
25	0x3d1f67cc	0.038917348
26	0xbd9067fe	-0.07051085
27	0xbcda30d1	-0.026634606
28	0xbdd2bcbd	-0.10289905
29	0x3c908aab	0.017644247
30	0xbcf39888	-0.029735819
31	0xbb61b852	-0.003444214
32	0xbdbbaffe	-0.09164427
33	0x3c2b8efd	0.010471103
34	0x3cdc575d	0.026897127
35	0x3da16891	0.078812726
36	0xbc4b589c	-0.012411263
37	0x395e1938	0.00021180965
38	0xba7c46e9	-0.00096236035
39	0x3bb48dab	0.005510052
40	0xbd79bda2	-0.060971864
41	0xbcffb62c	-0.031214796
42	0x3c4e5d6e	0.012595518
43	0xbda88270	-0.08228004
44	0x399a5894	0.00029439165
45	0xbd7b4d1e	-0.06135284
46	0x3c8693e0	0.016427934
47	0xbb9b8094	-0.0047455523
48	0x3cbbac70	0.022909373
49	0xb9991317	-0.00029196657
50	0xbd156ef9	-0.036482785
51	0x3c8c52b6	0.017129283
52	0xbd3e7210	-0.046495497
53	0x3c57390a	0.013136158
54	0xbb36f2ee	-0.0027915793
55	0x3c5e7495	0.0135776
56	0xba7f992c	-0.00097503024
57	0x39b9a6a5	0.0003541011
58	0xbd4cfcbf	-0.050045725
59	0xba447adc	-0.0007495114
60	0x3c486bd2	0.012232738
61	0xbc7b1508	-0.015324838
62	0x3c3b4de7	0.011432148
63	0x3e014780	0.12624931
64	0xbdfeb2a7	-0.12436419
65	0x3db434ec	0.087991565
66	0x3bed491c	0.0072413813
67	0xbd30b2f4	-0.043139413
68	0xbd9e81c1	-0.07739592
69	0x3b63d372	0.0034763482
70	0x3c3098c0	0.010778606
71	0xbd1822a3	-0.037142407
72	0x3c16fde3	0.009215805
73	0x3d2de63b	0.042455893
74	0x3e2f6ead	0.17132063
75	0xbd8cef2b	-0.06881555
76	0x3d49161b	0.049093347
77	0xbd711a01	-0.05886269
78	0x3cdd7338	0.02703248
79	0xbd29a1af	-0.04141396
80	0x3d2e0dc8	0.04249361
81	0x3c12378c	0.008924376
82	0x3e1bc0e7	0.15210305
83	0xbc8861dc	-0.016648225
84	0xbd3ae5bf	-0.04562926
85	0xbd33e691	-0.043921057
86	0xbc66996d	-0.0140746655
87	0xba46a3b3	-0.00075774937
88	0x3da764bd	0.08173511
89	0xbc1377fb	-0.009000774
90	0x3c18a7f3	0.009317386
91	0x3d3804ce	0.044926457
92	0xbd23d70f	-0.040000018
93	0x3c9112db	0.017709186
94	0xb90c4950	-0.00013378751
95	0x3d8cbfa4	0.0687249
96	0xbd125509	-0.035725627
97	0xbcc960c6	-0.024582278
98	0xbcd18bac	-0.025579296
99	0x39c509b7	0.00037582006
100	0x3cef4c6f	0.029211251
101	0x3c4d2ed5	0.012523373
102	0x3c89a565	0.0168025
103	0xbc37ce93	-0.011218685
104	0x3ca78f40	0.02045405
105	0x3ccd7698	0.025080964
106	0x39a24d38	0.0003095658
107	0xba7a4a2e	-0.0009547797
108	0x3d740785	0.059577484
109	0xb948d5cf	-0.00019153136
110	0x3cb1bd88	0.02169682
111	0xbd0a1bcf	-0.033717927
112	0x3d15eafb	0.036601048
113	0xbc606211	-0.013695256
114	0x3d8c1e6d	0.06841741
115	0x3d19dd37	0.037564483
116	0x3ce8190a	0.028332252
117	0x3cf27221	0.029595437
118	0xbbf6bd4a	-0.0075298892
119	0x3cc658bb	0.024212232
120	0xbacac94e	-0.001547137
121	0x3a68f437	0.00088864885
122	0x3dddda8c	0.108327
123	0x3d150d17	0.036389437
124	0x3e0686b5	0.13137324
125	0x3d305d37	0.043057647
126	0x3ce80feb	0.028327903
127	0xbd304693	-0.043036055
128	0x3e443d09	0.19163908
129	0x3d0e54ce	0.034748845
130	0xbd04bee2	-0.032408603
131	0xbcee3027	-0.029075695
132	0xbde538f4	-0.111925036
133	0x3c64345e	0.013928501
134	0x3ca26153	0.019821798
135	0xbcb7785a	-0.022396255
136	0x3c904ef0	0.017615765
137	0xb9b64755	-0.00034766892
138	0x3c053ae5	0.008131717
139	0x3d5dfa8f	0.05419403
140	0xbcc07e9f	-0.023497878
141	0xbc58733f	-0.013211071
142	0x3ca770ee	0.020439591
143	0x3de5740a	0.11203773
144	0x39bb7fcb	0.00035762633
145	0xbd65bede	-0.05609023
146	0xbacbdd53	-0.0015553631
147	0xbc664bb4	-0.014056135
148	0x3d255f5c	0.040374145
149	0xb7bfa8b5	-2.2847535e-05
150	0x3c93775a	0.018001247
151	0xbd4a5791	-0.049399916
152	0x3d8c7dac	0.068599075
153	0x3bd820bd	0.0065956996
154	0x3ba98f68	0.005174566
155	0x3d2102e4	0.039309397
156	0xba5653c7	-0.0008175936
157	0xba0dd3f0	-0.00054103043
158	0xbde9a98d	-0.11409292
159	0xb9aa5935	-0.0003249139
160	0x3d8173ab	0.0632089
161	0x3b071446	0.002061145
162	0x3c00a6aa	0.007852236
163	0xbd0e04f4	-0.034672692
164	0xbdbd7772	-0.09251298
165	0x3dc15c64	0.0944145
166	0x3c8f0bf1	0.017461749
167	0x3c7955a0	0.0152181685
168	0xba9d21af	-0.0011988188
169	0x3c572fb9	0.013133937
170	0xbe1979f5	-0.14987929
171	0x3cc8c327	0.024507118
172	0x3cd92540	0.02650702
173	0x3d0da5eb	0.03458206
174	0xbdd6231e	-0.10455917
175	0x3d8e9a42	0.06963016
176	0x3c24bc75	0.010054697
177	0xbe1f6d99	-0.15569152
178	0xbc58598e	-0.013204945
179	0x3cb08290	0.021546632
180	0xbda3c513	-0.07996573
181	0xbe01bc1a	-0.12669411
182	0xbd89eefa	-0.06735034
183	0x3d197aa9	0.037470493
184	0x3b9ac4b8	0.0047231577
185	0x3d7c80b6	0.061646186
186	0x3b0de32a	0.0021650293
187	0x3a7f2c73	0.00097341015
188	0x3d2b0b08	0.041758567
189	0xbcb21a96	-0.021741193
190	0xbba4f7ca	-0.0050344216
191	0x3d2a5c7b	0.041592102
192	0x3c50439a	0.01271143
193	0xbca86677	-0.020556672
194	0x3a144205	0.00056555896
195	0x3d04ee3f	0.03245377
196	0x3cde5af1	0.027142974
197	0x3b6883d7	0.0035478973
198	0x3bbb4a2a	0.005715628
199	0xb8a6d688	-7.9554564e-05
200	0x3d35eed5	0.04441722
201	0xbc338f98	-0.010959528
202	0x3d977e1b	0.073970996
203	0x3d22b541	0.03972364
204	0xbbb87ee6	-0.005630362
205	0x3d4523d5	0.048129875
206	0x398d9c3e	0.00027010025
207	0x38a1341d	7.686785e-05
208	0xbd179306	-0.037005447
209	0xb7f0d20a	-2.8708037e-05
210	0x3d15fb21	0.03661645
211	0xbe406ce3	-0.18791537
212	0x3cc9d733	0.024638748
213	0x3d72cd49	0.059277806
214	0xbd88b14b	-0.06674441
215	0x3e23e6d9	0.1600603
216	0xba665b58	-0.0008787415
217	0x3d1b9ba6	0.037990235
218	0x3d927b65	0.07152442
219	0x3d57447c	0.052555546
220	0xbb165a7e	-0.002294212
221	0x3d856574	0.06513491
222	0xbc2f9848	-0.010717459
223	0x3d8d4ded	0.06899629
224	0x3d8397aa	0.06425412
225	0x3c981ed6	0.018569391
226	0x3d836a42	0.064167514
227	0xbe2522f4	-0.16126615
228	0xbdd2c59a	-0.10291596
229	0x3cd098c2	0.025463466
230	0x3ca0f9b7	0.019650323
231	0xbb471ed3	-0.0030383363
232	0x3d924d18	0.07143611
233	0x3ce13762	0.027492229
234	0x3d583ea8	0.05279413
235	0x3d86cb0b	0.06581696
236	0x3c9b874c	0.018985413
237	0x39f0b801	0.0004591346
238	0x3cab6f26	0.020927023
239	0xbba5c3f3	-0.0050587594
240	0xbcdc510f	-0.02689412
241	0x3ce96119	0.028488683
242	0xbbeb31df	-0.007177576
243	0x3d40d51a	0.04707823
244	0x399b3bf4	0.00029608572
245	0x3d328c71	0.043590967
246	0x3d74de2d	0.059782196
247	0x3d171cc3	0.036892664
248	0x3cd34224	0.025788374
249	0x3a2bedab	0.00065585476
250	0xbd41bb8a	-0.04729799
251	0x3d01636f	0.031588968
252	0xbd474464	-0.048649207
253	0xbd2e8cbb	-0.04261468
254	0xbd837449	-0.06418664
255	0xbd902952	-0.07039131

bias f4 [50]
0	0xbd82daf1	-0.06389416
1	0x3d10ef3c	0.0353844
2	0xbca16090	-0.019699365
3	0xbccbbc07	-0.024869932
4	0x3d29f65c	0.041494712
5	0x3bbd9d87	0.005786601
6	0xbca7554b	-0.020426413
7	0x3d17c369	0.037051592
8	0xbb8d8834	-0.004319215
9	0xbc67e1a1	-0.014152915
10	0x3d3b811b	0.04577742
11	0xbd5508c8	-0.052010328
12	0x3b87969e	0.004137828
13	0xbd64ed07	-0.05589011
14	0xbd89b622	-0.06724192
15	0xbbbc59c8	-0.0057480074
16	0xbd635d44	-0.055508867
17	0x3cefaffe	0.029258724
18	0x3d8fd35a	0.07022734
19	0x3c4ae47d	0.012383577
20	0xbc2a3eb7	-0.010390929
21	0xbd78e1a1	-0.06076205
22	0xbb4e91d0	-0.0031520016
23	0x3b9baf0f	0.004751093
24	0xbda83c44	-0.0821462
25	0x3d7fdf23	0.06246866
26	0xbcc0c30d	-0.023530507
27	0xbd614c0e	-0.055004172
28	0xbd8dc835	-0.06922952
29	0xbd8f746c	-0.070046276
30	0x3bfdd77f	0.0077466364
31	0x3d4f2f07	0.05058196
32	0xbcf68acd	-0.030095482
33	0xbd1a7789	-0.037711654
34	0xbd3c06ae	-0.045904808
35	0x3d60e7cb	0.054908555
36	0x3d31719f	0.04332125
37	0xbc259e78	-0.010108583
38	0x3d1e3165	0.038621325
39	0xbdbbc208	-0.09167868
40	0xbd1850ca	-0.03718642
41	0xbad5dbe8	-0.0016316148
42	0xbc2d9645	-0.010594909
43	0xbba47a75	-0.005019481
44	0xbd4e038b	-0.050296348
45	0x3d57281e	0.052528493
46	0xbcd97205	-0.026543627
47	0xbcab678e	-0.020923402
48	0xbc52920c	-0.012852203
49	0x3d17b825	0.03704085

weight f4 [50, 50]
0	0x3e838ffd	0.25695792
1	0x3d3c3acd	0.045954514
2	0xbcf6e7f9	-0.03013991
3	0xbb69b350	-0.0035659857
4	0x3e04fd31	0.1298721
5	0x3e20f2f8	0.15717685
6	0xbb827c91	-0.0039821346
7	0x3da822b6	0.082097456
8	0xbdc3024c	-0.095219225
9	0xbdd3d316	-0.10342996
10	0xbe2600c1	-0.16211225
11	0x3ca2469a	0.019809056
12	0xbe1e2f8d	-0.15447827
13	0x3d95ef95	0.07321087
14	0xbd906ce6	-0.07052021
15	0x3d6dd4e2	0.05806435
16	0x3d9bc9ad	0.07606826
17	0xbd1ed97d	-0.03878163
18	0xbe08b8d6	-0.1335176
19	0xbbe6b0ca	-0.007040118
20	0xbcd562c7	-0.026048077
21	0x3e24e580	0.16103172
22	0x3de22a84	0.110432655
23	0x3db5a03e	0.088684544
24	0xbbe398bb	-0.006945697
25	0xbcaf97ca	-0.021434683
26	0xbe02ab2d	-0.12760611
27	0xbc75ed98	-0.01501026
28	0xbe2b84c2	-0.16749862
29	0x3e2ec8a3	0.17068724
30	0xbe1bcffe	-0.15216061
31	0x3da9b67a	0.08286758
32	0x3dd7f290	0.10544312
33	0xbde6356b	-0.112406574
34	0x3db4a32a	0.088201836
35	0x3e0fc294	0.1403907
36	0x3c452ba8	0.012034334
37	0x3d8da687	0.06916528
38	0x3d878765	0.06617621
39	0xbe146177	-0.14490305
40	0x3de82015	0.11334244
41	0xbde53113	-0.11191001
42	0x3deb4076	0.11486904
43	0xbdd02e12	-0.10165037
44	0x3d9a921e	0.07547401
45	0x3ca015c1	0.019541623
46	0xbe0bbe70	-0.13646865
47	0x3d7fed06	0.062481903
48	0xbce2890d	-0.027653242
49	0xbdd782d8	-0.10523003
50	0xbdf03daa	-0.117305115
51	0x3df94a85	0.121724166
52	0xbc92933f	-0.017892478
53	0xbe18823e	-0.14893433
54	0xbd4de045	-0.05026271
55	0x3da3edc0	0.080043316
56	0x3df24e02	0.11831285
57	0xbd2ae087	-0.041718032
58	0x3eb5dcc7	0.35520002
59	0x3d862f52	0.065519944
60	0x3ca4a5e8	0.020098642
61	0xbd324966	-0.04352703
62	0x3dcc0239	0.099613614
63	0x3dc508c4	0.096208125
64	0x3d584b5c	0.052806243
65	0x3e12e001	0.14343263
66	0x3e316573	0.17323856
67	0xbf08d862	-0.53455174
68	0xbd9a36a0	-0.0752995
69	0xbcb79f63	-0.022414869
70	0x3e733488	0.23750508
71	0x3c68f8b1	0.014219449
72	0xbda1ff8b	-0.07910069
73	0xbd8841b7	-0.06653159
74	0xbe97be5b	-0.29637417
75	0x3c160617	0.009156725
76	0x3dbc8c3b	0.09206434
77	0x3dce6f45	0.10079817
78	0xbdd68d80	-0.10476208
79	0xbe63d5b1	-0.22249486
80	0xbd9ef8a1	-0.07762266
81	0x3e00ea2e	0.12589332
82	0xbea49e60	-0.3215208
83	0xbe54efe0	-0.2079463
84	0x3ca62e85	0.020285854
85	0xbdbfc6c4	-0.093640834
86	0x3e248b2e	0.16068718
87	0xbddded7b	-0.108363114
88	0xbc7f0211	-0.0155644575
89	0x3e1287d9	0.14309634
90	0x3d3a57a5	0.04549374
91	0xbf91662e	-1.1359308
92	0x3d300278	0.042971104
93	0x3dd79748	0.105269015
94	0xbd82f368	-0.06394082
95	0xbc9473e3	-0.018121665
96	0x3c8216d2	0.015880022
97	0x3b9e2ad5	0.0048268833
98	0x3cf40706	0.029788505
99	0x3c577301	0.013149978
100	0x3c26bd45	0.010176961
101	0xbdb32a3f	-0.08748292
102	0x3dfbd97a	0.1229734
103	0x3e1502f2	0.14551905
104	0xbd804805	-0.06263737
105	0x3db1abb1	0.08675326
106	0xbdc01146	-0.09378295
107	0x3cdcb273	0.02694056
108	0xbce22632	-0.027606104
109	0xbd999b13	-0.07500281
110	0x3e14c2e6	0.14527473
111	0x3df25d71	0.11834229
112	0x3e384c8f	0.17997955
113	0xbc00eef5	-0.007869472
114	0x3d923237	0.07138484
115	0xbc6ce8aa	-0.014459768
116	0xbce9d491	-0.028543742
117	0x3dcc4e7d	0.09975908
118	0xbcfb2371	-0.030656548
119	0x3be58515	0.00700439
120	0x3e462158	0.19348657
121	0x3e8fe4a5	0.2810413
122	0xbb7e0ebb	-0.0038766104
123	0xbde0c97c	-0.1097593
124	0x3d6cf6ae	0.05785244
125	0xbd78c15b	-0.060731273
126	0x3d71d5b6	0.0590417
127	0xbd5042bd	-0.050844897
128	0x3dd17f1a	0.10229321
129	0xbe16d0f2	-0.14728144
130	0xbdbe529d	-0.09293101
131	0xbba7e193	-0.005123326
132	0xbeae0e3a	-0.3399523
133	0xbdcc0cbf	-0.099633686
134	0x3d79fbc6	0.061031125
135	0xbdceca04	-0.10097125
136	0x3dd32709	0.1031018
137	0xbd59e83b	-0.053199988
138	0x3daa03eb	0.083015285
139	0xbebb44ba	-0.36575872
140	0xbda33a73	-0.07970133
141	0xbd82ff4d	-0.06396351
142	0x3dd25b9f	0.102713816
143	0xbd0180be	-0.03161692
144	0x3e4e216f	0.20129941
145	0xbd02363c	-0.031790003
146	0x3e628f9d	0.22125097
147	0x3e245653	0.16048555
148	0xbcabc130	-0.020966142
149	0x3e01072e	0.12600395
150	0xbde23664	-0.110455304
151	0xbb261009	-0.0025339148
152	0xbdff2faa	-0.12460263
153	0xbd35dbbd	-0.044399012
154	0x3c0a7b03	0.00845218
155	0xbdbd2703	-0.092359565
156	0x3e084cd8	0.13310564
157	0xbdd2af3b	-0.10287329
158	0x3e2dbb22	0.16965917
159	0x3e21b4be	0.15791604
160	0x3cacb201	0.021080973
161	0x3e66fdaa	0.22557703
162	0x3e2a6467	0.16639863
163	0x3e6eeabc	0.23331732
164	0xbdbe223c	-0.092838734
165	0xbc8ef7b5	-0.0174521
166	0x3d39c9f6	0.04535862
167	0x3ca9bc6d	0.020719731
168	0x3cbe9d57	0.023268385
169	0x3d4ef718	0.050528616
170	0x3e41ca11	0.18924738
171	0x3ee6e148	0.4509375
172	0x3d765d5c	0.06014763
173	0x3d002a05	0.031290073
174	0xbddb3c53	-0.10704865
175	0x3ca08262	0.019593421
176	0xbd343f3b	-0.044005614
177	0x3df046f1	0.11732281
178	0x3dc059e6	0.09392147
179	0xbda557c3	-0.0807338
180	0x3dc129f8	0.09431833
181	0xbc3a1157	-0.011356673
182	0xbd049c74	-0.032375768
183	0x3dfc06a1	0.12305952
184	0xbd34fc79	-0.04418609
185	0xbda7c8b3	-0.08192577
186	0xbb2d9a44	-0.0026489655
187	0xbd6a523c	-0.05720733
188	0x3d0826e1	0.033240203
189	0x3e4c3aad	0.19944258
190	0x393e2321	0.00018132899
191	0x3d613f17	0.054991808
192	0x3d5d8ca8	0.05408922
193	0xbd9251b9	-0.071444936
194	0x3d786196	0.06063994
195	0xbe01ac58	-0.126634
196	0x3db59dcd	0.08867989
197	0x3e2722a4	0.16321808
198	0x3c2652ee	0.010151608
199	0xbd040b7c	-0.032237515
200	0x3e859938	0.2609346
201	0x3d95eba0	0.073203325
202	0x3d6bb246	0.05754306
203	0xbd39996c	-0.04531233
204	0xbd358ad6	-0.044321857
205	0x3dc11b0e	0.094289884
206	0x3e01270a	0.12612548
207	0xbdb33022	-0.08749415
208	0x3d86e88e	0.06587325
209	0xbdbc3579	-0.091898866
210	0x3e2178e1	0.15768768
211	0x3e22c15b	0.15894072
212	0xbd7b9757	-0.061423626
213	0xbd6c2d18	-0.057660192
214	0x3aad8888	0.0013239542
215	0xbc34df4c	-0.011039566
216	0x3c922019	0.017837571
217	0x3d862871	0.06550682
218	0xbdae725c	-0.08517906
219	0xbd6c1065	-0.057632823
220	0xbd453431	-0.048145477
221	0x3ef70cc8	0.4825194
222	0xb99b2e5e	-0.0002959845
223	0xbe4072ce	-0.18793795
224	0x3ccc6b9b	0.024953654
225	0xbddd3719	-0.10801525
226	0xbd4c751b	-0.049916368
227	0x3e09fe13	0.13475828
228	0x3deda1ee	0.11603151
229	0xbddf6376	-0.109076425
230	0x3dc95533	0.098307036
231	0xbd63237e	-0.05545377
232	0x3e0c05e9	0.1367413
233	0x3e58ff7e	0.21191213
234	0x3bcf78a6	0.006331521
235	0x3d80dbf3	0.06291952
236	0xbe027962	-0.12741616
237	0xbc513925	-0.012769972
238	0x3dbfbed0	0.093625665
239	0x3e5272a3	0.20551543
240	0xbd0a1c62	-0.033718474
241	0x3e278226	0.16358241
242	0x3cbdd548	0.02317299
243	0xbd0864bd	-0.033299197
244	0xbdf79b88	-0.12090212
245	0xbd872b6e	-0.066000804
246	0xbd6f5e97	-0.058439817
247	0x3e2cc84a	0.16873279
248	0xbe2d5a3f	-0.16928957
249	0x3dc282e5	0.094976224
250	0xbd44461f	-0.047918435
251	0xbd4acbe1	-0.04951084
252	0x3e283b1e	0.16428801
253	0xbb9e1f83	-0.004825534
254	0x3d863498	0.06553
255	0x3ded4251	0.115849145

bias f4 [50]
0	0x3cfb1cf7	0.03065346
1	0xbd8621dd	-0.06549428
2	0xbd836606	-0.06415944
3	0xbe133285	-0.1437474
4	0x3d0f4358	0.034976333
5	0x3c3bb8cd	0.011457634
6	0xbdcd3c71	-0.10021294
7	0x3d0d2382	0.03445769
8	0x3e55c8e4	0.20877415
9	0xbdcf1cd8	-0.101129234
10	0xbb1d6025	-0.0024013605
11	0x3d11fe16	0.035642706
12	0xbdb132ae	-0.086522445
13	0x3e25c515	0.16188462
14	0x3e12ffde	0.14355418
15	0x3dfdd5e2	0.123943105
16	0x3d1cacf2	0.03825087
17	0x3bcba6b6	0.006214942
18	0x3ce69f64	0.028152175
19	0xbdf21cb0	-0.11821878
20	0x3dc41e3e	0.09576081
21	0x3d58ff60	0.05297792
22	0xbe0c2157	-0.13684593
23	0xbc5199df	-0.012793033
24	0x3e4e2074	0.20129567
25	0xbd637fee	-0.055541925
26	0x3e34a499	0.17640914
27	0x3d4f3ec0	0.050596952
28	0x3e562c0d	0.20915242
29	0xbd14ca6b	-0.036325853
30	0xbdf27616	-0.11838929
31	0x3e03792f	0.12839197
32	0xbe297cf2	-0.16551569
33	0x3cd54aae	0.026036587
34	0xbdc3ddc0	-0.0956378
35	0x3e213184	0.15741545
36	0x3db267e0	0.08711219
37	0x3b72d9c5	0.003705607
38	0xbd92d93a	-0.07170339
39	0xbdda7226	-0.10666303
40	0xbcb3fea4	-0.021972008
41	0xbe2d59bc	-0.16928762
42	0xbd9033a5	-0.070411004
43	0xbe4597d5	-0.192962
44	0x3dd9d6b9	0.10636658
45	0xbd80f1da	-0.062961295
46	0xbd600f9f	-0.054702397
47	0xbdc653b0	-0.09683931
48	0x3dfd3e4b	0.12365397
49	0xbcefab72	-0.029256556

weight f4 [50, 50]
0	0xbc957b41	-0.018247249
1	0x3cf9f08d	0.030510211
2	0x3cf7e333	0.030259704
3	0x3d1850d8	0.037186474
4	0xbccc33d7	-0.024927063
5	0x3b12f3bc	0.002242311
6	0x3ceb43e2	0.028718892
7	0xbc8d0774	-0.017215468
8	0xbc44d86f	-0.012014492
9	0xbc8da065	-0.017288396
10	0x3d6e65fb	0.058202725
11	0xbcd5308a	-0.026024122
12	0xbd125a9b	-0.03573094
13	0xbde03f01	-0.10949517
14	0xbc89bd1f	-0.016813813
15	0xbd1aa774	-0.037757352
16	0x3ca56d6b	0.020193776
17	0xbcab83ef	-0.020936934
18	0xba267cfe	-0.0006351023
19	0xbd6ab305	-0.057299633
20	0xbe11ab1a	-0.14225426
21	0xbb558efe	-0.003258645
22	0xbc8ab90e	-0.016933944
23	0xbd8145bd	-0.0631213
24	0xbc2a3112	-0.010387676
25	0x3d7d35b5	0.061818797
26	0x3c667d3d	0.014067945
27	0xbd4d71b2	-0.050157256
28	0xbbc693be	-0.0060600927
29	0xbe114189	-0.14185156
30	0xbd1535e0	-0.036428332
31	0xbda302d2	-0.07959522
32	0x3d99240d	0.07477579
33	0xbcbac311	-0.022798093
34	0x3a06cd9c	0.00051423325
35	0xbd45eaf6	-0.04831978
36	0x3ca4c467	0.020113183
37	0xbbbb06b4	-0.005707586
38	0xbd90dfc4	-0.0707393
39	0xbba2ab49	-0.0049642664
40	0xbcc5ae16	-0.024130862
41	0x3d92623e	0.071476445
42	0xbd6eb10c	-0.058274314
43	0xbcdb7bc1	-0.026792409
44	0xbddbf09d	-0.10739253
45	0x3c33b86c	0.010969263
46	0xbdb086c1	-0.08619452
47	0x3b9286e7	0.004471648
48	0xbcbd4f5a	-0.023109127
49	0x3d31a5e4	0.043371096
50	0xbd57f18e	-0.0527206
51	0xbaeab0fc	-0.0017905529
52	0xbca42eb1	-0.020041795
53	0xbd3123e4	-0.04324712
54	0xbcc7a21e	-0.024369296
55	0x3d69db81	0.0570941
56	0x3d417560	0.04723108
57	0xbc9ebfc0	-0.019378543
58	0x3a03b37f	0.00050240004
59	0x3d85d6c9	0.06535108
60	0xbcf4b59c	-0.029871754
61	0xbe28beaa	-0.16478983
62	0x3c8ded31	0.017325016
63	0xbc9ca853	-0.019123232
64	0xbbce6cf4	-0.0062996093
65	0x3cdc0f51	0.026862772
66	0x3be76770	0.0070618913
67	0xbc981c19	-0.018568086
68	0xbd1673e5	-0.03673162
69	0xbd81ddd8	-0.063411415
70	0x3cad27d7	0.021137161
71	0xbd3e0b7a	-0.046397664
72	0xbdb711e2	-0.08938958
73	0xbb2e5c8a	-0.002660545
74	0xbbcd14e8	-0.0062585957
75	0xbd634d0e	-0.055493407
76	0xbc6f91bc	-0.014622148
77	0xbb3ed72d	-0.0029119954
78	0x3d2a6409	0.041599307
79	0x3d6c9403	0.057758342
80	0x3c47e95e	0.012201635
81	0x3d800d3e	0.06252526
82	0xbd7adf3c	-0.06124805
83	0xbcf6f301	-0.03014517
84	0xba51c8fd	-0.0008002667
85	0x3c81593f	0.015789626
86	0xbd28b528	-0.04118839
87	0x3dad83c1	0.08472396
88	0xbc9ba0f7	-0.018997652
89	0x3d1a54db	0.03767858
90	0xbda46959	-0.08027906
91	0xbb9df8a2	-0.004820899
92	0xbd0e1b1b	-0.03469382
93	0xbdbabc62	-0.091179624
94	0x3cb562b0	0.022141784
95	0xbd28ccac	-0.041210815
96	0xbd1a8d0d	-0.037732173
97	0x3cad3151	0.02114168
98	0x3cec5f1a	0.028853942
99	0xbcef1bd4	-0.029188074
100	0xbd09c370	-0.03363365
101	0xbd0baa5c	-0.034098014
102	0xbcaa812c	-0.020813547
103	0xb9f273fa	-0.00046244246
104	0x39a51c83	0.00031492495
105	0xbc43ed15	-0.01195838
106	0xbcc78d56	-0.024359386
107	0x3c78a2b8	0.015175514
108	0xbd8b88d1	-0.06813205
109	0xbc958795	-0.018253127
110	0x3be2c2f8	0.0069202147
111	0x3d5accb2	0.05341787
112	0x3c8714cb	0.016489407
113	0xbae5784e	-0.0017507167
114	0x3c4d6b74	0.012537826
115	0xbd5eec05	-0.054424305
116	0xbd8b5050	-0.06802428
117	0xbcf20ef5	-0.029548148
118	0x3d2936f2	0.041312166
119	0x3db7b472	0.08969964
120	0x3d3b1174	0.04567094
121	0x3cc6f6ef	0.024287669
122	0x3d725009	0.05915836
123	0xbd6f1558	-0.058369964
124	0xbcbf0d24	-0.023321696
125	0x3dc053f2	0.09391011
126	0xbd575ba7	-0.05257764
127	0x3d9a2061	0.07525707
128	0x3e50b73f	0.20382403
129	0x3d8ca3f0	0.06867206
130	0x3c92ab8f	0.017904071
131	0x3d36cce5	0.044628996
132	0x3d84d9dc	0.06486866
133	0x3d563e95	0.052305777
134	0xb91e25d3	-0.00015082145
135	0x3c2188b3	0.009859252
136	0xbd19504b	-0.03743009
137	0xbc90ea1a	-0.017689753
138	0xbcce77ef	-0.025203673
139	0xbd1d7a23	-0.038446557
140	0x3d2c94c9	0.04213408
141	0x3c678289	0.014130243
142	0x3da3006b	0.07959064
143	0x3d879449	0.0662008
144	0xbcb3eba4	-0.021962948
145	0xbcf25918	-0.029583499
146	0xbad4b978	-0.001622959
147	0xbd28cb4f	-0.041209515
148	0x3d18d638	0.03731367
149	0xbbecd195	-0.0072271326
150	0xbd253b66	-0.04033985
151	0x3bf07f05	0.0073393607
152	0x3cdce8c6	0.026966464
153	0x3d045b4a	0.032313623
154	0xbd263fcf	-0.040588196
155	0x3c77e4e4	0.015130255
156	0x3da898c0	0.0823226
157	0xbd662888	-0.056190997
158	0xbdda6524	-0.10663822
159	0x3d032313	0.03201587
160	0xba012ea7	-0.0004927911
161	0xbd2f51b4	-0.042802528
162	0xbcf7bcc1	-0.030241372
163	0x3a4f375a	0.00079046714
164	0xbc360a06	-0.011110788
165	0x3c3f62f6	0.011681309
166	0x3ca18706	0.019717705
167	0xbcafe17e	-0.021469828
168	0xbdc381be	-0.09546231
169	0x3d0c5327	0.034258988
170	0xbde16f10	-0.110075116
171	0x3e225d74	0.15855962
172	0x3d4678db	0.0484551
173	0x3c9aa9e9	0.018879848
174	0xbd068bbf	-0.032848116
175	0xbdaf332e	-0.085546836
176	0x3c1b37d6	0.009473762
177	0x3d161e64	0.036650077
178	0x3d359978	0.044335812
179	0xbe66a7d5	-0.2252496
180	0x3e159855	0.14608891
181	0x3d121bce	0.035671048
182	0xbce63d47	-0.028105391
183	0x3d81755a	0.06321211
184	0xb8a344fe	-7.7852965e-05
185	0x3d2d9438	0.04237768
186	0xbd1c5507	-0.038167026
187	0x3e3f343b	0.18672268
188	0xbb62939d	-0.0034572848
189	0xbc105152	-0.008808451
190	0xbd10452d	-0.03522222
191	0x3cc1e12c	0.02366694
192	0xbd18632e	-0.03720396
193	0xbc00e4f7	-0.0078670895
194	0xbc5d4cf7	-0.013507119
195	0xbc4fb130	-0.012676522
196	0xbda7fea3	-0.08202865
197	0x3ccc0da2	0.024908844
198	0x3d6993b3	0.057025623
199	0x3ce7d342	0.028298978
200	0xbcd8f7b9	-0.02648531
201	0x3d69f57b	0.057118874
202	0x3d282cdf	0.041058417
203	0x3d6d8558	0.057988495
204	0x3c62f4c7	0.013852305
205	0x3d9cdfc5	0.07659868
206	0x3e54a0f2	0.20764521
207	0x3d112c27	0.035442498
208	0x3d3027d1	0.043006722
209	0x3b68c8ae	0.0035520005
210	0x3d431882	0.047630794
211	0xbd975f75	-0.07391254
212	0x3b9f7dbd	0.004867284
213	0xbd686ef8	-0.056746453
214	0xbcb146e4	-0.021640249
215	0x3d4e6491	0.050388876
216	0x3d1e6993	0.038674902
217	0x3d2be73f	0.04196858
218	0xbd5ab42a	-0.053394474
219	0xbcbb0db4	-0.022833683
220	0x3d89195b	0.06694289
221	0x3d300329	0.042971764
222	0x3cb8d493	0.0225623
223	0xbc895c7e	-0.016767737
224	0x3d5c0903	0.05371953
225	0xbc96bdd1	-0.018401058
226	0x3d6345c7	0.055486467
227	0xbb128b8c	-0.0022361008
228	0x3dc2b11c	0.09506437
229	0xbc50fb2d	-0.0127551975
230	0xbd10385d	-0.035210002
231	0x3d3c303e	0.045944445
232	0x3d2122ed	0.03933995
233	0x3d37e7c4	0.044898763
234	0xba55bda9	-0.0008153567
235	0x3d4d7a6a	0.05016557
236	0x3d586037	0.052826133
237	0x3e15b9e7	0.14621697
238	0xbd924338	-0.07141727
239	0x3e0f2d36	0.1398209
240	0xbc44709c	-0.011989739
241	0x3e504ff5	0.20343001
242	0x3d191c21	0.03738034
243	0xbde07a7e	-0.109608635
244	0x3d822faf	0.06356751
245	0x3d84d217	0.06485384
246	0xbddf3bfd	-0.10900114
247	0x3e33ead9	0.17570056
248	0x3dd3124f	0.103062265
249	0x3d6569e9	0.056009207
250	0xbb22474a	-0.002476173
251	0xbd323577	-0.04350802
252	0xbdbc732c	-0.09201655
253	0xbd5e4f01	-0.054274563
254	0xbd80e6d5	-0.06294028
255	0xbd76a58a	-0.060216464

bias f4 [50]
0	0xbd665ad3	-0.05623896
1	0x3c4b0604	0.012391571
2	0xbd027b07	-0.03185561
3	0xbcff8c8c	-0.031194948
4	0x3d0f246d	0.034946848
5	0x3b2f5549	0.0026753715
6	0x3d70c4a5	0.058781285
7	0xbcb9b7ae	-0.022670593
8	0xbc0575cb	-0.00814576
9	0xbb84e608	-0.004055742
10	0x3cf8b97f	0.030361889
11	0xbd3ddeb8	-0.04635498
12	0xbc6851f0	-0.014179692
13	0xbd465312	-0.048419066
14	0xbd9bdcbe	-0.076104626
15	0xbc374914	-0.011186857
16	0xbccb4b60	-0.024816215
17	0x3cf6010e	0.0300298
18	0x3da49480	0.080361366
19	0x3b18a452	0.0023291302
20	0xbb9ac7f4	-0.0047235433
21	0xbcba73ec	-0.022760354
22	0x3b235ebb	0.002492829
23	0xbced70dd	-0.028984481
24	0xbd97cab4	-0.074117094
25	0x3d7dbd2f	0.061947998
26	0xbbc1fb28	-0.0059198327
27	0xbccaee66	-0.02477188
28	0xbc9ed7c9	-0.019390004
29	0xbd016483	-0.031589996
30	0x3d275f44	0.040862337
31	0x3d6e0ae1	0.058115844
32	0x3c77699a	0.015100861
33	0xbcd4d7bd	-0.025981778
34	0xbd66905e	-0.056290023
35	0x3ce75441	0.028238418
36	0x3d53ffd7	0.05175766
37	0xbc9dcb68	-0.01926203
38	0x3d4c532a	0.049884
39	0xbdd72e1e	-0.10506843
40	0x399c2faf	0.00029790166
41	0x3d0512e9	0.032488737
42	0xbca61416	-0.02027325
43	0xb9e54b8a	-0.00043734565
44	0xbdb26812	-0.08711256
45	0x3d69b0f4	0.05705352
46	0xbd4d0a42	-0.05005861
47	0xbc65ae07	-0.014018542
48	0xbc6e41f9	-0.014542096
49	0x3d8f907a	0.070099786

weight f4 [87, 50]
0	0x3ea6bc90	0.32565737
1	0xbe0a5ac4	-0.13511187
2	0xbdc6a6d0	-0.09699786
3	0x3e4893d8	0.19587648
4	0xbd69b462	-0.057056792
5	0xbe12b96f	-0.1432855
6	0xbe3b9835	-0.18319781
7	0xbb8398c4	-0.004016014
8	0xbe474200	-0.19458771
9	0xbeb045c3	-0.34428224
10	0x3c8e061f	0.017336903
11	0xbd2bb138	-0.041917056
12	0x3ccf0a84	0.025273569
13	0x3db662dd	0.089055754
14	0x3e0d8933	0.13821869
15	0xbc7552d8	-0.014973365
16	0xbdd6657a	-0.10468574
17	0x3cb42c39	0.021993743
18	0xbe8e51b6	-0.27796715
19	0x3ebefdbb	0.37302956
20	0x3e28ab0e	0.16471502
21	0x3d6d96ef	0.05800527
22	0xbe409015	-0.18804963
23	0x3e5aa786	0.21352968
24	0xbbdd4aba	-0.006753293
25	0x3ec46253	0.38356265
26	0x3c96b2cb	0.018395802
27	0x3d91a5fe	0.071117386
28	0x3dac23e8	0.08405286
29	0xbe41fefb	-0.18944924
30	0xbc30b48b	-0.010785232
31	0x3e2b9675	0.16756614
32	0xbdb1d1fd	-0.0868263
33	0xbd0e2508	-0.034703285
34	0xbd96e857	-0.07368534
35	0xbe8ddcbf	-0.27707478
36	0x3ddb60f8	0.10711855
37	0xbe818861	-0.2529936
38	0x3db9a9dd	0.09065602
39	0xbe5368ad	-0.206454
40	0x3ed8ab26	0.42318076
41	0x3e286a00	0.16446686
42	0xbe386093	-0.1800559
43	0x3cf42f09	0.029807584
44	0x3e6df6b8	0.23238647
45	0xbe5de383	-0.2166882
46	0x3e116583	0.1419888
47	0xbe0b21bf	-0.13587092
48	0xbda48378	-0.08032888
49	0x3e37315e	0.17889926
50	0x3dac5fdd	0.08416722
51	0xbe0b3d05	-0.13597496
52	0xbb074fd0	-0.0020646937
53	0xbd833ff5	-0.06408683
54	0xbd5d4594	-0.054021433
55	0x3af9ccf1	0.001905827
56	0x3dd85172	0.105624095
57	0x3e0d4bed	0.13798495
58	0x3dd2e93e	0.10298394
59	0x3d80f844	0.06297353
60	0xbe297aab	-0.165507
61	0x3d8af74c	0.067854494
62	0xbd113d65	-0.03545894
63	0xbd79e35c	-0.061007842
64	0x3c8b1be5	0.016981075
65	0x3da79c8c	0.08184156
66	0x3d028dba	0.031873442
67	0x3dd8298c	0.105547994
68	0xbd12ffe4	-0.035888568
69	0x3c98fe6c	0.018676005
70	0x3c59b6a1	0.013288171
71	0xbcf3802a	-0.0297242
72	0x3d909a16	0.070606396
73	0x3e1ed23b	0.15509884
74	0xbdc0201c	-0.093811244
75	0xbbcdb564	-0.006277727
76	0xbe1ef684	-0.15523726
77	0x3e40beed	0.18822832
78	0xbd8dd0d0	-0.069245934
79	0x3cafee3b	0.021475902
80	0x3de669ad	0.11250625
81	0xbd35bdf7	-0.044370618
82	0x3bdcc643	0.006737502
83	0x3d62bdca	0.05535678
84	0xbdb85005	-0.089996375
85	0xbdd9bd4d	-0.106318094
86	0xbe2e7108	-0.17035306
87	0xbe3d950c	-0.18513888
88	0x3cc598b9	0.024120675
89	0x3e67920f	0.2261431
90	0x3dd148bf	0.10218953
91	0xbc61354d	-0.013745618
92	0xbdc05aef	-0.09392344
93	0xbd92528e	-0.07144652
94	0xbd107be8	-0.035274416
95	0x3ccaaf8d	0.024741912
96	0xbdbd841e	-0.09253715
97	0xbd641712	-0.055686064
98	0x3cdfa6eb	0.027301272
99	0x3cce3491	0.02517155
100	0xbe028259	-0.12745036
101	0xbbd6b0fb	-0.0065518594
102	0xbdd5a637	-0.104320936
103	0xbd0de22e	-0.03463953
104	0xbda7d61c	-0.08195135
105	0xbc399949	-0.01132805
106	0xbd97747b	-0.07395264
107	0x3db545eb	0.088512264
108	0x3e222135	0.1583298
109	0xbcc01141	-0.023445727
110	0x3d14abb0	0.036296546
111	0xbce95737	-0.02848397
112	0xbce664fa	-0.028124321
113	0xbd45654c	-0.048192307
114	0x3db99ad0	0.09062731
115	0x3dd43d6e	0.10363279
116	0x3e07af9e	0.13250586
117	0x3cccf3d3	0.025018608
118	0x3cd0ac24	0.025472708
119	0xbd982ec7	-0.07430797
120	0x3db38125	0.08764867
121	0x3d879fd4	0.06622282
122	0xbdc2f0fd	-0.09518621
123	0xbdfb1793	-0.12260356
124	0x3e02c97e	0.12772176
125	0xbd98575e	-0.07438539
126	0xbdc4670c	-0.09589967
127	0x3e218519	0.15773429
128	0x3e1a09cc	0.150428
129	0xbc596660	-0.013269037
130	0x3c8d1fa5	0.017227003
131	0x3d9304c6	0.07178645
132	0x3e210018	0.15722692
133	0x3dde3cc3	0.10851433
134	0xbcf9b04f	-0.030479578
135	0x3dffa85d	0.124832846
136	0xbe4026b2	-0.18764761
137	0xbd078ebf	-0.033095118
138	0xbc6663ef	-0.014061912
139	0x3e3fd046	0.18731794
140	0xbdf1a735	-0.1179947
141	0x3d2a8922	0.041634686
142	0x3de1f044	0.11032155
143	0x3c1f8d68	0.009738304
144	0x3d78af86	0.060714267
145	0x3d01cd7f	0.031690117
146	0xbdb8c111	-0.090211995
147	0x3de88186	0.1135283
148	0x3d90883d	0.070572354
149	0x3caeca7a	0.021336783
150	0xbe23f631	-0.16011883
151	0x3cf95529	0.030436115
152	0xbc8a9f0d	-0.016921544
153	0x3e0d85c9	0.13820566
154	0x3e16692b	0.14688556
155	0xbd32cbba	-0.04365132
156	0xbe257322	-0.16157201
157	0xbc46588e	-0.012106074
158	0xbd7350ca	-0.05940322
159	0x3e2f8b0d	0.17142887
160	0x3e117fce	0.1420891
161	0xbe038354	-0.12843066
162	0x3da6de35	0.081478514
163	0x3ce62d35	0.028097728
164	0x3c754295	0.014969488
165	0xbdaf7a6c	-0.08568272
166	0xbca8d605	-0.020609865
167	0xbd556f5c	-0.052108154
168	0xbcc395c5	-0.023875127
169	0xbe3533ed	-0.1769559
170	0x3d05e86f	0.03269237
171	0xbdab5343	-0.0836549
172	0x3ca18c81	0.019720318
173	0x3dcf1da5	0.10113076
174	0x3d5f33d4	0.054492787
175	0xbd2d389c	-0.042290315
176	0x3e0b5122	0.13605168
177	0xbd478dfa	-0.048719384
178	0xbc881acc	-0.01661434
179	0xbd69307b	-0.056931
180	0xbb9079c5	-0.0044090473
181	0xbdbcfef1	-0.09228314
182	0xbcfd46e6	-0.030917596
183	0x3dee541f	0.116371386
184	0x3ccf5140	0.025307298
185	0xbdaf2100	-0.08551216
186	0xbdad4cb9	-0.08461899
187	0x3dfe1f03	0.12408259
188	0xbd1085c1	-0.035283808
189	0xbcd53bda	-0.026029516
190	0xbe525e7b	-0.20543854
191	0x3d87165f	0.06596064
192	0xbb22ba88	-0.002483042
193	0xbd128c41	-0.035778288
194	0xbd0fd750	-0.035117447
195	0x3de249fa	0.11049266
196	0x3e02d690	0.12777162
197	0x3cf4dd9a	0.029890824
198	0xb9790c24	-0.00023751013
199	0xbd910cff	-0.07082557
200	0xbd7d8fd1	-0.061904732
201	0xbdc70c00	-0.09719086
202	0x3d8ea933	0.06965866
203	0xbd06a34a	-0.03287057
204	0x3dff48b3	0.12465038
205	0x3d124833	0.035713386
206	0xbe1317e0	-0.14364576
207	0x3c196254	0.009361822
208	0x3de9ca1a	0.11415501
209	0xbc9ab530	-0.018885225
210	0xbc51e5e8	-0.012811162
211	0xbcbb842d	-0.022890175
212	0xbd034f6c	-0.032058164
213	0x3e40902b	0.18804996
214	0xbdff7ecf	-0.12475359
215	0xbd4d4272	-0.050112195
216	0xbe11f586	-0.14253816
217	0x3c6fb974	0.014631618
218	0xbdedcfb5	-0.116118826
219	0xbd8f949a	-0.070107654
220	0xbda94658	-0.0826537
221	0xbc0fc8fe	-0.008775948
222	0x3da5b315	0.08090798
223	0x3d273d46	0.04082992
224	0x3cace759	0.021106409
225	0x3da47a48	0.08031136
226	0x3ca5ff2a	0.020263273
227	0xbdc53df3	-0.096309565
228	0xbc702a64	-0.014658544
229	0xbccf20e1	-0.025284233
230	0xbcc8e8a1	-0.024524989
231	0xbdac2bd4	-0.08406797
232	0xbd038b7e	-0.032115452
233	0x3e308126	0.17236766
234	0xbdf57cf2	-0.11986722
235	0x3d2fea95	0.042948324
236	0x3d4e4be5	0.050365347
237	0x3e0d057e	0.13771626
238	0xbe0197ac	-0.12655514
239	0xbd90ea96	-0.07075994
240	0xbdf83f26	-0.121214196
241	0x3d8d8143	0.0690942
242	0x3d723ae8	0.05913821
243	0xbe16ef1b	-0.14739649
244	0x3d42e4b6	0.047581397
245	0x3d93c0ff	0.072145455
246	0x3cfaa19b	0.030594638
247	0x3e00e34f	0.12586711
248	0x3dceeddb	0.10103961
249	0xbb5fd96b	-0.003415669
250	0xbe4b751f	-0.19868897
251	0x3e05d412	0.1306918
252	0x3d1f8918	0.038949102
253	0xbd9ab456	-0.075539276
254	0x3d972f03	0.07382014
255	0x3e4f2863	0.2023025

bias f4 [87]
0	0xbdaf767c	-0.08567521
1	0xbdb738a0	-0.08946347
2	0xbe3b4e20	-0.18291521
3	0x3ce93c7b	0.028471222
4	0xbe14525c	-0.14484543
5	0xbe1ccbd5	-0.15312131
6	0x3debde50	0.11517012
7	0x3df3a873	0.118973635
8	0x3d7aae60	0.061201453
9	0xbdf7ac87	-0.12093454
10	0xbc1104ee	-0.008851273
11	0xbd061462	-0.032734282
12	0x3d47cc94	0.048779085
13	0x3d4186b0	0.04724759
14	0x3d67ceca	0.056593694
15	0xbda203da	-0.07910891
16	0x3d25c988	0.0404754
17	0xbdd5d689	-0.1044131
18	0xbe2bce12	-0.16777828
19	0x3d89ffe4	0.067382604
20	0x3e31e6e1	0.1737323
21	0xbd7dae08	-0.061933547
22	0x3de22af7	0.11043351
23	0x3dd8720d	0.105686285
24	0x3a7765b0	0.0009437455
25	0x3dcfcbd1	0.10146297
26	0x3c2d3a26	0.010572946
27	0x3e08c257	0.13355385
28	0x3d2fb35c	0.04289566
29	0x3ca6f4f4	0.020380475
30	0xbbd8b4c9	-0.006613348
31	0x3dd90f1d	0.10598586
32	0x3ddaaa6e	0.10677038
33	0x3e26d99b	0.16293947
34	0xbde84234	-0.11340752
35	0xbd079895	-0.033104498
36	0xbdb290cb	-0.08719023
37	0x3dc170e8	0.09445363
38	0xbe27efc4	-0.16400057
39	0xbdf78679	-0.120861955
40	0x3d900798	0.070326984
41	0xbd8bae4d	-0.068203546
42	0x3d135762	0.035972007
43	0xbc39e2f3	-0.011345613
44	0x3e06cae7	0.13163339
45	0x3df9a0e6	0.12188892
46	0x3e0c31b8	0.13690841
47	0xbdc33b33	-0.09532776
48	0x3ca77c02	0.020444874
49	0x3dbe4f94	0.09292522
50	0x3e09b45e	0.13447711
51	0x3dda86f7	0.10670274
52	0x3afe4be4	0.0019401279
53	0x3db93b28	0.09044486
54	0x3cb8672f	0.02251014
55	0x3df483ae	0.119391784
56	0x3d21ffb7	0.03955051
57	0x3e0936c0	0.13399792
58	0xbd34c28e	-0.044130854
59	0x3e07a865	0.13247831
60	0x3d39de4c	0.045378014
61	0x3cfa6ee5	0.030570457
62	0xbd8554f9	-0.06510348
63	0x3d123563	0.035695445
64	0xbcc5a81f	-0.024128018
65	0xbd9bbd43	-0.07604458
66	0xbdb4a561	-0.08820606
67	0x3e33c81b	0.17556803
68	0xbdf2d18a	-0.11856373
69	0xbd95a6b6	-0.07307188
70	0xbd423be1	-0.047420386
71	0x3deea232	0.1165203
72	0xbda0bc50	-0.07848418
73	0xbaa7e320	-0.0012808777
74	0x3d8bc260	0.068241835
75	0xbcd98001	-0.026550295
76	0x3cb468c1	0.022022607
77	0x3de19966	0.110155866
78	0x3d61b7bf	0.055106875
79	0x3dc8d1da	0.09805651
80	0xbd936095	-0.07196156
81	0x3e4b6eb5	0.1986645
82	0x3d0346ef	0.03205007
83	0x3dd5e3b1	0.10443819
84	0x3d21b3e2	0.03947819
85	0x3d934a59	0.07191915
86	0x3e62b4f1	0.22139336

bias f4 [5]
0	0xbad99445	-0.0016599974
1	0x3c9189b3	0.017765855
2	0x3c44e0d7	0.012016497
3	0xbb023cc7	-0.0019872652
4	0xbade10fa	-0.0016942315

lower_entries f4 [10]
0	0xbb2f59dc	-0.0026756441
1	0x3a370b8d	0.0006982617
2	0x3b29c163	0.002590262
3	0x3b178640	0.002312079
4	0x3ba874ec	0.0051408913
5	0x3aa99881	0.0012939126
6	0x3bcebdc0	0.006309241
7	0xbad61f38	-0.0016336208
8	0xbaeaad4c	-0.001790443
9	0xbb4fb369	-0.003169263

upper_entries f4 [10]
0	0xbbd744f1	-0.0065694978
1	0xba8eeaf0	-0.0010903757
2	0xbb1b92e4	-0.0023738677
3	0x3b870524	0.004120486
4	0x3a8908a3	0.0010454844
5	0xbbe9ca45	-0.007134708
6	0xb934b40c	-0.0001723321
7	0xb8c0fd06	-9.202403e-05
8	0x3a4fb6c8	0.000792366
9	0x3adc7751	0.0016820227

unconstrained_upper_diag f4 [5]
0	0x3f016d9b	0.5055787
1	0x3efd5d9f	0.4948549
2	0x3f039cd9	0.51411206
3	0x3ef45d14	0.47727263
4	0x3f001b71	0.5004187

weight f4 [50, 3]
0	0xbec685d5	-0.3877398
1	0xbe96d0a3	-0.29456052
2	0xbf04a556	-0.5181478
3	0xbdae840e	-0.08521281
4	0xbecc1a14	-0.39863646
5	0x3ed5747d	0.41690436
6	0xbedcfa7d	-0.43159857
7	0x3e186f5f	0.14886235
8	0xbefdd721	-0.49578193
9	0x3ec37c0e	0.38180584
10	0xbe792838	-0.24331748
11	0x3d40a96b	0.04703657
12	0xbdae82e3	-0.085210584
13	0x3e75edc2	0.24016479
14	0xbe99926c	-0.29994524
15	0x3e1d5009	0.15362562
16	0xbf0f6e93	-0.560281
17	0x3eea94ca	0.45816642
18	0x3f060255	0.5234731
19	0x3e8db984	0.276806
20	0x3f0821ca	0.5317656
21	0x3ec00952	0.3750711
22	0xbf169ef4	-0.58836293
23	0xbeeb20cf	-0.45923468
24	0x3ee8f385	0.4549829
25	0xbe525499	-0.20540084
26	0x3ea4e064	0.32202446
27	0x3f10070d	0.5626076
28	0xbe9b9230	-0.3038497
29	0xbf13fe7d	-0.57810193
30	0xbed50717	-0.41606972
31	0x3d1f7a6f	0.03893512
32	0xbed449a4	-0.41462433
33	0xbe78c8be	-0.24295327
34	0x3eb9f998	0.36323237
35	0xbf08f679	-0.5350109
36	0x3eb5cc6f	0.35507533
37	0xbee117d6	-0.43963498
38	0xbecdede7	-0.40220568
39	0x3ec433dc	0.38320816
40	0x3f12e0b3	0.57374114
41	0xbe1224fa	-0.14271918
42	0xbe940a82	-0.28914267
43	0xbdc9994b	-0.098436914
44	0xbe7cc2b5	-0.2468365
45	0x3c361ac5	0.011114781
46	0xbe27d30e	-0.16389105
47	0xbedf0a80	-0.43562698
48	0xbf1371ba	-0.5759541
49	0x3eed5988	0.4635737
50	0xbdaf31f4	-0.0855445
51	0xbd4bcd8d	-0.049756575
52	0xbc805306	-0.015664589
53	0x3ef819b7	0.4845712
54	0x3e16ccd9	0.1472658
55	0xbf0e0b46	-0.5548595
56	0xbec3b500	-0.3822403
57	0xbe84eba5	-0.25961033
58	0xbf081f4b	-0.5317275
59	0xbc34cc8e	-0.011035098
60	0xbeb345e5	-0.35014263
61	0x3efbcaee	0.4917826
62	0xbd4c83bd	-0.049930323
63	0x3ece33f1	0.40274003
64	0xbcebd811	-0.028789552
65	0x3ee6bd23	0.45066175
66	0x3dcfade2	0.101405874
67	0xbd054722	-0.03253854
68	0xbe64c3f1	-0.2234037
69	0xbe100515	-0.14064439
70	0x3f2b5b01	0.66935736
71	0x3e1ce15b	0.15320341
72	0xbca320bb	-0.019913068
73	0xbec0dce0	-0.37668514
74	0xbf0c2a02	-0.547516
75	0xbe177994	-0.14792472
76	0x3dbe7ca5	0.09301118
77	0x3f0658e7	0.52479404
78	0x3a860c41	0.0010227041
79	0x3ebe597c	0.37177646
80	0xbdc3f274	-0.09567729
81	0xbcb5df2b	-0.022201141
82	0x3d7a0f02	0.06104947
83	0xbee041ca	-0.43800193
84	0x3d008f14	0.03138645
85	0xbe427cda	-0.1899294
86	0xbef8684a	-0.48517066
87	0xbe8a4192	-0.2700315
88	0xbe2c969b	-0.16854326
89	0xbe4936a5	-0.19649751
90	0xbe2952ed	-0.1653554
91	0x3ec6b6f9	0.38811472
92	0xbe0a8c77	-0.13530146
93	0xbee06b1f	-0.43831727
94	0x3d07559a	0.03304062
95	0x3e99f5f3	0.30070457
96	0x3eadb6d8	0.3392856
97	0x3d7f2d29	0.062298927
98	0xbec25c17	-0.37960884
99	0xbe054bd7	-0.13017212
100	0x3f2a1ea8	0.6645303
101	0x3e5569be	0.20841119
102	0xbeffe995	-0.49982896
103	0xbeee5fd9	-0.465575
104	0x3e21606c	0.15759438
105	0x3ee9eb16	0.4568717
106	0xbd46d82a	-0.048545994
107	0x3e17b83f	0.14816378
108	0xbe8ae7c3	-0.27129945
109	0xbe5f0f71	-0.21783234
110	0xbee97d3b	-0.45603356
111	0xbe70ae7b	-0.23504059
112	0x3d99c3c1	0.0750804
113	0x3d4f41f4	0.050600007
114	0xbe836ba0	-0.2566805
115	0xbc090cb5	-0.008364846
116	0x3dac8d5c	0.084254
117	0xbf214374	-0.6299355
118	0x3ea2ab80	0.3177147
119	0xbdbe9ab6	-0.093068525
120	0xbe5eb3ee	-0.21748325
121	0xbe871c53	-0.26388797
122	0xbdb2e22e	-0.087345466
123	0xbed197cd	-0.40936127
124	0x3e7c51a5	0.2464052
125	0xbdbabaf3	-0.09117689
126	0xbe96ddf1	-0.29466203
127	0x3ec42951	0.38312772
128	0xbe5128ca	-0.20425716
129	0xbe85a0b3	-0.26099166
130	0xbcc26589	-0.023730056
131	0x3c9fbb55	0.019498507
132	0x3edd5581	0.43229297
133	0x3f07cbea	0.53045523
134	0x3e73cba5	0.23808153
135	0xbe894cf3	-0.2681652
136	0xbf1cd076	-0.61255586
137	0xbe017deb	-0.1264569
138	0xbdaff0cc	-0.0859085
139	0x3e3a5195	0.18195184
140	0xbdac7031	-0.08419836
141	0xbea318a6	-0.31854743
142	0x3d7c7729	0.061637077
143	0xbe08dcda	-0.13365498
144	0x3e74d86d	0.23910685
145	0x3e7326c4	0.23745257
146	0x3e5d0470	0.21583724
147	0x3d6fa56a	0.05850736
148	0xbe169698	-0.14705884
149	0xbef8df52	-0.4860788
