sbibm/tasks/slcp/files/num_observation_4/proposal.pt (torch, 333865 bytes, 83 tensors)

weight f4 [50, 2]
0.05368753 -0.73084587 0.7090203 -0.4501338 -0.64526343 -0.65529543 -0.37583527 0.3240767
-0.059927773 -0.17153452 0.21865152 -0.689149 0.43089265 0.3535389 -0.25762343 0.36830255
0.6517141 -0.4994755 -0.09280276 0.19522755 -0.605619 0.25294957 -0.33630124 -0.3569114
0.109964736 0.29472396 0.38311407 -0.57361746 -0.28087127 0.67242515 0.11035987 -0.19139898
0.5165253 -0.66741043 -0.6135224 0.07281025 -0.36067063 0.2094878 0.1704769 0.4205326
-0.10889619 -0.2856389 0.31219032 -0.3561826 -0.5948797 -0.4498676 0.37764364 0.17803761
0.45408663 -0.53756094 0.2791898 -0.54357845 -0.36344236 0.0876304 -0.74870765 -0.017560339
-0.6400135 0.06849564 0.78287506 0.0681449 0.042422317 -0.7345496 0.52942395 0.30212662
-0.5842555 0.50271535 -0.6428877 -0.3396857 -0.016438782 0.7395612 0.5640869 -0.4462595
0.5454055 0.37674445 -0.5574653 -0.12407195 0.36175132 -0.12561782 0.19248842 -0.4621409
0.04227228 0.6912077 -0.08272609 -0.51917744 -0.15214498 -0.29625273 0.3713878 -0.3167148
-0.65541613 -0.6566038 -0.47428438 0.48164433 0.3355902 -0.72889346 -0.23494692 -0.55775243
-0.71284264 -0.69742537 -0.39327967 0.485688
00000000: 75e7 5b3d b718 3bbf 5b82 353f f077 e6be
00000010: fc2f 25bf 71c1 27bf 7b6d c0be 62ed a53e
00000020: d376 75bd bfa6 2fbe 2fe6 5f3e 126c 30bf
00000030: f69d dc3e 0d03 b53e 38e7 83be 2792 bc3e
00000040: bcd6 263f 41bb ffbe 600f bebd bbe9 473e
00000050: d909 1bbf 9b82 813e ad2f acbe 17bd b6be
00000060: 3135 e13d 0fe6 963e 8727 c43e 98d8 12bf
00000070: 5cce 8fbe 0e24 2c3f 5b04 e23d 18fe 43be
00000080: 013b 043f 69db 2abf ce0f 1dbf 8a1d 953d
00000090: d2a9 b8be f883 563e 7f91 2e3e 0d50 d73e
000000a0: f704 dfbd 433f 92be 69d7 9f3e 915d b6be
000000b0: 094a 18bf 0c55 e6be 825a c13e 7e4f 363e
000000c0: 0b7e e83e 989d 09bf f7f1 8e3e f527 0bbf
000000d0: 1e15 babe 9177 b33d 4eab 3fbf b3da 8fbc
000000e0: edd7 23bf 7147 8c3d 806a 483f 8e8f 8b3d
000000f0: 06c3 2d3d 710b 3cbf 5488 073f 57b0 9a3e
00000100: c591 15bf f4b1 003f 4a94 24bf 49eb adbe
00000110: a0aa 86bc e253 3d3f 0068 103f 207c e4be
00000120: b29f 0b3f a6e4 c03e 0cb6 0ebf 6f19 febd
00000130: 7837 b93e f5a1 00be af1b 453e bb9d ecbe
00000140: b325 2d3d fdf2 303f 4c6c a9bd d0e8 04bf
00000150: e5cb 1bbe 70ae 97be 8b26 be3e 7128 a2be
00000160: 5ac9 27bf 3017 28bf 67d5 f2be 169a f63e
00000170: 7bd2 ab3e c398 3abf ed95 70be ddc8 0ebf
00000180: db7c 36bf 788a 32bf f45b c9be 19ac f83e

bias f4 [50]
-0.6266243 0.2142301 -0.23888677 0.67344916 -0.67334116 -0.76206887 0.3272613 0.74949443
-0.16150913 -0.5174218 -0.10963738 -0.0021955217 -0.67963004 0.4960656 -0.11951107 -0.25243858
-0.4921415 -0.7250655 0.5541406 -0.69942504 0.6404805 0.5402004 -0.46207818 -0.4251061
0.4974121 -0.33039984 0.21153075 0.28746077 0.1836123 0.5942039 0.28585312 0.4298268
-0.6163452 0.0472117 -0.701279 0.2491883 -0.013960194 -0.33077595 -0.75830454 0.115659714
-0.0023829767 0.17182848 -0.041966025 -0.54349136 0.2960773 0.39396885 0.60891247 -0.09287859
-0.33914876 -0.30046695
00000000: 736a 20bf 235f 5b3e bc9e 74be 2a67 2c3f
00000010: 1660 2cbf f216 43bf cb8e a73e dede 3f3f
00000020: a662 25be c175 04bf 9089 e0bd bee2 0fbb
00000030: 3cfc 2dbf 4ffc fd3e 38c2 f4bd a13f 81be
00000040: f8f9 fbbe e59d 39bf 29dc 0d3f 850d 33bf
00000050: 88f6 233f 934a 0a3f 8395 ecbe 82a7 d9be
00000060: ccac fe3e 2b2a a9be 849b 583e 0f2e 933e
00000070: dd04 3c3e bf1d 183f 575b 923e 4212 dc3e
00000080: cdc8 1dbf 0e61 413d 0587 33bf 382b 7f3e
00000090: 4cb9 64bc 775b a9be 3f20 42bf 00df ec3d
000000a0: b72b 1cbb cef3 2f3e 91e4 2bbd 4022 0bbf
000000b0: 7297 973e 49b6 c93e b0e1 1b3f 2137 bebd
000000c0: e8a4 adbe ced6 99be

weight f4 [50, 50]
0.027575072 0.095682226 -0.034418896 0.057901863 0.11210834 -0.1638303 0.08931161 -0.06655521
0.074215725 -0.10231951 -0.30843738 -0.023366945 0.16297385 -0.08187787 0.035036307 -0.2347348
-0.22147022 -0.25319123 -0.08900593 -0.123341374 0.024808977 0.09309449 -0.10077342 0.23205358
-0.07406677 -0.16019936 -0.08020686 0.045931444 -0.07967156 0.035311326 -0.022930587 -0.14875981
0.033156883 -0.008431047 -0.1811665 0.11140285 0.018082604 -0.07444028 0.37869385 -0.049636856
0.20854689 0.0286794 -0.060287613 -0.32966977 0.24264367 -0.25077367 0.052531473 0.05419856
-0.051873647 -0.19704786 -0.24691615 0.0029252102 -0.114417836 0.13298817 0.13917087 -0.12990384
-0.055211842 0.06221197 -0.002958146 -1.2814326 0.065486 0.09356767 -0.43794814 -0.031225942
-0.033278838 -0.008901964 0.06824679 -0.20147286 0.04826093 0.28916776 0.08967928 0.058931798
-0.20223552 0.010787063 -0.04025684 0.026864735 -0.124738015 0.020097895 -0.040087778 0.10118928
-0.056165554 -0.19782971 -0.06437466 0.1732448 -0.081014715 -0.019134263 0.023695115 -0.13593607
-0.5670642 0.06992579 -0.069791734 -0.09632651 -0.121253796 0.22251372 -0.03166551 0.1535286
0.14553683 0.031774327 0.076160215 -0.18418 0.31170085 -0.7187429 -0.10477543 0.096550986
-0.34458354 0.31696722 0.059182383 0.008926598 -0.53185374 -0.97378093 -0.023484318 -0.052082464
-1.365115 0.121652365 0.031239402 -0.031440254 0.11033339 -0.31304997 0.09140069 -0.28299487
0.17849955 0.05828094 -0.0020892655 -0.1482093 0.016897764 0.10495692 0.12672476 0.14102735
0.012344655 -0.13561636 -0.1549289 -0.11665598 -0.12181255 -0.053754978 -0.23668587 -0.2847126
0.2666983 -0.1826812 0.052408546 0.07334373 0.053224985 -0.082496926 -0.016806832 -0.6820524
0.030832613 -0.077577926 -0.05286339 0.1085822 0.055280734 0.0013127895 -0.096234985 -0.027701115
0.119284615 0.016792443 0.5468316 -0.46585324 0.10308871 0.082147636 -0.111412205 -0.390323
0.14252824 0.20452847 0.28251532 0.0033307907 -0.13615924 -0.7935984 -0.43783563 -0.109316766
-0.10187517 0.21948618 0.05670095 -0.18308909 0.13032882 0.18992642 -0.1390444 -0.33323726
0.01997282 -0.13550021 -0.11062567 -0.044106655 -0.1412935 0.09563983 0.031916533 0.17310663
0.20809038 0.13771316 0.14869145 0.06990517 0.028382929 0.020374399 0.09325784 0.07654244
0.034868814 -0.107446246 0.19932073 0.06417222 -0.121466585 0.023650287 0.08322922 2.0188163e-05
0.19512025 0.04941768 -0.13085435 0.015981486 -0.5884347 0.21286029 -0.24670757 0.13768639
0.17681207 0.32712862 -0.06704115 0.049099445 -0.42397738 -0.12319658 0.0902343 0.20228954
0.12975535 -0.21791603 -0.009662041 -0.51715714 -0.04812023 -0.08377949 -0.26048782 -0.032375123
-0.105158634 0.23568359 0.13139412 0.030307023 0.01529741 -0.056522314 0.15614319 -0.2073333
-0.17161569 -0.122001536 0.026298916 0.019313555 0.06773035 -0.17423068 0.15818442 0.16956398
0.055631705 0.08697859 -0.018428518 0.16698134 0.1412572 0.26729935 0.012907581 -0.008693698
0.053610753 0.16172516 -0.13116093 0.06723327 -0.797445 0.07224081 0.07879131 -0.030356511
00000000: 1ee5 e13c 0bf5 c33d d4fa 0cbd 812a 6d3d
00000010: 0f99 e53d 21c3 27be 01e9 b63d 194e 88bd
00000020: 6afe 973d e48c d1bd 81eb 9dbe 096c bfbc
00000030: 9ee2 263e 96af a7bd 3b82 0f3d 525e 70be
00000040: 17c9 62be 48a2 81be be48 b6bd 679a fcbd
00000050: 323c cb3c 53a8 be3d 4b62 cebd 749f 6d3e
00000060: 52b0 97bd 4d0b 24be 7f43 a4bd 9c22 3c3d
00000070: d82a a3bd 9ca2 103d edd8 bbbc 7e54 18be
00000080: 83cf 073d 6022 0abc b683 39be 2d27 e43d
00000090: f821 943c 2574 98bd 29e4 c13e 0450 4bbd
000000a0: 518d 553e 10f1 ea3c 25f0 76bd 7aca a8be
000000b0: 9577 783e 6865 80be 3e2b 573d 4fff 5d3d
000000c0: 7679 54bd eac6 49be 96d7 7cbe e2b4 3f3b
000000d0: e653 eabd 0d2e 083e cf82 0e3e 8305 05be
000000e0: d025 62bd fbd1 7e3d 74dd 41bb fc05 a4bf
000000f0: 861d 863d 68a0 bf3d bd3a e0be 8ccd ffbc
00000100: 644f 08bd 8bd9 11bc f9c4 8b3d e74e 4ebe
00000110: 41ad 453d cc0d 943e c5a9 b73d 7862 713d
00000120: d416 4fbe 39bc 303c 5be4 24bd 6f13 dc3c
00000130: a576 ffbd 57a4 a43c 1533 24bd 533c cf3d
00000140: da0d 66bd df93 4abe ddd6 83bd 1667 313e
00000150: 0beb a5bd 75bf 9cbc 421c c23c d332 0bbe
00000160: 1f2b 11bf 4135 8f3d f8ee 8ebd d546 c5bd
00000170: e953 f8bd a3da 633e b2b3 01bd 9a36 1d3e
00000180: 9b07 153e cc25 023d e3f9 9b3d af99 3cbe
00000190: 4197 9f3e 89ff 37bf 8094 d6bd 86bc c53d
000001a0: 416d b0be 8749 a23e 3a69 723d de40 123c
000001b0: 9127 08bf b549 79bf 2f62 c0bc 6c54 55bd
000001c0: 17bc aebf e024 f93d c6e9 ff3c 7fc7 00bd
000001d0: 79f6 e13d 1648 a0be 4930 bb3d b4e4 90be
000001e0: 96c8 363e ffb7 6e3d 0fec 08bb 2ec4 17be
000001f0: 2e6d 8a3c a7f3 d63d 23c4 013e 7969 103e
00000200: 3c41 4a3c 04df 0abe aea5 1ebe 55e9 eebd
00000210: dc78 f9bd 2e2e 5cbd c85d 72be dac5 91be
00000220: ae8c 883e c810 3bbe 58aa 563d 3d35 963d
00000230: 7102 5a3d 26f4 a8bd 7bae 89bc fc9a 2ebf
00000240: ad94 fc3c 2de1 9ebd 4887 58bd 5860 de3d
00000250: 0d6e 623d e811 ac3a d916 c5bd 73ed e2bc
00000260: 7e4b f43d 4e90 893c 28fd 0b3f 5184 eebe
00000270: 2c20 d33d 053d a83d 152c e4bd 6bd8 c7be
00000280: ecf2 113e e96f 513e d9a5 903e 6549 5a3b
00000290: 546d 0bbe 4429 4bbf fe2b e0be 78e1 dfbd
000002a0: eea3 d0bd fcc0 603e 413f 683d b57b 3bbe
000002b0: eb74 053e 127c 423e a861 0ebe 139e aabe
000002c0: 0a9e a33c 91c0 0abe b68f e2bd 2ea9 34bd
000002d0: 3eaf 10be d1de c33d e9ba 023d dd42 313e
000002e0: a515 553e ae04 0d3e 9242 183e 712a 8f3d
000002f0: 5183 e83c 36e8 a63c f7fd be3d 48c2 9c3d
00000300: 9ad2 0e3d c70c dcbd bc1a 4c3e ba6c 833d
00000310: 79c3 f8bd 3fbe c13c 1574 aa3d c059 a937
00000320: 9acd 473e 316a 4a3d affe 05be 9beb 823c
00000330: a8a3 16bf 0cf8 593e e9a0 7cbe a9fd 0c3e
00000340: 390e 353e 677d a73e df4c 89bd 801c 493d
00000350: 9013 d9be 7d4e fcbd c3cc b83d fd24 4f3e
00000360: 96de 043e 6125 5fbe 8a4d 1ebc 6964 04bf
00000370: b819 45bd 9594 abbd a95e 85be c79b 04bd
00000380: 695d d7bd 0a57 713e 2e8c 063e 6f46 f83c
00000390: fda1 7a3c f183 67bd 00e4 1f3e 2e4f 54be
000003a0: 06bc 2fbe f1db f9bd d370 d73c 7637 9e3c
000003b0: 36b6 8a3d 8769 32be 19fb 213e 2ea2 2d3e
000003c0: 12de 633d d521 b23d 67f7 96bc 28fd 2a3e
000003d0: baa5 103e 76db 883e 527a 533c 0370 0ebc
000003e0: f396 5b3d 489b 253e 0d4f 06be 99b1 893d
000003f0: 5b25 4cbf fdf2 933d 575d a13d 38ae f8bc

bias f4 [50]
0.09116394 0.092595965 0.14850713 0.04689582 0.069411956 -0.09041543 -0.2328126 -0.09080575
-0.07017166 -0.034308616 0.06563797 -0.013997109 -0.072053514 -0.0222915 -0.0015839855 -0.113611504
-0.15350103 0.10580968 -0.022357488 0.23138557 0.08941673 0.023204077 0.051539335 -0.059735384
-0.120170064 -0.095622465 0.0003185927 -0.07010913 -0.03294461 0.165626 0.12379001 0.095128216
-0.038827103 0.19286296 -0.080676645 0.029846035 0.036846187 0.012408121 0.07991605 0.19013536
0.0077444 0.26317945 -0.32561395 -0.07698307 -0.007325 -0.06548284 0.16909665 -0.1043233
0.05331893 -0.10231649
00000000: 29b4 ba3d f4a2 bd3d 4112 183e d515 403d
00000010: db27 8e3d ba2b b9bd 6d66 6ebe 5df8 b9bd
00000020: 29b6 8fbd 3187 0cbd 336d 863d 2154 65bc
00000030: cb90 93bd aa9c b6bc bc9d cfba 26ad e8bd
00000040: 602f 1dbe bfb2 d83d 0d27 b7bc 57f0 6c3e
00000050: 1e20 b73d 7a16 be3c e91a 533d 17ad 74bd
00000060: b91b f6bd b6d5 c3bd ca08 a739 6095 8fbd
00000070: edf0 06bd dd99 293e 9e85 fd3d 95d2 c23d
00000080: 2b09 1fbd de7d 453e cc39 a5bd ac7f f43c
00000090: 07ec 163d 6e4b 4b3c 07ab a33d d8b2 423e
000000a0: bcc4 fd3b 75bf 863e dfb6 a6be 4da9 9dbd
000000b0: 8e06 f0bb de1b 86bd ac27 2d3e 74a7 d5bd
000000c0: f364 5a3d 4f8b d1bd

weight f4 [50, 50]
0.11487107 0.035888888 -0.041460615 0.07871107 0.08981804 0.05654067 0.09128223 -0.23953499
-0.031520143 0.13055842 0.104127966 0.17394505 0.059605293 -0.072441556 0.16223212 -0.10131287
-0.033163458 0.10990965 0.07106838 0.047435924 -0.056980968 0.053257555 -0.18361215 0.09655248
-0.13725474 0.16290767 0.14948165 0.07813224 0.054524995 -0.024197929 0.06589422 -0.043722447
0.042132664 0.050304525 0.0009799926 -0.1638238 -0.022053294 0.07914338 -0.19486618 0.10634805
0.13672042 -0.15417397 0.021687686 0.07888709 -0.05659773 5.8549766e-05 -0.12111647 -0.00066667324
0.09263114 0.030459285 0.040152114 0.023612037 0.16292715 -0.06614368 0.02994256 0.039768506
-0.05611653 -0.06516506 0.06695619 0.03538216 0.11916775 0.082412064 -0.029854756 0.10846324
0.06750062 -0.10500006 -0.019297063 -0.0038371913 -0.086113535 0.08082974 -0.116215974 -0.02403839
-0.029923603 -0.0014473605 -0.05833044 -0.21656883 -0.0076456647 0.005655123 -0.07302137 0.064095736
-0.06568904 0.003756591 0.06263094 0.09322758 -0.0003753909 -0.07006367 -0.0905686 0.010557763
0.027232314 0.10989391 0.06768319 -0.007145555 -0.12169223 0.095219 -0.028324822 -0.00092287356
-0.07401509 0.00022912861 0.21785152 -0.04916364 0.08202275 0.064467005 -0.15767854 -0.011277426
0.08285332 0.041264128 0.055679835 0.019996893 0.021717066 0.07788078 0.028006632 0.050869893
0.098346 -0.043403037 0.008967358 0.010724571 0.11376503 0.06751402 -0.001986204 -0.041438885
-0.17360921 0.03624521 0.013480612 0.010369684 0.0045620403 0.05295235 0.036291696 0.032712862
-0.11652019 0.08786289 -0.023687255 0.086456336 0.088695616 0.022532234 -6.359959e-05 0.042469285
0.025603559 -0.026757205 -0.15072072 -0.15288284 0.059968915 -0.20901482 -0.015458842 0.10881926
0.063021034 0.0006936233 -0.011271099 0.00046836783 0.08506553 0.039477564 0.065652795 -0.021892726
0.12696663 -0.07491425 0.019436438 -0.033068355 0.015929138 0.00411165 -0.01524957 0.0022701512
-0.13999456 0.07844627 0.0045901076 -0.00886639 -0.010863654 0.03262779 -0.0014657388 -0.05169899
-0.100625694 0.12680776 -0.4970895 0.08456969 -0.07088269 -0.063915595 -0.051479176 0.013761129
0.084756866 -0.039794154 -0.054784995 0.063813716 -0.00016360733 0.0017856649 -0.0381427 -0.13685903
0.00090997905 0.18003298 -0.009752603 -0.024832496 0.048761815 0.2515298 -0.0041348175 0.099037714
-0.02562761 0.02469245 -0.0032693702 0.00020741034 -0.21700345 0.0007282099 0.0032324274 -0.043923527
0.030398628 -0.1076122 -0.15928157 0.052946426 0.19654687 -0.110854745 0.23696801 0.18064204
-0.055566218 -0.0022974806 -0.006248355 -0.12327614 0.023082202 0.06558337 -0.06393424 0.20637672
0.162319 -0.14049995 -0.057532325 -0.17389533 -0.03817496 -0.050134443 0.08677814 0.061115086
0.18013062 0.111633055 0.14112313 0.126091 -0.013452197 0.1732481 -0.032674063 0.0024979836
0.019667096 0.03375673 -0.00073573977 -0.006438238 -0.049115106 0.038744755 0.055297986 -0.32625988
0.003401779 -0.09706848 0.27854726 -0.15805718 0.04423936 0.00039680494 0.04459472 -0.0008500251
0.07265566 -0.119436726 -0.014439344 -0.073526174 -0.026790649 -0.069556676 0.012796751 -0.00022192571
00000000: 8641 eb3d 3a00 133d 9bd2 29bd 4533 a13d
00000010: 85f2 b73d 3197 673d 2ef2 ba3d a948 75be
00000020: 441b 01bd 1bb1 053e 0b41 d53d a71e 323e
00000030: ae24 743d 3d5c 94bd 2d20 263e 1f7d cfbd
00000040: 68d6 07bd 5018 e13d 4c8c 913d 2c4c 423d
00000050: e064 69bd 9824 5a3d d304 3cbe 4ebd c53d
00000060: 828c 0cbe 45d1 263e b811 193e cc03 a03d
00000070: 9a55 5f3d bc3a c6bc 8cf3 863d 4f16 33bd
00000080: 4d93 2c3d 1e0c 4e3d 1873 803a 6dc1 27be
00000090: 1ca9 b4bc ed15 a23d 008b 47be 02cd d93d
000000a0: 7000 0c3e c8df 1dbe 60aa b13c 8e8f a13d
000000b0: 05d3 67bd 5593 7538 e90b f8bd afc3 2eba
000000c0: 65b5 bd3d c085 f93c 8b76 243d 086e c13c
000000d0: 60d6 263e 5676 87bd 194a f53c 4de4 223d
000000e0: 72da 65bd 4275 85bd 5420 893d e2ec 103d
000000f0: 390e f43d a8c7 a83d f691 f4bc fa21 de3d
00000100: c43d 8a3d 450a d7bd e014 9ebc 6379 7bbb
00000110: 4b5c b0bd 108a a53d a402 eebd 28ec c4bc
00000120: 5822 f5bc 5cb5 bdba e6eb 6ebd 38c4 5dbe
00000130: 7c88 fabb 9c4e b93b 3a8c 95bd a044 833d
00000140: fa87 86bd 2331 763b a644 803d 1aee be3d
00000150: 1dd0 c4b9 8b7d 8fbd 087c b9bd 78fa 2c3c
00000160: 4d16 df3c 0f10 e13d 7c9d 8a3d 4325 eabb
00000170: c739 f9bd 2e02 c33d 7509 e8bc ffec 71ba
00000180: 3995 97bd 3e42 7039 7814 5f3e d05f 49bd
00000190: 8bfb a73d 4707 843d 7c76 21be f4c4 38bc
000001a0: 00af a93d 9304 293d 8a10 643d 86d0 a33c
000001b0: fde7 b13c f57f 9f3d 2a6e e53c f35c 503d
000001c0: a169 c93d 62c7 31bd d3eb 123c 1cb6 2f3c
000001d0: a4fd e83d ca44 8a3d f92a 02bb d2bb 29bd
000001e0: 9dc6 31be db75 143d c9dd 5c3c 9be5 293c
000001f0: 2b7d 953b 90e4 583d 9aa6 143d ecfd 053d
00000200: 23a2 eebd 75f1 b33d c60b c2bc 0510 b13d
00000210: 0ca6 b53d 8595 b83c c560 85b8 46f4 2d3d
00000220: 8ebe d13c ed31 dbbc 8856 1abe 528d 1cbe
00000230: f7a1 753d fb07 56be 1547 7dbc a2dc de3d
00000240: 2c11 813d 46d4 353a 6aaa 38bc 448f f539
00000250: d636 ae3d 3ab3 213d f974 863d 6058 b3bc
00000260: 8a03 023e a46c 99bd 2a39 9f3c af72 07bd
00000270: d37d 823c 05bb 863b 55d9 79bc d1c6 143b
00000280: bc5a 0fbe 70a8 a03d 9d68 963b 5644 11bc
00000290: 78fd 31bc b8a4 053d 081e c0ba 52c2 53bd
000002a0: d814 cebd e5d9 013e 8482 febe e032 ad3d
000002b0: f22a 91bd 2ee6 82bd d4db 52bd 5c76 613c
000002c0: 0295 ad3d 32ff 22bd 3b66 60bd c4b0 823d
000002d0: 028e 2bb9 f90c ea3a 853b 1cbd c624 0cbe
000002e0: a98b 6e3a 915a 383e 62c9 1fbc 856d cbbc
000002f0: 78ba 473d 84c8 803e 5d7d 87bb 49d4 ca3d
00000300: fef0 d1bc d247 ca3c ee42 56bb 4a7c 5939
00000310: 2736 5ebe 57e5 3e3a 22d7 533b 28e9 33bd
00000320: 8b06 f93c c963 dcbd b51a 23be 5ade 583d
00000330: 9543 493e d007 e3bd bea7 723e 3afa 383e
00000340: 6799 63bd 5491 16bb 00bf ccbb 3378 fcbd
00000350: e316 bd3c 9350 863d f4ef 82bd 6b54 533e
00000360: f436 263e 38df 0fbe 04a7 6bbd 9e11 32be
00000370: 595d 1cbd c659 4dbd bdb8 b13d d053 7a3d
00000380: 2974 383e df9f e43d 9582 103e 001e 013e
00000390: 9b66 5cbc f367 313e 3dd5 05bd 36b5 233b
000003a0: e41c a13c 7f44 0a3d a9de 40ba dbf7 d2bb
000003b0: ec2c 49bd d2b2 1e3d 2480 623d 890b a7be
000003c0: 62f0 5e3b d7cb c6bd bf9d 8e3e bed9 21be
000003d0: 5534 353d 420a d039 f4a8 363d 38d4 5eba
000003e0: 7ecc 943d 3e9b f4bd 0093 6cbc e494 96bd
000003f0: 1078 dbbc bb73 8ebd 77a9 513c bbb4 68b9

bias f4 [50]
-0.024427718 -0.04041057 0.03334469 0.031133818 -0.07280999 -0.017405389 0.03549261 0.052345026
-0.0111144995 -0.039683636 -0.0006409706 0.0064101643 -0.13394639 0.04402182 -0.0067302417 -0.008217977
0.056977 -0.021628719 0.0035628541 -0.08201384 0.04838076 0.054319173 -0.012639903 -0.032211073
-0.021380702 0.0059239888 0.011206598 0.018991271 0.0008919521 0.05425317 0.04134672 0.059896167
-0.057271518 0.0022345984 -0.036190093 0.08601831 0.009276796 0.046643823 -0.06226865 -0.02229131
0.0041368282 0.037080728 -0.00079299 -0.018709967 0.046883244 0.00042289234 -0.081527926 0.014000143
-0.024664816 -0.042854637
00000000: a31c c8bc 8e85 25bd 7194 083d 590c ff3c
00000010: 671d 95bd bf95 8ebc b360 113d bd67 563d
00000020: 9719 36bc 4f8b 22bd cf06 28ba 5b0c d23b
00000030: 3e29 09be 3950 343d 5c89 dcbb b2a4 06bc
00000040: b760 693d b62e b1bc c67e 693b dff6 a7bd
00000050: e72a 463d c87d 5e3d 9917 4fbc c2ef 03bd
00000060: 9526 afbc 051e c23b e19b 373c 9593 9b3c
00000070: e4d1 693a 9238 5e3d 2e5b 293d af55 753d
00000080: 8a95 6abd 5772 123b 103c 14bd 5e2a b03d
00000090: b4fd 173c 980d 3f3d 690d 7fbd 449c b6bc
000000a0: 3b8e 873b f6e1 173d a8e0 4fba a545 99bc
000000b0: a508 403d a6b7 dd39 1df8 a6bd db60 653c
000000c0: de0d cabc 5888 2fbd

weight f4 [50, 50]
-0.24722779 0.1125436 0.118763454 -0.03528015 -0.23226646 0.094855614 -0.040053118 -0.07523324
0.067561075 0.052036077 0.25183073 -0.061140485 -0.30774212 0.17011936 -0.061373938 -0.06887881
-0.054810032 0.15498218 0.09488579 -0.5332944 -0.09497557 -0.10604429 -0.0821293 0.12718211
0.012366365 -0.16301405 -0.047913108 0.100215286 -0.054753706 0.10057262 -0.0735593 -0.03125238
0.023265293 0.07262584 -0.4865569 0.1360381 0.11922904 -0.01557638 0.014741524 -0.076466724
0.08169585 -0.038573716 -0.10729421 -0.087417394 0.17326239 -0.064807884 0.1427356 0.0297351
-0.11477439 -0.019784125 -0.0816514 -0.06166259 0.014732689 0.060536273 -0.093244046 0.024905393
-0.120156944 0.039260473 -0.035683703 0.11841301 -0.13365202 0.06257616 0.059190564 0.06293229
0.18776804 0.07265685 -0.17171825 -0.28747416 0.06316227 0.103252195 -0.028448174 -0.09894416
0.045697015 0.43631995 0.055602036 0.23933364 -0.1393354 0.09367452 0.09792028 0.029475227
0.0773882 -0.14444406 -0.07411176 0.03356998 -0.08593938 -0.027648972 0.13035618 -0.016011735
0.15195741 0.01646251 -0.37780678 0.1332842 -0.010288478 0.37276474 -0.077680714 0.00032014612
-0.056938026 0.14520152 0.10655225 -0.60396945 0.20502189 -0.13220805 0.040094167 0.20425811
-0.22113162 0.10174517 0.0756767 0.038539566 0.17351426 0.12379566 0.026104586 0.10485045
0.22726783 -0.12529448 -0.04809436 0.17510055 0.22287071 0.09241842 0.1526742 -0.22323301
-0.2429346 -0.045122117 0.18841217 0.16103525 0.03125468 0.05577568 -0.15468194 -0.1396218
-0.08952546 0.11508634 -0.013918273 0.047673162 0.06848334 0.12034256 -0.1846897 -0.029151114
0.17857736 -0.18673213 0.22288881 -0.019765155 0.09551302 -0.03985389 0.02848487 0.26270062
0.07869201 0.063118376 -0.13773188 -0.032497056 0.08459186 -0.09036168 -0.03767709 -0.048972882
-0.0376139 0.06259521 -0.35207883 -0.038313232 -0.027174767 0.1675518 -0.27349478 0.061771907
-0.022567108 -0.07649536 0.35309228 0.008405693 0.0102257915 0.1362926 -0.29216802 -0.048979085
0.102747664 -0.028845752 -0.019872833 0.11834135 -0.09574661 -0.07741178 -0.12406197 -0.10582436
0.13711427 0.15294352 -0.087551095 -0.1695141 0.23962238 -0.3260957 0.004440118 0.14007573
0.038412146 -0.28441852 0.17674984 0.09717298 0.18188666 0.066381514 -0.054099366 0.12787722
0.16929969 -0.068777986 0.06736372 0.0413724 -0.18949528 -0.032442603 -0.0060636248 0.012123484
-0.29721248 0.09989071 -0.0768715 -0.10772416 -0.32020923 -0.059051827 0.009417265 -0.08482925
-0.038737077 0.053352643 0.19380265 0.17499289 -0.4590281 0.010978048 0.20049742 -0.17516051
-0.10924568 0.13202253 -0.15040982 0.01852864 0.011116097 -0.02032537 -0.09158134 0.10923532
0.1811053 -0.12129957 0.021364883 -0.081640296 0.012287695 -0.055527385 -0.06847943 0.05804995
-0.08163167 -0.039338168 -0.1818816 0.036846306 0.192321 0.16180122 0.02138199 0.22741237
0.14358668 0.16872303 -0.06662722 0.37597948 0.023482688 -0.03801699 -0.016384354 0.08412209
0.15704009 0.21429902 -0.05389176 0.14090055 0.1965587 -0.16161449 -0.24541989 -0.17851827
00000000: 4829 7dbe 427d e63d 413a f33d eb81 10bd
00000010: 42d7 6dbe a943 c23d bd0e 24bd e313 9abd
00000020: 765d 8a3d c823 553d f5ef 803e 726e 7abd
00000030: 6090 9dbe c533 2e3e 3d63 7bbd 5510 8dbd
00000040: 7c80 60bd a6b3 1e3e 7b53 c23d fb85 08bf
00000050: 8d82 c2bd c02d d9bd 6833 a8bd 073c 023e
00000060: 4b9c 4a3c 28ed 26be 8940 44bd ac3d cd3d
00000070: 6c45 60bd 05f9 cd3d 42a6 96bd 7f02 00bd
00000080: db96 be3c dbbc 943d fc1d f9be 924d 0b3e
00000090: 5b2e f43d 1334 7fbc 6f86 713c 969a 9cbd
000000a0: 2750 a73d 79ff 1dbd 11bd dbbd e407 b3bd
000000b0: b26b 313e ffb9 84bd 4829 123e 0697 f33c
000000c0: d60e ebbd 5112 a2bc d938 a7bd e991 7cbd
000000d0: 6061 713c e2f4 773d bcf6 bebd 6506 cc3c
000000e0: d814 f6bd 97cf 203d 1329 12bd 8582 f23d
000000f0: 13dc 08be ee27 803d ce71 723d a5e2 803d
00000100: 4446 403e 1dcd 943d e9d6 2fbe d02f 93be
00000110: 385b 813d e375 d33d 250c e9bc 3ca3 cabd
00000120: cb2c 3b3d 5465 df3e f6be 633d e113 753e
00000130: f0ad 0ebe 6dd8 bf3d 6e8a c83d 0876 f13c
00000140: b47d 9e3d 25e9 13be e8c7 97bd ad80 093d
00000150: fc00 b0bd 1980 e2bc 177c 053e 0b2b 83bc
00000160: b99a 1b3e 63dc 863c e46f c1be a77b 083e
00000170: 0191 28bc 05db be3e 1117 9fbd 49d9 a739
00000180: d937 69bd b5af 143e 1138 da3d be9d 1abf
00000190: 42f1 513e 8c61 07be c839 243d 0a29 513e
000001a0: 5470 62be c65f d03d 63fc 9a3d aadb 1d3d
000001b0: b9ad 313e 9488 fd3d 49d9 d53c d5bb d63d
000001c0: e6b8 683e 324d 00be 97fe 44bd 8f4d 333e
000001d0: 3838 643e de45 bd3d a056 1c3e 3297 64be
000001e0: d9c3 78be f8d1 38bd 1fef 403e 6de6 243e
000001f0: e804 003d 0a75 643d f164 1ebe 04f9 0ebe
00000200: 2059 b7bd 63b2 eb3d 7809 64bc ef44 433d
00000210: fe40 8c3d 2976 f63d 4c1f 3dbe 51ce eebc
00000220: fcdc 363e b536 3fbe f73c 643e 89ea a1bc
00000230: 559c c33d d53d 23bd 1a59 e93c b280 863e
00000240: 4729 a13d 3544 813d 9609 0dbe a21b 05bd
00000250: 7f3e ad3d 8b0f b9bd 4b53 1abd ca97 48bd
00000260: 0811 1abd eb31 803d ad43 b4be 56ee 1cbd
00000270: 9e9d debc b392 2b3e 8207 8cbe 8a04 7d3d
00000280: a8de b8bc 99a9 9cbd 83c8 b43e 08b8 093c
00000290: 148a 273c 4a90 0b3e 0c97 95be 4b9e 48bd
000002a0: 5e6d d23d ed4d ecbc 5acc a2bc f35c f23d
000002b0: cc16 c4bd 118a 9ebd 3414 febd 71ba d8bd
000002c0: af67 0c3e 3a9d 1c3e fd4d b3bd 1b95 2dbe
000002d0: 925f 753e 04f6 a6be 697e 913b 0370 0f3e
000002e0: 0e56 1d3d 4e9f 91be e9fd 343e a102 c73d
000002f0: 7f40 3a3e 08f3 873d 4c97 5dbd 3ff2 023e
00000300: e65c 2d3e 79db 8cbd fdf5 893d 1b76 293d
00000310: 0d0b 42be 89e2 04bd 5fb1 c6bb 94a1 463c
00000320: 3c2c 98be 8093 cc3d ce6e 9dbd 7c9e dcbd
00000330: 77f2 a3be 54e0 71bd df4a 1a3c f5ba adbd
00000340: c5aa 1ebd 4d88 5a3d 3474 463e 5631 333e
00000350: bb05 ebbe 45dd 333c 324f 4d3e 475d 33be
00000360: 33bc dfbd ea30 073e 0805 1abe 60c9 973c
00000370: 4a20 363c 6481 a6bc ff8e bbbd c4b6 df3d
00000380: ab73 393e e96b f8bd 6805 af3c 0733 a7bd
00000390: 5452 493c af70 63bd f23e 8cbd c9c5 6d3d
000003a0: 812e a7bd 0f21 21bd 2c3f 3abe 27ec 163d
000003b0: ccef 443e 38af 253e 4829 af3c cade 683e
000003c0: 6308 133e bbc5 2c3e da73 88bd 6280 c03e
000003d0: c45e c03c b4b7 1bbd 7b38 86bc 3448 ac3d
000003e0: 1ecf 203e 3471 5b3e 9bbd 5cbd 3c48 103e
000003f0: af46 493e 457e 25be 5a4f 7bbe 7ecd 36be

bias f4 [50]
-0.055671584 -0.20318131 -0.12012916 0.028721262 -0.10677395 -0.04538892 -0.13135959 0.025276583
-0.013808419 0.19664955 0.06581069 0.11241865 0.045560997 -0.066651486 0.08204826 0.082330264
0.17759453 0.084645145 0.07398813 -0.020446774 -0.03838148 -0.15362212 0.09423588 0.24460283
-0.07518716 -0.062185016 -0.027758708 -0.06809981 -0.1274893 0.0052427305 -0.026112292 -0.038449124
0.06220463 0.2982131 -0.07756798 -0.08088892 0.19001733 0.0146332 0.026554465 -0.0649173
-0.1234005 -0.0015632533 -0.03573791 0.10984538 0.049900636 0.07675838 -0.14418405 -0.11328975
0.21678527 -0.038077045
00000000: e307 64bd c30e 50be 4706 f6bd da48 eb3c
00000010: 4dac dabd bbe9 39bd 2183 06be d610 cf3c
00000020: b53c 62bc 805e 493e c1c7 863d c03b e63d
00000030: 2b9e 3a3d 9380 88bd eb08 a83d c59c a83d
00000040: 57db 353e 6f5a ad3d 1787 973d fe7f a7bc
00000050: e635 1dbd 1e4f 1dbe befe c03d 2a79 7a3e
00000060: bafb 99bd b7b5 7ebd 3b66 e3bc ea77 8bbd
00000070: 8e8c 02be 36cb ab3b 72e9 d5bc d47c 1dbd
00000080: 48ca 7e3d 63af 983e f6db 9ebd 17a9 a5bd
00000090: e793 423e 17c0 6f3c c088 d93c 5df3 84bd
000000a0: 67b9 fcbd 14e6 ccba ea61 12bd 9df6 e03d
000000b0: 9c64 4c3d 7f33 9d3d fca4 13be 7504 e8bd
000000c0: f5fc 5d3e adf6 1bbd

weight f4 [50, 50]
0.11904837 -0.07455431 0.10264723 0.06513423 0.14743598 0.015033565 -0.23185448 0.14095673
0.1499044 0.019435976 -0.1335226 -0.04946596 -0.030808171 0.17736107 0.026999088 -0.023772752
-0.110281006 -0.19027285 0.019827954 -0.11425774 -0.023692552 0.1169497 0.004140591 -0.06542764
-0.021899926 -0.05971596 0.06708945 0.1900949 0.0047567342 -0.009372736 -0.12921733 0.075304486
0.044630885 -0.08934808 0.1353321 0.0027498626 0.0019042155 0.07807872 -0.17241585 -0.032415166
0.13496989 0.142259 0.035421856 0.28346202 0.008517414 -0.003591295 -0.055518348 0.33003587
-0.17695197 0.09469366 -0.01611638 0.036062144 0.013386626 0.033461202 -0.04707931 0.08350775
-0.013955167 0.07874184 0.041215453 0.11460301 -0.19033256 -0.008726076 -0.05767327 0.053980958
-0.07596827 -0.14422707 0.093138985 0.09389192 0.048821446 0.05118012 0.3086262 -0.058502454
0.14524803 0.11171785 0.08835254 0.014000161 -0.033870198 -0.095083915 0.002092634 -0.04216627
-0.022934694 0.014620669 0.077984914 0.01894892 -0.09309957 -0.03265585 0.07102048 -0.010388405
-0.058816407 0.007891005 0.104018345 0.0016322559 -0.015659764 0.15431604 -0.16814919 0.014928707
-0.08964135 0.05322753 -0.35403773 -0.05874149 0.042096756 0.021330224 0.009791531 0.037453096
-0.15371022 -0.09829081 -0.008688234 0.0042648115 0.08384221 -0.092892356 0.08759979 0.07935387
0.17703666 -0.03323791 0.07206339 0.06313265 0.0117291175 0.050605435 -0.037273664 0.0296712
-0.086208515 0.018960482 -0.054341234 -0.3097011 0.042654306 -0.08152721 -0.015136681 0.025956396
-0.028974239 0.1531745 -0.15023363 0.037532676 0.092142254 0.046188824 -0.044846795 0.062672645
0.020378603 -0.0021004234 0.17330039 -0.016853446 -0.0814525 -0.079631396 0.015708935 -0.20104197
-0.014421565 0.0066530737 0.054059207 0.13914496 0.2626435 0.14556606 -0.003632811 0.05296736
0.06117222 -0.102396294 -0.20171866 -0.030694773 -0.065748736 -0.16550808 0.04148812 0.03363429
0.07110849 0.060146205 0.15150496 -0.11343506 -0.016625902 -0.052379604 0.039691832 -0.06682195
0.0041982536 0.012350868 0.05712531 -0.09140406 0.048462432 0.039019372 0.030130057 -0.055051114
-0.08060128 0.0066509093 -0.047275767 0.1300103 -0.09780198 -0.16256775 0.031524062 0.08448011
-0.093360834 -0.02970885 -0.06126313 -0.07488736 -0.032154568 0.033324603 0.2686677 -0.15079467
-0.043166976 -0.10223208 -0.059043527 -0.010859151 -0.047227032 -0.11405027 -0.13231231 -0.004737716
0.007910693 0.06138768 0.1387145 0.0074515725 0.082226254 0.082931384 0.1186764 0.028261354
0.01205376 -0.32291925 -0.015734574 -0.008235694 0.06361642 0.06509728 -0.055785075 0.13393673
-0.06742372 0.08094664 0.08587838 -0.038852554 -0.11228742 -0.0016713509 0.08059718 0.13007668
0.06460097 0.08094789 0.14404145 0.090182476 0.034740925 -0.07633567 0.04429001 -0.00048766914
-0.15629476 -0.02417507 0.02672974 -0.06534307 -0.17951532 0.028152442 0.14972587 -0.03479685
0.45365104 0.030830808 -0.007108457 -0.09118108 -0.21830341 -0.000567726 0.110183395 0.23978074
-0.08371971 0.08039745 0.018890603 -0.051383737 -0.08241043 -0.03907046 0.15898556 -0.038189445
00000000: a2cf f33d eeaf 98bd b638 d23d 1865 853d
00000010: 75f9 163e 584f 763c 436b 6dbe f656 103e
00000020: 8a80 193e 3238 9f3c 26ba 08be d29c 4abd
00000030: 6b61 fcbc 249e 353e 312d dd3c 13bf c2bc
00000040: 02db e1bd e3d6 42be 3c6e a23c f6ff e9bd
00000050: e216 c2bc 5383 ef3d cbad 873b edfe 85bd
00000060: 7967 b3bc b998 74bd 3266 893d 3da8 423e
00000070: 61de 9b3b 1b90 19bc 8c51 04be 3d39 9a3d
00000080: e0ce 363d 20fc b6bd 7f94 0a3e 0a37 343b
00000090: df96 f93a bce7 9f3d c88d 30be c4c5 04bd
000000a0: 8c35 0a3e 58ac 113e 8216 113d ef21 913e
000000b0: a08c 0b3c ef5b 6bbb 3567 63bd 76fa a83e
000000c0: e632 35be c0ee c13d 8006 84bc e6b5 133d
000000d0: 9453 5b3c 9d0e 093d 3cd6 40bd 1c06 ab3d
000000e0: 36a4 64bc 6743 a13d 89d1 283d fcb4 ea3d
000000f0: 8ae6 42be d1f7 0ebc cf3a 6cbd 231b 5d3d
00000100: 4195 9bbd 43b0 13be a7bf be3d 684a c03d
00000110: fff8 473d 3fa2 513d 4104 9e3e 45a0 6fbd
00000120: e6bb 143e 54cc e43d 2df2 b43d ee60 653c
00000130: 7abb 0abd 5bbb c2bd 9324 093b 8ab6 2cbd
00000140: 8ae1 bbbc 888b 6f3c 8eb6 9f3d c43a 9b3c
00000150: fdaa bebd 24c2 05bd 2f73 913d 2134 2abc
00000160: 79e9 70bd 4649 013c 9207 d53d 6bf1 d53a
00000170: e848 80bc 0605 1e3e 4d2f 2cbe 8997 743c
00000180: e295 b7bd 1c05 5a3d 6f44 b5be eb9a 70bd
00000190: a66d 2c3d b9bc ae3c a86c 203c 6b68 193d
000001a0: 3666 1dbe b14c c9bd 1859 0ebc d5bf 8b3b
000001b0: 77b5 ab3d 593e bebd 8567 b33d 4884 a23d
000001c0: 1949 353e 7a24 08bd f895 933d b14b 813d
000001d0: 7c2b 403c a547 4f3d 45ac 18bd 0411 f33c
000001e0: 178e b0bd 0353 9b3c ea94 5ebd 2591 9ebe
000001f0: 48b6 2e3d bdf7 a6bd d7ff 77bc 82a2 d43c
00000200: 625b edbc c7d9 1c3e d8d6 19be ddbb 193d
00000210: 14b5 bc3d 7e30 3d3d 46b1 37bd 845a 803d
00000220: 07f1 a63c 42a7 09bb a875 313e 3d10 8abc
00000230: 91d0 a6bd c915 a3bd 06b0 803c f2dd 4dbe
00000240: 6e48 6cbc 0702 da3b 306d 5d3d 047c 0e3e
00000250: 3579 863e 450f 153e 7414 6ebb 4df4 583d
00000260: b98f 7a3d 26b5 d1bd 568f 4ebe 9b73 fbbc
00000270: 46a7 86bd f37a 29be 72ef 293d 1cc4 093d
00000280: 54a1 913d de5b 763d 1e24 1b3e a450 e8bd
00000290: 0b33 88bc ff8b 56bd e793 223d f2d9 88bd
000002a0: 8191 893b 4c5b 4a3c 3bfc 693d 0d32 bbbd
000002b0: 8b80 463d c7d2 1f3d 4fd3 f63c 477d 61bd
000002c0: 4912 a5bd dfef d93b 3ca4 41bd 6c21 053e
000002d0: 684c c8bd 2978 26be 601f 013d e803 ad3d
000002e0: f733 bfbd f95f f3bc 0cef 7abd 8b5e 99bd
000002f0: 82b4 03bd 617f 083d d08e 893e eb69 1abe
00000300: dbcf 30bd 0e5f d1bd a0d7 71bd 95ea 31bc
00000310: 2271 41bd 3093 e9bd e17c 07be d83e 9bbb
00000320: da9b 013c a671 7b3d 2d0b 0e3e 522c f43b
00000330: 3d66 a83d eed7 a93d 9d0c f33d 5b84 e73c
00000340: 227d 453c ac55 a5be cbe5 80bc 01ef 06bc
00000350: 5349 823d b951 853d e47e 64bd b626 093e
00000360: 7315 8abd 5ac7 a53d 01e1 af3d db23 1fbd
00000370: f2f6 e5bd 3b11 dbba 2210 a53d d232 053e
00000380: 834d 843d 02c8 a53d 9a7f 133e 97b1 b83d
00000390: 804c 0e3d e055 9cbd 7169 353d d8ad ffb9
000003a0: bc0b 20be cc0a c6bc 54f8 da3c 96d2 85bd
000003b0: ddd2 37be f39f e63c bd51 193e 2487 0ebd
000003c0: f344 e83e e490 fc3c 0fee e8bb 25bd babd
000003d0: ee8a 5fbe 72d3 14ba d5a7 e13d 1589 753e
000003e0: 3d75 abbd 6ba7 a43d 77c0 9a3c c177 52bd
000003f0: cdc6 a8bd 5908 20bd 1ccd 223e 896c 1cbd

bias f4 [50]
-0.04668248 -0.034273274 0.013052278 -0.02735037 0.0020592138 0.0022221764 0.014667045 -0.03005039
0.03723711 -0.03973787 0.014174668 0.0040541524 -0.034241274 0.0464444 -0.02851201 -0.00095184194
0.03710293 -0.02424893 -0.060575813 -0.059400205 0.03340236 0.060146764 0.043086953 -0.00647822
-0.008747687 0.025827952 -0.022573605 0.03733206 -0.00380094 -0.003642137 0.033985127 0.020772934
-0.030552035 -0.0022478732 -0.011396095 0.050690796 -0.03285531 -0.020380994 -0.052571192 -0.04796858
-0.04271069 -0.0064698732 0.023129277 0.034817882 0.025363559 -0.024747223 -0.13220233 0.018407417
-0.009808837 -0.07073817
00000000: 2136 3fbd 2262 0cbd 39d9 553c e20d e0bc
00000010: e0f3 063b efa1 113b 0c4e 703c 3c2c f6bc
00000020: f185 183d 2dc4 22bd de3c 683c b2d8 843b
00000030: 9440 0cbd 7c3c 3e3d 0592 e9bc 0885 79ba
00000040: 3ef9 173d b1a5 c6bc 581e 78bd a14d 73bd
00000050: ead0 083d 745c 763d f27b 303d 4047 d4bb
00000060: 7552 0fbc 2495 d33c 48ec b8bc 81e9 183d
00000070: 3119 79bb ebb0 6ebb fd33 0b3d 002c aa3c
00000080: 4348 fabc 0e51 13bb b0b6 3abc 27a1 4f3d
00000090: 4a93 06bd 0bf6 a6bc e454 57bd b47a 44bd
000000a0: 68f1 2ebd 3b01 d4bb 9c79 bd3c 329d 0e3d
000000b0: 3dc7 cf3c b0ba cabc 0c60 07be 27cb 963c
000000c0: 3fb5 20bc 2cdf 90bd

weight f4 [87, 50]
0.09987461 -0.051798716 -0.051529933 -0.0066633853 -0.054914642 -0.059436314 0.030487198 -0.04609956
-0.0357579 0.10686678 -0.03660803 0.031981163 -0.048485346 -0.081429325 0.036769282 0.04771452
0.11257644 -0.026346719 -0.07258842 -0.10241525 0.06531089 0.0009814692 -0.06980867 0.020719327
-0.048207074 0.15732482 -0.0049147555 -0.018639842 -0.14314632 -0.029515795 0.035110157 -0.053223822
-0.15777788 -0.08544761 0.12280773 -0.04502153 -0.039147988 -0.12337368 -0.06680595 -0.02767165
0.014753764 -0.012115251 0.026889676 0.005808476 0.06523404 -0.13153002 0.07095507 -0.098297566
-0.043847434 0.041726753 -0.07978223 0.116496645 0.00042617097 0.14097668 0.090857565 -0.10216008
0.013613536 0.12647414 0.02116953 0.058432274 -0.06108758 0.12065137 0.10683099 0.09970813
-0.02650574 0.20471287 -0.04250297 -0.014856472 -0.1261188 -0.122123934 0.108333535 0.12066276
-0.10876508 -0.0322066 0.11867671 -0.11607325 0.005574906 0.047268327 -0.03040845 0.04750211
-0.017310567 0.052225094 -0.03815121 0.14249246 -0.045661546 0.050254278 0.008947259 -0.074197575
0.11632222 0.08121083 -0.069366656 0.093306474 -0.053882018 0.062219687 0.1342535 -0.03248226
-0.10860052 -0.020172013 0.1376678 -0.08216494 0.06716689 -0.12481128 0.020261463 -0.12605895
-0.006644425 -0.041720163 -0.093865365 -0.035915654 -0.12778206 0.071804486 -0.035479814 0.113738306
-0.12815772 0.05038995 -0.01993602 -0.075305365 0.0023211115 0.06513215 0.045909896 0.044970203
-0.121747695 0.11047492 0.0023837683 -0.057776943 -0.12276343 0.09751941 0.12328652 0.088503264
-0.08241494 -0.02180976 0.011402702 -0.047200646 0.016130459 -0.07077528 -0.004228676 0.060968675
-0.07734137 0.15021172 -0.014304745 0.036992546 0.0018699972 -0.10930584 -0.13778979 -0.1601336
0.0013238586 0.11346578 -0.0921451 -0.104646295 0.013423579 -0.03113352 0.075831935 -0.1804802
-0.056046363 -0.048701454 -0.3281559 -0.0814001 0.08264771 -0.112165846 0.15423568 0.0654426
-0.10324954 0.050745882 0.10716385 -0.08343005 0.12921868 -0.14325474 0.0852062 0.03455273
0.3362403 -0.12404401 0.15576696 -0.13009387 -0.090414464 0.02111852 -0.09833138 0.013747939
-0.050783634 0.11911554 0.05340661 0.10819989 0.12635969 0.019475255 -0.12608565 0.02145444
0.072729275 -0.11393033 -0.00838293 -0.14266863 -0.11448099 -0.04135699 0.06728927 0.05513859
0.12085131 0.19539672 0.14007157 0.16487294 -0.14098382 0.15066648 -0.043038025 0.002715762
-0.064352386 0.02844045 0.010623506 0.07474359 0.097079985 -0.09589057 -0.10903025 0.035636473
0.02996638 -0.04543525 -0.14441077 -0.0923618 -0.25028294 -0.026741983 -0.07567927 -0.03630051
0.107867345 0.088247806 -0.10541082 -0.07056144 0.17851287 -0.055928025 0.1275856 0.013776536
0.19981104 0.073141426 -0.031214822 -0.07298667 -0.09011546 -0.06294211 -0.024206594 -0.04504123
-0.07895002 -0.0855853 -0.11678995 0.050767034 0.023116782 0.047757074 -0.13160804 -0.0060618375
0.03885453 -0.078992076 -0.07379995 -0.034018874 -0.047717415 -0.011975354 -0.0590331 0.045886517
-0.042283528 -0.19443843 -0.14906318 0.084969565 0.083447956 0.031705204 -0.037104856 -0.12129077
00000000: 0f8b cc3d e42a 54bd 0d11 53bd 8758 dabb
00000010: 2dee 60bd 7e73 73bd 4ac0 f93c e4d2 3cbd
00000020: e076 12bd f8dc da3d 4df2 15bd aefe 023d
00000030: 9298 46bd 6bc4 a6bd 639b 163d 4d70 433d
00000040: 7a8e e63d 13d5 d7bc 3da9 94bd 16bf d1bd
00000050: b7c1 853d a4a4 803a d9f7 8ebd 94bb a93c
00000060: c874 45bd c219 213e f50b a1bb 95b2 98bc
00000070: f394 12be 1ccb f1bc abcf 0f3d 3901 5abd
00000080: 8690 21be 28ff aebd 9f82 fb3d 7f68 38bd
00000090: a459 20bd 57ab fcbd 8fd1 88bd a8af e2bc
000000a0: c5b9 713c 0c7f 46bc bd47 dc3c 0755 be3b
000000b0: 6d99 853d ceaf 06be e450 913d 3c50 c9bd
000000c0: 5e99 33bd ace9 2a3d de64 a3bd cb95 ee3d
000000d0: b36f df39 315c 103e 8813 ba3d 4e39 d1bd
000000e0: 4f0b 5f3c 7082 013e b96b ad3c ae56 6f3d
000000f0: f836 7abd 1118 f73d 35ca da3d c733 cc3d
00000100: 9122 d9bc 40a0 513e 9817 2ebd 8f68 73bc
00000110: 4925 01be 1d1c fabd f9dd dd3d 0a1e f73d
00000120: 3ac0 debd 11eb 03bd c60c f33d d0b7 edbd
00000130: b3ad b63b 6f9c 413d 241b f9bc 9391 423d
00000140: e4ce 8dbc fbe9 553d 7144 1cbd 8be9 113e
00000150: 9a07 3bbd 6ed7 4d3d 8697 123c e6f4 97bd
00000160: 583a ee3d dd51 a63d 1b10 8ebd 7717 bf3d
00000170: 64b3 5cbd 12da 7e3d c079 093e 1e0c 05bd
00000180: f369 debd c73f a5bc caf8 0c3e 1846 a8bd
00000190: cb8e 893d 0e9d ffbd 5efb a53c 9915 01be
000001a0: 7ab9 d9bb c3e2 2abd 7c3c c0bd 4b1c 13bd
000001b0: 4dd9 02be 3b0e 933d 4853 11bd a1ef e83d
000001c0: c73b 03be b165 4e3d dd50 a3bc b339 9abd
000001d0: ca1d 183b 0164 853d 040c 3c3d ad32 383d
000001e0: db56 f9bd ad40 e23d ff38 1c3b 84a7 6cbd
000001f0: 656b fbbd 42b8 c73d a57d fc3d 3341 b53d
00000200: 2ac9 a8bd 62aa b2bc 66d2 3a3c 7755 41bd
00000210: 0624 843c a1f2 90bd b590 8abb 4aba 793d
00000220: 2765 9ebd 1ad1 193e 735e 6abc 7f85 173d
00000230: b21a f53a bedb dfbd c418 0dbe 10fa 23be
00000240: 5385 ad3a bf60 e83d 92b6 bcbd cc50 d6bd
00000250: 92ee 5b3c b90b ffbc c64d 9b3d cdcf 38be
00000260: df90 65bd 2d7b 47bd 0d04 a8be 18b5 a6bd
00000270: 3443 a93d 35b7 e5bd f5ef 1d3e c506 863d
00000280: 7f74 d3bd eada 4f3d b878 db3d 60dd aabd
00000290: e751 043e 5fb1 12be 9780 ae3d 2a87 0d3d
000002a0: b027 ac3e c90a febd 6081 1f3e 5437 05be
000002b0: 382b b9bd bf00 ad3c f661 c9bd 093f 613c
000002c0: 8002 50bd d9f2 f33d e4c0 5a3d e797 dd3d
000002d0: 6f64 013e 928a 9f3c 991c 01be 39c1 af3c
000002e0: 16f3 943d 4e54 e9bd 8f58 09bc ba17 12be
000002f0: 0275 eabd f265 29bd f5ce 893d 01d9 613d
00000300: e480 f73d 1416 483e ec6e 0f3e 74d4 283e
00000310: 105e 10be 5048 1a3e a448 30bd edfa 313b
00000320: 2fcb 83bd f2fb e83c 370e 2e3c 2b13 993d
00000330: dfd1 c63d 4662 c4bd 404b dfbd 8df7 113d
00000340: 0e7c f53c 501a 3abd 6be0 13be 2f28 bdbd
00000350: 1625 80be 0112 dbbc bcfd 9abd d8af 14bd
00000360: 8ee9 dc3d 44bb b43d a1e1 d7bd 8482 90bd
00000370: 14cc 363e c914 65bd cda5 023e fbb6 613c
00000380: 449b 4c3e 2ccb 953d 3ab6 ffbc 097a 95bd
00000390: 748e b8bd cbe7 80bd e84c c6bc 277d 38bd
000003a0: 8cb0 a1bd 5947 afbd 922f efbd 18f1 4f3d
000003b0: 685f bd3c ec9c 433d 42c4 06be 61a2 c6bb
000003c0: ed25 1f3d 99c6 a1bd 6e24 97bd 6057 0bbd
000003d0: 5673 43bd 4634 44bc b1cc 71bd 80f3 3b3d
000003e0: 7e31 2dbd de1a 47be 05a4 18be 8604 ae3d
000003f0: c3e6 aa3d 51dd 013d 43fb 17bd 4c67 f8bd

bias f4 [87]
-0.011820799 -0.030282922 0.08236847 0.05469036 -0.0063221296 -0.0847818 -0.06231393 -0.10866556
0.012357735 -0.09062086 -0.03987115 -0.11829821 0.15488912 -0.031104483 0.12167216 0.048192304
-0.049907424 -0.005650691 -0.09015098 -0.02466481 -0.06569574 0.056905143 0.12773547 0.06640799
0.18813439 -0.22126614 0.060508527 0.22099596 -0.007057783 0.04991487 0.07579724 -0.06986333
-0.18229261 -0.043306768 0.19382946 -0.09267225 0.03236733 -0.043351006 0.02933611 0.12358872
-0.054095976 0.008541695 -0.15678191 0.07164877 0.059847757 0.07081771 0.0027257374 -0.070546925
0.097658165 0.03131389 -0.010054836 0.071513735 -0.08212203 0.2767948 -0.0931318 0.09431623
-0.0517558 0.11409957 -0.083770245 -0.10161687 -0.02525635 0.03180096 0.21703888 0.12736654
-0.039601568 0.12798308 -0.04250544 0.046813812 0.017589726 -0.0034766367 0.021442106 -0.008938242
-0.06902384 -0.015831118 -0.16033214 0.18935578 0.11185634 -0.042684242 -0.16769114 -0.05847247
-0.101045184 -0.053253803 0.015737971 0.0038072309 -0.062405095 -0.005398679 -0.01359934
00000000: 06ac 41bc e413 f8bc cdb0 a83d 0003 603d
00000010: de29 cfbb 15a2 adbd e43c 7fbd 0d8c debd
00000020: 1978 4a3c 6e97 b9bd ee4f 23bd 5546 f2bd
00000030: 419b 1e3e d4ce febc 412f f93d 4b65 453d
00000040: ba6b 4cbd 6f29 b9bb 14a1 b8bd db0d cabc
00000050: 7d8b 86bd 5e15 693d 16cd 023e ea00 883d
00000060: 4da6 403e 9793 62be cad7 773d c44c 623e
00000070: fa44 e7bb 8973 4c3d 953b 9b3d 8114 8fbd
00000080: eaaa 3abe 7062 31bd 3b7b 463e f3ca bdbd
00000090: 9b93 043d d390 31bd 4852 f03c 151c fd3d
000000a0: be93 5dbd 77f2 0b3c 708b 20be 97bc 923d
000000b0: ec22 753d e008 913d 49a2 323b e87a 90bd
000000c0: 0101 c83d fe42 003d 0abd 24bc cb75 923d
000000d0: 982f a8bd 0cb8 8d3e e3bb bebd de28 c13d
000000e0: e4fd 53bd 09ad e93d bc8f abbd 811c d0bd
000000f0: 68e6 cebc b941 023d 713f 5e3e 606c 023e
00000100: 4135 22bd ff0d 033e 2f1a 2ebd d7bf 3f3d
00000110: 5418 903c 49d8 63bb 5ba7 af3c b471 12bc
00000120: 5f5c 8dbd 43b0 81bc 1c2e 24be 7be6 413e
00000130: f014 e53d acd5 2ebd 3ab7 2bbe d480 6fbd
00000140: c7f0 cebd a920 5abd ebec 803c bc82 793b
00000150: 7c9c 7fbd 67e7 b0bb c4cf 5ebc

bias f4 [5]
0.009087074 0.003052771 0.01364304 0.021579 0.041115623
00000000: f3e1 143c 0011 483b 0f87 5f3c 71c6 b03c
00000010: db68 283d

lower_entries f4 [10]
-0.015503077 -0.0017749516 0.0014436488 0.00011617965 0.014802268 0.0075758207 -0.016203808 0.021469345
0.013301577 -0.026486091
00000000: 9e00 7ebc 7ea5 e8ba d138 bd3a 7aa5 f338
00000010: 3685 723c 973e f83b d9bd 84bc 7be0 af3c
00000020: dcee 593c 5cf9 d8bc

upper_entries f4 [10]
0.0012220012 0.0024590173 -0.005818852 -0.0050181006 -0.0005589502 -0.0067923437 0.00048397225 0.023465231
-0.0037823787 -0.0007135806
00000000: 8e2b a03a 7727 213b 12ac bebb e16e a4bb
00000010: 8386 12ba 4f92 debb a8bd fd39 283a c03c
00000020: c9e1 77bb 950f 3bba

unconstrained_upper_diag f4 [5]
0.5123233 0.50622267 0.5379672 0.53842974 0.5255886
00000000: 9f27 033f cf97 013f 38b8 093f 88d6 093f
00000010: f98c 063f

weight f4 [50, 3]
0.1280098 -0.037373777 -0.50043726 0.44294098 -0.21407868 0.5452822 0.19246203 -0.33929434
0.47768047 -0.26989678 -0.16876888 0.60094714 0.21530937 0.26982123 -0.45748636 0.38270837
-0.32337812 0.4652131 -0.5162909 0.3075517 0.58846253 0.0138473585 -0.11677149 0.5941737
0.34541762 0.35608724 0.18057944 -0.47280574 0.28166443 0.030077856 0.4849991 0.02742994
-0.36028543 0.56061244 0.5952328 0.6525541 -0.49991933 -0.37004304 0.14744678 -0.151382
0.2007132 0.28806862 0.13795356 -0.02582085 0.668261 0.562511 -0.13513996 -0.570093
-0.44005135 -0.21552959 -0.56746536 -0.09557189 -0.252643 0.5368558 -0.47078127 0.3839989
0.42511728 0.4268508 -0.36743388 -0.46123144 0.40139872 0.18447027 -0.38626814 -0.31576
-0.17221798 0.3133223 -0.5613052 -0.5389984 -0.099036284 -0.06634341 0.6778936 0.5134199
-0.040482476 0.013942873 -0.0460547 0.08632398 0.12966043 0.063775636 0.13299185 0.08379716
0.3802921 0.2495667 0.5320779 -0.13148613 0.04482086 -0.023896415 -0.39846838 0.33683726
-0.23545468 0.062546544 -0.13610509 -0.57163775 -0.4445741 0.26238456 0.58542496 0.27938044
-0.2446732 -0.28887764 -0.3781822 -0.10339036 -0.37298265 0.22079553 -0.1922895 -0.28565863
-0.35702923 0.5520996 -0.0310872 -0.43468964 0.4153879 -0.3920158 0.10181733 0.52744985
0.4617004 -0.3442992 0.33310753 0.4783469 0.45378023 -0.12829222 -0.31748658 -0.43042144
-0.37972465 0.31947446 -0.3586771 0.56847507 -0.15754159 -0.09209726 -0.524672 0.06562973
0.104339175 -0.45236096 0.029170677 0.13522817 0.3884733 0.26707715 0.42311686 -0.033527773
0.19278808 -0.36854675 -0.19635871 0.63615346 0.12352731 -0.26078632 -0.09725752 -0.33434626
-0.39862266 -0.39490056 0.098698676 0.12055253 -0.18101017 -0.2666376
00000000: 0015 033e 3f15 19bd a81c 00bf 29c9 e23e
00000010: 7137 5bbe 9d97 0b3f c414 453e fdb7 adbe
00000020: 8992 f43e e92f 8abe c0d1 2cbe acd7 193f
00000030: 0f7a 5c3e 0226 8a3e a73b eabe 5af2 c33e
00000040: d191 a5be 6930 ee3e a42b 04bf 6b77 9d3e
00000050: 7ba5 163f 08e0 623c e425 efbd c51b 183f
00000060: 94da b03e 1151 b63e d1e9 383e 9813 f2be
00000070: 5236 903e d665 f63c cd51 f83e c1b4 e03c
00000080: 5577 b8be 4c84 0f3f 2d61 183f c90d 273f
00000090: 6df5 ffbe 4876 bdbe 4afc 163e e203 1bbe
000000a0: c387 4d3e bb7d 933e b343 0d3e 3f86 d3bc
000000b0: 2713 2b3f b900 103f 2162 0abe 9df1 11bf
000000c0: 694e e1be cab3 5cbe 6945 11bf 32bb c3bd
000000d0: 6c5a 81be 626f 093f 3e0a f1be 819b c43e
000000e0: f9a8 d93e 308c da3e 4b20 bcbe 8726 ecbe
000000f0: 2284 cd3e c6e5 3c3e f0c4 c5be 4bab a1be
00000100: e959 30be c86b a03e b3b1 0fbf cdfb 09bf
00000110: 89d3 cabd 0edf 87bd 6f8a 2d3f 7d6f 033f
00000120: f4d0 25bd a670 643c daa3 3cbd a0ca b03d
00000130: b4c5 043e cd9c 823d 042f 083e d89d ab3d
00000140: a5b5 c23e 6a8e 7f3e 4236 083f 4da4 06be
00000150: 1496 373d 6ac2 c3bc 0c04 ccbe ef75 ac3e
00000160: 081b 71be 6718 803d 225f 0bbe da56 12bf
00000170: 379f e3be 4557 863e 69de 153f f40a 8f3e
00000180: 9d8b 7abe c5e7 93be 19a1 c1be 53be d3bd
00000190: 95f7 bebe 3918 623e 8ae7 44be d941 92be
000001a0: 89cc b6be 6656 0d3f 95aa febc a48f debe
000001b0: b9ad d43e 4cb6 c8be 9b85 d03d f406 073f
000001c0: ff63 ec3e fc47 b0be 128d aa3e e3e9 f43e
000001d0: e255 e83e 095f 03be 9a8d a2be 3360 dcbe
000001e0: 456b c2be 2892 a33e 86a4 b7be 9587 113f
000001f0: 9552 21be 7d9d bcbd e750 06bf e168 863d
00000200: c7af d53d db9b e7be 58f7 ee3c 4179 0a3e
00000210: f9e5 c63e 56be 883e c6a2 d83e 6b54 09bd
00000220: 3d6a 453e 29b2 bcbe 4212 49be f4da 223f
00000230: e3fb fc3d c985 85be f32e c7bd 6f2f abbe
00000240: 4518 ccbe 6830 cabe 8822 ca3d 3fe4 f63d
00000250: bb5a 39be b984 88be

bias f4 [50]
0.08044049 -0.55074936 -0.38722724 0.08951562 0.11017668 -0.4834901 -0.12092841 0.0263795
-0.24086961 0.43983 0.086396664 -0.40285698 -0.4105027 0.5401542 0.54422605 -0.3256544
-0.22767378 0.15527084 -0.14333366 -0.27371907 0.055474512 0.3288804 -0.051198598 -0.31926313
0.10199615 0.17913364 -0.061077297 -0.26795232 -0.6059522 -0.36286342 0.09959033 0.5850038
0.3361671 0.12712583 -0.58649015 0.57047635 -0.6498694 -0.50256765 0.10266354 0.06885459
-0.24686009 -0.35594684 0.13402405 -0.114070274 0.081458606 0.15348282 -0.47018766 -0.1597067
0.24382965 -0.46796784
00000000: fcbd a43d e9fd 0cbf a642 c6be f753 b73d
00000010: 50a4 e13d 048c f7be 50a9 f7bd d219 d83c
00000020: 86a6 76be 6631 e13e bcf0 b03d 4543 cebe
00000030: 692d d2be 8c47 0a3f 6652 0b3f 2cbc a6be
00000040: 5123 69be 52ff 1e3e 0fc6 12be e824 8cbe
00000050: 3e39 633d 0363 a83e 9fb5 51bd 7576 a3be
00000060: 5ce3 d03d cf6e 373e 302c 7abd 0c31 89be
00000070: af1f 1bbf 3cc9 b9be 04f6 cb3d cfc2 153f
00000080: 181e ac3e 462d 023e 3824 16bf bd0a 123f
00000090: d75d 26bf 46a8 00bf 4341 d23d a303 8d3d
000000a0: e4c8 7cbe aa3e b6be 9a3d 093e ad9d e9bd
000000b0: c5d3 a63d 9a2a 1d3e 70bc f0be 278a 23be
000000c0: 7bae 793e 7b99 efbe
