sbibm/tasks/slcp/files/num_observation_3/proposal.pt (torch, 333865 bytes, 83 tensors)

weight f4 [50, 2]
0.10928771 -0.13549626 -0.24200648 0.059561547 0.003256514 0.33421558 0.44980583 0.223911
0.17989087 0.5699324 -0.2631491 0.6038861 0.5671151 0.07803222 -0.58449346 -0.45573807
0.6596487 -0.2399881 -0.21728739 0.60342616 -0.35033143 0.044522934 -0.6480365 -0.20531791
0.42529213 0.20869301 0.115455315 0.51682025 0.39551854 -0.47933313 0.5932252 -0.27673137
-0.50491834 0.10096706 0.4409462 -0.67201376 -0.26534453 0.13437037 0.49353582 0.121552475
-0.045701273 -0.5215313 -0.1852228 0.64113206 -0.11384795 -0.44124863 0.027370512 -0.30896205
0.55284476 -0.1471059 0.4924917 -0.68302023 0.10281007 -0.053495727 0.421094 -0.39221415
0.34278405 -0.5018187 -0.31842172 0.458401 -0.23505597 -0.54412264 -0.21607308 0.5860059
0.5480759 -0.40512916 0.21772136 0.39230427 -0.43368724 -0.28285047 0.07988038 -0.20064707
0.39122087 -0.66318434 -0.38065198 -0.56962377 -0.5690292 -0.6062021 0.67187506 -0.14392985
-0.49067566 0.06630695 -0.44738638 -0.16553916 -0.4404885 -0.63350683 -0.0038856638 0.614977
-0.4995162 0.44716474 -0.086402856 0.52573174 -0.577701 -0.42546365 0.28689185 0.2572186
0.66868377 0.20514622 0.0894515 0.32204118
00000000: 3cd2 df3d 88bf 0abe 8cd0 77be cff6 733d
00000010: 3d6b 553b 4e1e ab3e f34c e63e ed48 653e
00000020: 5035 383e 17e7 113f 7bbb 86be 4898 1a3f
00000030: 752e 113f 5bcf 9f3d 5da1 15bf 8056 e9be
00000040: bdde 283f 71bf 75be 9680 5ebe 237a 1a3f
00000050: a45e b3be ae5d 363d b8e5 25bf dc3e 52be
00000060: e4bf d93e 9fb3 553e d673 ec3d 554e 043f
00000070: 6881 ca3e 276b f5be 9bdd 173f bcaf 8dbe
00000080: 5442 01bf d1c7 ce3d b3c3 e13e 1809 2cbf
00000090: 3ddb 87be 6398 093e bab0 fc3e 81f0 f83d
000000a0: 4231 3bbd 1383 05bf 0cab 3dbe 3b21 243f
000000b0: 1d29 e9bd 57eb e1be 2038 e03c 4630 9ebe
000000c0: 3c87 0d3f eea2 16be df27 fc3e 6ada 2ebf
000000d0: 168e d23d 561e 5bbd a299 d73e 4bd0 c8be
000000e0: 6481 af3e 3177 00bf 2c08 a3be 89b3 ea3e
000000f0: 83b2 70be 9f4b 0bbf 4342 5dbe 7c04 163f
00000100: b44e 0c3f 176d cfbe 59f2 5e3e 1bdc c83e
00000110: 410c debe c7d1 90be 5398 a33d 6d76 4dbe
00000120: 1a4e c83e 73c6 29bf d1e4 c2be ddd2 11bf
00000130: e6ab 11bf 1030 1bbf 0100 2c3f 5962 13be
00000140: d739 fbbe f0cb 873d d40f e5be 1983 29be
00000150: b587 e1be 812d 22bf 9fa6 7ebb 226f 1d3f
00000160: 96c0 ffbe c7f2 e43e fbf3 b0bd 5b96 063f
00000170: 36e4 13bf 5fd6 d9be 7de3 923e 28b2 833e
00000180: dc2e 2b3f da11 523e 5932 b73d 95e2 a43e

bias f4 [50]
-0.350535 -0.57507825 -0.5885252 -0.18804248 -0.1791113 -0.23793495 0.8255745 -0.20349586
-0.49070737 0.66127187 -0.74175566 -0.68442345 -0.54620194 0.102547474 0.34175777 -0.5766115
0.1541232 -0.41736636 0.685227 -0.622756 -0.014217597 0.33160514 0.23805176 -0.36973324
0.11084967 0.39950752 0.41246614 -0.5674329 0.7094881 0.12644418 0.6822387 -0.58477247
0.064102665 0.117677115 -0.12435311 0.35101792 -0.5569824 0.409089 0.31550747 -0.2633173
0.77677137 0.07482515 0.25989938 -0.35272628 0.87022454 -0.47213185 -0.5866624 -0.45995975
-0.20727882 -0.08950546
00000000: 5379 b3be 5438 13bf 96a9 16bf 358e 40be
00000010: f468 37be 38a5 73be da58 533f 3861 50be
00000020: ff3d fbbe 1d49 293f b3e3 3dbf 6036 2fbf
00000030: e4d3 0bbf 6904 d23d e0fa ae3e d09c 13bf
00000040: 79d2 1d3e 0bb1 d5be 096b 2f3f f06c 1fbf
00000050: edf0 68bc 26c8 a93e d7c3 733e ad4d bdbe
00000060: 2705 e33d 408c cc3e c32e d33e 4843 11bf
00000070: 03a1 353f 957a 013e 32a7 2e3f a6b3 15bf
00000080: 4248 833d b300 f13d d8ac febd 9fb8 b33e
00000090: 6696 0ebf 1d74 d13e 328a a13e 86d1 86be
000000a0: 7dda 463f ee3d 993d 8811 853e 8a98 b4be
000000b0: 09c7 5e3f 44bb f1be 822f 16bf d87f ebbe
000000c0: e640 54be a34e b7bd

weight f4 [50, 50]
0.119436815 -0.28571758 -0.35499004 -0.123837784 -0.2325863 -0.016858352 0.0006161096 0.14375906
0.07903294 0.16893788 -0.058799967 -0.103154145 -0.16682896 -0.16566396 0.010535052 0.17954093
0.07413963 0.10993781 0.15777713 0.03872256 0.055001847 -0.021472843 0.13175847 0.1984692
0.1220352 -0.12263716 -0.0647537 -0.07575516 0.08934201 0.18000132 0.08629164 -0.13085592
-0.055364665 -0.38506863 0.13294633 -0.10042342 0.04047081 -0.013260032 -0.020303128 0.031459738
0.18358773 0.16113037 -0.035047837 -0.33565688 -0.024749327 -0.26208973 0.14048077 -0.022412855
-0.0049531856 -0.29983 -0.017037543 0.06470299 0.38342258 0.03179031 0.046084568 0.14094177
0.08533791 -0.27299792 -0.004852047 -0.056332145 -0.0074714343 -0.21272054 0.18512207 0.025654566
0.0070934584 -0.05073002 0.1606652 -0.005851554 0.12354344 0.03389523 -0.07928437 0.15538715
0.041008007 -0.2001924 -0.07150251 0.07018289 0.17453448 -0.3586082 0.029914944 0.105907656
0.08901542 0.21131402 -0.07795248 -0.06289765 -0.043711554 0.16050786 -0.272894 0.11288267
-0.15810771 -0.02863782 0.13631073 -0.14680646 -0.10781286 -0.04014124 0.0230102 0.16426963
-0.19840588 0.15664402 -0.025301218 0.07021558 0.059886307 -0.026349684 0.03280244 -0.0885404
-0.08627904 -0.12479508 0.14614128 0.09489368 -0.09709744 0.046960436 -0.07247116 -0.13780095
-0.17382622 0.16494593 -0.005750857 0.011184117 -0.13648668 -0.09901212 0.1345464 -0.14391635
0.029480297 -0.024423065 -0.020175789 -0.10948109 -0.15457305 0.1094518 -0.045486134 -0.12229913
0.14725903 -0.08589898 0.032680172 0.14803077 -0.06405465 -0.007960656 0.08794492 0.16380958
-0.04381094 0.061674654 0.052460164 -0.19756605 -0.09811809 -0.11303738 0.023894213 0.06325317
-0.0068202075 -0.062762976 -0.029599207 0.056924872 0.08908929 -0.024446074 0.18940693 -0.13103442
0.20981276 -0.15860899 0.043307878 0.010325385 -0.22355755 -0.111423954 0.07065253 0.18453017
-0.032936938 0.030789236 -0.041610505 -0.085596874 -0.12268078 0.08051276 -0.11949263 -0.024183095
-0.19567578 0.114648186 0.05843997 0.1149868 0.094636865 0.24851856 0.06954479 0.14420582
-0.2086282 0.007189219 0.065305114 0.068787344 0.13472614 0.15304376 0.027833112 0.1312757
0.023396797 -0.12040033 0.024346732 -0.07936419 0.13513327 -0.06442369 0.063801125 0.09460627
0.014404145 0.21912894 -0.052828945 0.16549481 0.08473028 -0.025123095 0.0129731 0.028453281
0.24964826 -0.11457173 0.27504182 -0.006325969 0.02576863 0.02867646 -0.17074251 0.06855714
0.1267812 0.122400895 0.04377258 -0.037240766 0.1675109 -0.08626314 0.12773447 0.11055104
-0.038550563 -0.0240439 -0.11691207 0.046224166 0.03795458 0.12105312 0.15066658 0.26119238
-0.14931276 0.07287195 -0.018241307 0.17192282 -0.117564075 0.105473794 -0.076125756 0.0948827
-0.123328336 0.11035963 0.087494396 0.016651478 0.08630722 -0.039667916 0.091407605 0.008480337
-0.2409187 0.0374094 0.11056886 0.14282212 -0.17341657 0.14414579 0.12962447 0.18843049
-0.08426794 0.0856229 0.19451591 -0.049567387 9.086475e-05 -0.036237653 0.03156864 -0.10084836
00000000: 4a9b f43d 9349 92be 41c1 b5be aa9e fdbd
00000010: 1a2b 6ebe 871a 8abc 6a82 213a 9335 133e
00000020: 06dc a13d 0dfe 2c3e 3cd8 70bd 7b42 d3bd
00000030: 36d5 2abe d0a3 29be 369b 2c3c 94d9 373e
00000040: 85d6 973d 1327 e13d 5490 213e 8c9b 1e3d
00000050: 9e49 613d d1e7 afbc b1eb 063e 833b 4b3e
00000060: 97ed f93d 3129 fbbd 969d 84bd 8525 9bbd
00000070: f2f8 b63d 4452 383e acb9 b03d 18ff 05be
00000080: 0fc6 62bd b727 c5be 1523 083e cbaa cdbd
00000090: b8c4 253d 9b40 59bc bf52 a6bc eddb 003d
000000a0: 6cfe 3b3e 5cff 243e 528e 0fbd 38db abbe
000000b0: 1abf cabc a030 86be 31da 0f3e 2a9b b7bc
000000c0: 554e a2bb 5183 99be 5192 8bbc 0083 843d
000000d0: f74f c43e 8e36 023d 2cc3 3c3d 0a53 103e
000000e0: a4c5 ae3d 62c6 8bbe ecfd 9ebb 89bc 66bd
000000f0: efd2 f4bb 6ad3 59be a490 3d3e 8629 d23c
00000100: 3e70 e83b 48ca 4fbd 6b85 243e 65be bfbb
00000110: 5804 fd3d bad5 0a3d d85f a2bd cf1d 1f3e
00000120: 03f8 273d 3dff 4cbe e86f 92bd 0cbc 8f3d
00000130: 2bb9 323e 7e9b b7be 2f10 f53c 1de6 d83d
00000140: b74d b63d b462 583e 8da5 9fbd 7cd0 80bd
00000150: e30a 33bd 2c5c 243e c3b8 8bbe 072f e73d
00000160: fde6 21be dd99 eabc 0a95 0b3e 6f54 16be
00000170: fdcc dcbd 246b 24bd e37f bc3c 4c36 283e
00000180: e92a 4bbe 4a67 203e 8044 cfbc 30cd 8f3d
00000190: 584b 753d 4bdb d7bc da5b 063d ab54 b5bd
000001a0: 11b3 b0bd 9094 ffbd 0fa6 153e 9e57 c23d
000001b0: 06db c6bd 9659 403d c26b 94bd b11b 0dbe
000001c0: 80ff 31be 96e7 283e af71 bcbb 963d 373c
000001d0: 2ac3 0bbe dec6 cabd 88c6 093e cf5e 13be
000001e0: aa80 f13c e112 c8bc b247 a5bc 9f37 e0bd
000001f0: 6648 1ebe 4428 e03d ab4f 3abd f777 fabd
00000200: 12cb 163e ceeb afbd a5db 053d 6195 173e
00000210: 162f 83bd 696d 02bc 771c b43d b3bd 273e
00000220: 1a73 33bd 909e 7c3d 78e0 563d c14e 4abe
00000230: 23f2 c8bd 2480 e7bd ccbd c33c e18a 813d
00000240: 0c7c dfbb e089 80bd 097a f2bc 0e2a 693d
00000250: 7274 b63d 2243 c8bc e4f3 413e e32d 06be
00000260: 28d9 563e 656a 22be 9a63 313d ce2b 293c
00000270: 45ec 64be 3e32 e4bd 46b2 903d 7af5 3c3e
00000280: e2e8 06bd b539 fc3c c76f 2abd 6a4d afbd
00000290: 1040 fbbd e0e3 a43d 8db8 f4bd a01b c6bc
000002a0: 3b5f 48be abcc ea3d c05e 6f3d 337e eb3d
000002b0: f9d0 c13d a67b 7e3e 806d 8e3d b1aa 133e
000002c0: a2a2 55be 8a93 eb3b b0be 853d 61e0 8c3d
000002d0: a6f5 093e 81b7 1c3e 4402 e43c 236d 063e
000002e0: a4aa bf3c 7394 f6bd cc72 c73c b189 a2bd
000002f0: 6060 0a3e 91f0 83bd 2aaa 823d efc0 c13d
00000300: 5dff 6b3c 5663 603e 2a63 58bd 7977 293e
00000310: 1287 ad3d f3ce cdbc 208d 543c db16 e93c
00000320: cba3 7f3e 95a4 eabd 48d2 8c3e 134a cfbb
00000330: bc18 d33c e5ea ea3c 20d7 2ebe b067 8c3d
00000340: eed2 013e 52ad fa3d e04a 333d c689 18bd
00000350: fa87 2b3e bbaa b0bd d3cc 023e 9568 e23d
00000360: 32e7 1dbd b7f7 c4bc 986f efbd 8d55 3d3d
00000370: 4376 1b3d b3ea f73d 5748 1a3e 02bb 853e
00000380: 72e5 18be e43d 953d cb6e 95bc 890c 303e
00000390: 6fc5 f0bd a502 d83d d2e7 9bbd dc51 c23d
000003a0: 9193 fcbd 3b04 e23d 4330 b33d ae68 883c
000003b0: d7c1 b03d d37a 22bd e933 bb3d 1df1 0a3c
000003c0: 64b3 76be 993a 193d ed71 e23d f63f 123e
000003d0: 1d94 31be f49a 133e 47bc 043e ecf3 403e
000003e0: ab94 acbd 0f5b af3d 2e2f 473e 2c07 4bbd
000003f0: a48e be38 ef6d 14bd 1e4e 013d 9689 cebd

bias f4 [50]
-0.04948832 0.16588901 0.18256792 -0.108942196 -0.07464419 0.10145018 0.16280153 0.18107988
0.036607515 -0.038874112 0.014174098 -0.094616316 0.11363138 0.05288089 -0.023615155 -0.031256013
-0.13312896 0.02702408 0.20060712 -0.050945118 0.12714534 0.004092782 0.076267816 -0.1384935
0.032773588 0.03803344 0.11314912 -0.044164628 -0.18475479 -0.081365235 -0.12919226 -0.16351794
-0.08943271 0.07638922 -0.1823239 -0.07466555 0.043293472 -0.019064745 0.005552777 -0.15801069
-0.082096644 -0.15936956 -0.09803697 -0.015771179 0.17280173 -0.07282056 -0.075403444 0.25116408
-0.13238385 0.073772885
00000000: 44b4 4abd cfde 293e 16f3 3a3e 161d dfbd
00000010: 0edf 98bd 1dc5 cf3d 72b5 263e 016d 393e
00000020: c3f1 153d 763a 1fbd 7a3a 683c 33c6 c1bd
00000030: 92b7 e83d a299 583d 9274 c1bc 4e06 00bd
00000040: f552 08be 9a61 dd3c f46b 4d3e d4ab 50bd
00000050: 6332 023e be1c 863b 4d32 9c3d 3dd1 0dbe
00000060: 993d 063d f4c8 1b3d baba e73d f8e5 34bd
00000070: 5c30 3dbe d1a2 a6bd fa4a 04be 3f71 27be
00000080: 7f28 b7bd f471 9c3d 1eb3 3abe 40ea 98bd
00000090: 7f54 313d ab2d 9cbc 12f4 b53b 8ecd 21be
000000a0: 4922 a8bd c631 23be 9bc7 c8bd 8f32 81bc
000000b0: f0f2 303e f222 95bd 1f6d 9abd 9498 803e
000000c0: a28f 07be 3d16 973d

weight f4 [50, 50]
0.019750483 0.10256448 -0.011973649 0.086388394 0.11083763 -0.010675922 0.039951336 -0.024844624
-0.013800041 0.04666586 0.051529936 0.04177729 -0.000685853 0.021988241 0.036876217 0.0339728
0.1346657 0.031330395 -0.032965735 0.031016124 0.001192187 -0.013714611 0.038941756 0.027107421
0.07803796 0.00362459 -0.017439371 -0.021295609 0.14087917 0.031503968 0.09720606 0.08458559
0.10280202 -0.0019395382 0.023909481 0.11640681 0.038069222 0.15508105 0.031269144 0.05142615
0.02928074 0.07398732 0.012789891 0.024197431 0.00967607 0.009902857 0.024091605 -0.11043004
-0.0006190876 0.018123297 -0.015695127 -0.044644415 -0.048362006 -0.024098758 -0.03343154 -0.021312073
-0.03509495 -0.024779322 -0.03511774 -0.006000841 -0.0071962452 -0.012108521 -0.000637852 -0.034237135
-0.033017673 0.0025897783 0.017207852 -0.043551233 -0.028051188 -0.023751853 -0.053421807 -0.028376408
-0.03933631 -0.040547818 0.0049115857 -0.00012214793 -0.027853742 -0.056121033 -0.011004711 -0.01179277
-0.010109739 -0.029024865 0.010143716 -0.05438851 -0.01877733 -0.0059091006 -0.020411892 0.021714209
-0.013074233 -0.021137144 0.0072434964 -0.034213323 -0.028273992 -0.031315267 -0.03259471 -0.024075594
-0.020224858 -0.060616318 0.00081168796 -0.01177405 -0.020252617 0.03308004 -0.00561226 0.050513558
0.04647312 -0.023852352 -0.033861432 0.039714027 -0.011419647 0.065947324 0.05190746 0.00012149986
0.00040068317 -0.007260555 -0.016882997 0.0048448723 0.044057127 -0.0012284731 -0.033185855 0.018488038
-0.0039602355 -0.02718994 0.0023670439 0.0052593737 0.014984957 0.00393074 0.0037514113 -0.019447092
0.09577733 -4.957855e-05 0.03588224 0.014708888 0.027628709 0.040092304 -0.010549354 0.040121276
0.008747726 0.12823492 -0.024770465 0.052208986 0.002460639 0.013531819 -0.03010268 -0.0073158513
0.015062134 -0.021525202 0.004180113 -0.040846698 0.0008234506 -0.0020684525 0.06100618 0.04970045
0.0229737 0.035671968 0.06889783 -0.016503934 0.047441497 -0.027384369 -0.0063626743 0.017677832
0.017360946 0.017422793 0.00043384076 0.031533767 0.03617651 -0.007946681 0.10459705 0.014681654
0.0011380378 0.0025938654 0.021753153 -0.007927806 0.032123994 0.04136241 0.031668127 0.003862562
-0.03798632 -0.03363555 0.059591785 0.024591872 0.022452045 0.045638688 0.06493784 0.03644906
-0.013143685 0.041465532 0.02481768 0.053987205 0.08485382 0.03809209 0.022088839 0.0143970195
0.01918049 0.038737666 -0.036559537 0.01515298 -0.0015074901 -0.047366112 -0.00048547902 0.007848785
0.021446092 0.025572456 0.02751959 0.080476694 0.0942897 -0.0069205896 -0.01408274 0.055438608
0.019763604 0.036754012 0.091371104 0.030757582 0.00019763471 0.0114902165 0.008030001 0.034380708
0.09680259 -0.013988286 -0.022367533 0.017937282 -0.0067458 0.076900564 -0.021490676 0.018108364
0.043263093 -0.00443709 0.0036720606 0.024829982 0.0818655 0.062528126 0.121077135 0.005166194
0.03370958 0.00177444 0.08669633 0.046531424 0.02169865 0.11251867 0.041252073 0.029713785
0.08429451 0.008754252 -0.0075427713 0.00160804 -0.009503254 -0.008270507 0.054539084 -0.004200385
0.000119112614 0.024279479 -0.046237294 -0.061526723 -0.03429033 -0.016078401 -0.031199176 -0.04757886
00000000: c4cb a13c 530d d23d 202d 44bc 66ec b03d
00000010: d7fe e23d 10ea 2ebc 03a4 233d f486 cbbc
00000020: 9119 62bc b324 3f3d 0e11 533d aa1e 2b3d
00000030: d1ca 33ba af20 b43c 840b 173d 1027 0b3d
00000040: cee5 093e 4d54 003d 1407 07bd 8715 fe3c
00000050: 2843 9c3a 3fb3 60bc 6481 1f3d 6210 de3c
00000060: 5ed2 9f3d 888a 6d3b 03dd 8ebc 2174 aebc
00000070: a142 103e 4e0a 013d f913 c73d 363b ad3d
00000080: de89 d23d 1a38 feba d1dd c33c b266 ee3d
00000090: 79ee 1b3d 91cd 1e3e 1314 003d 3aa4 523d
000000a0: 2ade ef3c aa86 973d b18c 513c b139 c63c
000000b0: 6188 1e3c 983f 223c c25b c53c 2529 e2bd
000000c0: 444a 22ba 4f77 943c 1193 80bc 10dd 36bd
000000d0: 3d17 46bd c26a c5bc 83ef 08bd a896 aebc
000000e0: b9bf 0fbd 01fe cabc 9fd7 0fbd b4a2 c4bb
000000f0: 7bce ebbb d162 46bc 8635 27ba 3d3c 0cbd
00000100: 8a3d 07bd 45b9 293b 7bf7 8c3c c762 32bd
00000110: 9bcb e5bc 3f93 c2bc d3d0 5abd a475 e8bc
00000120: 1c1f 21bd 7815 26bd 5ef1 a03b d614 00b9
00000130: 882d e4bc 2bdf 65bd 1a4d 34bc 7636 41bc
00000140: 52a3 25bc 8ec5 edbc d431 263c 7cc6 5ebd
00000150: ead2 99bc 21a1 c1bb d736 a7bc ffe1 b13c
00000160: 4f35 56bc ce27 adbc da5a ed3b 4523 0cbd
00000170: dc9e e7bc 7044 00bd 0882 05bd 2e3a c5bc
00000180: 9aae a5bc d148 78bd 75c7 543a f2e7 40bc
00000190: d1e8 a5bc f07e 073d 0de7 b7bb 4ee7 4e3d
000001a0: 995a 3e3d 0266 c3bc 49b2 0abd 2dab 223d
000001b0: 7919 3bbc 640f 873d eb9c 543d becd fe38
000001c0: c912 d239 f3e9 edbb 364e 8abc bcc1 9e3b
000001d0: 3f75 343d b804 a1ba e4ed 07bd 3a74 973c
000001e0: ddc4 81bb 70bd debc 6820 1b3b d356 ac3b
000001f0: 7783 753c 70cd 803b 3dda 753b 824f 9fbc
00000200: e826 c43d 90f2 4fb8 41f9 123d 8cfd 703c
00000210: 9a55 e23c d437 243d 33d7 2cbc 3556 243d
00000220: 9f52 0f3c 0450 033e 6eeb cabc 17d9 553d
00000230: ac42 213b 90b4 5d3c e599 f6bc cfb9 efbb
00000240: 2bc7 763c 9f55 b0bc 54f9 883b de4e 27bd
00000250: d6dc 573a e08e 07bb 9ee1 793d b392 4b3d
00000260: 5733 bc3c c51c 123d 4e1a 8d3d 4233 87bc
00000270: 0452 423d 2f55 e0bc fb7d d0bb 1ad1 903c
00000280: 8b38 8e3c 3fba 8e3c 1f75 e339 8d29 013d
00000290: d22d 143d cc32 02bc fa36 d63d 528b 703c
000002a0: 362a 953a d7fd 293b ab33 b23c a1e3 01bc
000002b0: 7394 033d a16b 293d 70b6 013d 0923 7d3b
000002c0: 8b97 1bbd 6ec5 09bd 8416 743d e574 c93c
000002d0: 5aed b73c a2ef 3a3d 21fe 843d 9c4b 153d
000002e0: 9c58 57bc c3d7 293d 724e cb3c b021 5d3d
000002f0: d7c7 ad3d 7406 1c3d a7f3 b43c 7ae1 6b3c
00000300: 6720 9d3c 63ab 1e3d 74bf 15bd 3444 783c
00000310: f996 c5ba f802 42bd e487 feb9 3198 003c
00000320: b7af af3c 547d d13c c370 e13c f7d0 a43d
00000330: f51a c13d 1dc6 e2bb 4bbb 66bc 9813 633d
00000340: 48e7 a13c 608b 163d c620 bb3d 53f7 fb3c
00000350: 2a3c 4f39 7641 3c3c 4490 033c c9d2 0c3d
00000360: 7040 c63d 202f 65bc 1e3c b7bc 35f1 923c
00000370: df0b ddbb 0b7e 9d3d 370d b0bc fe57 943c
00000380: a434 313d 0265 91bb f4a6 703b 3f68 cb3c
00000390: 19a9 a73d bf0e 803d 4af7 f73d 2d49 a93b
000003a0: 0e13 0a3d 5494 e83a d88d b13d bc97 3e3d
000003b0: 5ec1 b13c 3070 e63d eff7 283d 536a f33c
000003c0: 9aa2 ac3d ff6d 0f3c 5a29 f7bb dec4 d23a
000003d0: 89b3 1bbc 0581 07bc 6064 5f3d 62a3 89bb
000003e0: 19cc f938 c2e5 c63c 5163 3dbd 7203 7cbd
000003f0: 0474 0cbd dab6 83bc 6a95 ffbc 0de2 42bd

bias f4 [50]
-0.12494052 -0.054421417 -0.08050538 -0.028970994 -0.024154196 -0.04824782 0.059624817 -0.0386696
-0.0058915415 0.13085207 -0.053929877 -0.013341372 -0.043291926 -0.079955615 -0.01099208 -0.00021594172
0.08564307 -0.029449431 0.09966864 -0.039897744 0.020734765 0.014562222 -0.0045934473 -0.14864033
0.038640633 -0.0382388 0.031762045 -0.043221343 0.056004558 0.0077542495 -0.0039317803 -0.023790956
-0.0020252098 0.0148658175 0.0043831947 0.029887415 -0.08880211 0.008842436 -0.012846641 0.010404166
0.04113101 0.03766534 -0.074641615 -0.08925242 0.09812586 -0.036572263 -0.013281889 -0.07178964
0.017815843 0.076028705
00000000: d1e0 ffbd fee8 5ebd 01e0 a4bd 9454 edbc
00000010: 05df c5bc 829f 45bd 2739 743d 0464 1ebd
00000020: d50d c1bb 16fe 053e 93e5 5cbd c595 5abc
00000030: e052 31bd c5bf a3bd 2018 34bc 6a6e 62b9
00000040: a265 af3d ef3f f1bc 121f cc3d d16b 23bd
00000050: f4db a93c 6396 6e3c a184 96bb 2c35 18be
00000060: a445 1e3d 4aa0 1cbd eb18 023d dd08 31bd
00000070: 0965 653d 5c17 fe3b 2ad6 80bb 40e5 c2bc
00000080: 62b9 04bb c28f 733c e7a0 8f3b 74d6 f43c
00000090: e1dd b5bd dddf 103c b87a 52bc 3c76 2a3c
000000a0: fd78 283d f946 1a3d b4dd 98bd f9c9 b6bd
000000b0: 36f6 c83d cccc 15bd 489c 59bc 7206 93bd
000000c0: 88f2 913c f0b4 9b3d

weight f4 [50, 50]
0.050229415 -0.025371263 -0.098272175 -0.10226738 -0.059663404 0.09557577 0.1121798 0.14354417
-0.10197465 0.12618025 0.12540975 -0.028606242 -0.040269446 -0.06846074 -0.10657708 0.01973404
0.08319668 -0.043559834 -0.071393415 -0.08412237 0.11989302 -0.0142402155 -0.06857467 0.0829714
0.055316318 -0.09165216 0.15012155 0.1186279 0.13599974 0.08667117 0.075259276 0.13803677
-0.11363992 0.08858034 -0.053002167 0.098680995 0.10669934 -0.08701553 0.07144382 -0.049332593
0.106373385 -0.038564213 0.118247196 0.12851118 0.13058665 0.026656967 0.002517369 -0.0069685183
0.10625179 0.18470779 -0.047174886 0.11976374 -0.1297277 -0.013268758 -0.028373312 -0.09329001
0.03784078 0.21765183 -0.003105505 0.08066714 0.2269876 0.14342369 0.019182794 0.07570123
0.058723893 0.18952674 0.08812838 -0.08434778 0.029192584 -0.14480801 -1.3082041e-05 -0.058178782
0.009174303 -0.081248835 0.23829822 -0.07547077 0.19992316 0.053084496 0.010747895 0.05742372
0.056694746 -0.049683485 -0.06167982 -0.013147568 0.112215385 0.22189702 0.0268542 -0.089161605
0.034614593 0.07801465 -0.1021314 0.07187629 -0.08556508 0.07636078 0.032495275 -0.11718286
0.11653414 0.030477883 -0.046471544 0.12421043 -0.08007407 0.114583515 -0.33600602 -0.18605176
-0.25705543 -0.17379816 -0.005532688 -0.17061932 -0.10078006 0.22092652 -0.30951563 -0.24193852
-0.17433217 -0.37740588 0.12391773 0.017265653 0.050343905 0.022355985 -0.078237176 -0.26839155
-0.15090588 0.05814739 0.09829069 0.16182725 0.043596588 0.087591626 0.1756427 0.08646168
0.0642284 0.07193923 0.14222163 0.053606197 0.13279037 -0.20925726 -0.03351508 0.25297478
0.074929625 0.115719154 -0.08714214 -0.011495779 -0.10109506 0.12757498 -0.122696094 -0.107754186
0.011552191 -0.1764178 -0.03626108 -0.2694687 -0.13671681 -0.2873885 0.048397657 0.13663566
-0.5485894 0.04193667 -0.18407938 0.0076595303 -0.09728025 0.020879567 -0.08674768 0.047922995
-0.21397056 -0.22053318 -0.27797487 -0.26743683 0.006018978 0.15000023 0.15045811 0.04212941
0.11050915 -0.09283434 0.07833967 0.01893627 0.023652432 0.077757776 0.042494334 0.11982813
0.075618595 -0.014726858 0.10252549 -0.10464044 0.11393591 -0.029666858 0.08700707 -0.19391675
0.12563317 0.23885633 -0.017343044 -0.031001203 -0.094810985 0.018230442 0.06359046 -0.033487327
-0.089184016 -0.1423997 0.083058335 -0.34018743 0.016849168 -0.07857382 -0.07344553 -0.008367277
0.21724863 -0.116403185 0.15727301 0.05463985 0.07242643 0.025841625 0.062431734 -0.044113893
0.018999625 -0.002875592 0.14530994 -0.05694353 0.08196159 -0.05050359 -0.11056531 -0.124994114
0.049243733 -0.055546705 0.1123016 -0.08805214 -0.13443826 0.15505278 0.0116045 0.08857177
-0.03477307 0.08063739 -0.05217182 -0.13318321 -0.09957634 -0.059589487 -0.043469053 -0.026230725
0.07137919 0.111207746 -0.03725885 0.059820563 0.034072213 0.07411578 0.114495456 -0.046968844
0.027649092 0.12933017 0.09335485 -0.0402031 0.071052894 0.15217865 0.09834661 0.12802657
0.0048306966 0.21778743 -0.03651624 0.11574946 0.012688059 0.03853889 0.09088254 0.031794447
00000000: 5cbd 4d3d 65d7 cfbc ec42 c9bd 8f71 d1bd
00000010: 9d61 74bd 3bbd c33d 86be e53d 3efd 123e
00000020: 16d8 d0bd 6535 013e 6a6b 003e a357 eabc
00000030: 93f1 24bd 2535 8cbd 1645 dabd 48a9 a13c
00000040: 0563 aa3d cc6b 32bd b636 92bd 5948 acbd
00000050: 798a f53d cb4f 69bc e070 8cbd e9ec a93d
00000060: 5d93 623d 21b4 bbbd 77b9 193e 2ff3 f23d
00000070: 8443 0b3e a880 b13d 8921 9a3d 8359 0d3e
00000080: 0cbc e8bd 9c69 b53d cd18 59bd 4319 ca3d
00000090: 2f85 da3d 3335 b2bd 2351 923d f910 4abd
000000a0: 4ada d93d 82f5 1dbd 962b f23d 6f98 033e
000000b0: 82b8 053e b65f da3c 72fa 243b 2b58 e4bb
000000c0: 8a9a d93d 0a24 3d3e 743a 41bd b146 f53d
000000d0: 57d7 04be 3465 59bc 266f e8bc d50e bfbd
000000e0: effe 1a3d 1fe0 5e3e ba85 4bbb d034 a53d
000000f0: 706f 683e a9dd 123e 3c25 9d3c 3f09 9b3d
00000100: 7788 703d 4c13 423e a77c b43d 87be acbd
00000110: 4925 ef3c 8d48 14be f07a 5bb7 e04c 6ebd
00000120: d14f 163c ca65 a6bd 7304 743e 6b90 9abd
00000130: a8b8 4c3e 216f 593d f017 303c 2235 6b3d
00000140: c038 683d e980 4bbd fba3 7cbd e668 57bc
00000150: 2ed1 e53d f938 633e 57fd db3c 5c9a b6bd
00000160: 08c8 0d3d 25c6 9f3d 442a d1bd e033 933d
00000170: bf3c afbd 0a63 9c3d c419 053d 91fd efbd
00000180: 74a9 ee3d c1ac f93c f258 3ebd 0a62 fe3d
00000190: e0fd a3bd c3aa ea3d fb08 acbe 5a84 3ebe
000001a0: c59c 83be 25f8 31be 8d4b b5bb d5b6 2ebe
000001b0: c765 cebd 903a 623e d578 9ebe bbbe 77be
000001c0: 2284 32be 583b c1be 94c8 fd3d b370 8d3c
000001d0: 6935 4e3d e623 b73c d03a a0bd 9e6a 89be
000001e0: 1287 1abe f52b 6e3d a14c c93d 0bb6 253e
000001f0: 5692 323d 3d63 b33d aedb 333e d212 b13d
00000200: 2e8a 833d e054 933d 8ca2 113e 2c92 5b3d
00000210: 33fa 073e 8947 56be 1c47 09bd e985 813e
00000220: b474 993d 2afe ec3d 9477 b2bd cb58 3cbc
00000230: ed0a cfbd 04a3 023e 1748 fbbd 3aae dcbd
00000240: 6745 3d3c dea6 34be 8086 14bd cdf7 89be
00000250: 7eff 0bbe 9624 93be 9f3c 463d 38ea 0b3e
00000260: 5b70 0cbf c9c5 2b3d 4e7f 3cbe ccfc fa3b
00000270: de3a c7bd a00b ab3c c5a8 b1bd e74a 443d
00000280: 191b 5bbe 73d3 61be b952 8ebe 7bed 88be
00000290: d93a c53b a999 193e b111 1a3e e38f 2c3d
000002a0: 9f52 e23d ee1f bebd 8d70 a03d 3d20 9b3c
000002b0: bfc2 c13c 783f 9f3d 8a0e 2e3d 7368 f53d
000002c0: ecdd 9a3d eb48 71bc e2f8 d13d ba4d d6bd
000002d0: 3b57 e93d e907 f3bc c330 b23d 1d92 46be
000002e0: fba5 003e c196 743e 0013 8ebc 3cf6 fdbc
000002f0: 432c c2bd 0258 953c b73b 823d 022a 09bd
00000300: 1ca6 b6bd 3ad1 11be 7d1a aa3d 0c2d aebe
00000310: 4407 8a3c 50eb a0bd 9c6a 96bd e716 09bc
00000320: 6d76 5e3e cb64 eebd 2d0c 213e 09ce 5f3d
00000330: 4f54 943d d1b1 d33c 6bb8 7f3d c5b0 34bd
00000340: 1aa5 9b3c 6e74 3cbb 21cc 143e 9e3d 69bd
00000350: 7adb a73d dadc 4ebd 1170 e2bd eafc ffbd
00000360: ccb3 493d f184 63bd 62fe e53d ae54 b4bd
00000370: 2faa 09be 28c6 1e3e cd20 3e3c 1e65 b53d
00000380: 356e 0ebd 3725 a53d 1eb2 55bd 2e61 08be
00000390: aeee cbbd 1b14 74bd 9b0c 32bd d1e1 d6bc
000003a0: 412f 923d e3c0 e33d bc9c 18bd 6806 753d
000003b0: 4e8f 0b3d 04ca 973d 987c ea3d 6762 40bd
000003c0: 5980 e23c 216f 043e d430 bf3d 01ac 24bd
000003d0: 2e84 913d b8d4 1b3e f369 c93d 6619 033e
000003e0: d24a 9e3b ab03 5f3e 0e92 15bd 0e0e ed3d
000003f0: 94e1 4f3c f5da 1d3d a020 ba3d e53a 023d

bias f4 [50]
0.08040382 -0.0646197 0.12652525 0.05149968 -0.018200703 0.005734565 -0.20673472 0.058643647
0.027577123 0.016911576 -0.15723737 0.014106701 0.00012331587 0.07576897 -0.030580942 -0.00846779
-0.06220018 0.11191693 -0.0981927 -0.017490271 0.19565785 -0.13996993 0.0902178 -0.14829946
-0.0005757092 -0.02004995 0.017366163 0.015192159 0.0030525618 -0.14621395 0.08928688 -0.16720977
-0.041025277 -0.1570822 -0.09961124 -0.073668264 -0.14955163 -0.09968012 0.10469081 -0.14276929
-0.11600995 -0.08026797 -0.059381336 -0.17153849 -0.112512134 0.07583284 0.039089568 -0.26068836
-0.04354816 0.0851883
00000000: c2aa a43d 5557 84bd d68f 013e 54f1 523d
00000010: a419 95bc 05e9 bb3b 44b2 53be 5234 703d
00000020: 6be9 e13c 258a 8a3c d502 21be cb1f 673c
00000030: 5a4e 0139 c32c 9b3d e284 fabc 7cbc 0abc
00000040: 9ec5 7ebd b434 e53d 4119 c9bd c247 8fbc
00000050: 885a 483e 4754 0fbe 1cc4 b83d d0db 17be
00000060: 31eb 16ba cb3f a4bc 7c43 8e3c 89e8 783c
00000070: 7d0d 483b 1cb9 15be 0adc b63d 0a39 2bbe
00000080: 1f0a 28bd 28da 20be fa00 ccbd 63df 96bd
00000090: 1024 19be 1725 ccbd 2368 d63d 1d32 12be
000000a0: a096 edbd 8963 a4bd d839 73bd c9a7 2fbe
000000b0: c36c e6bd 3f4e 9b3d 621c 203d f278 85be
000000c0: 8e5f 32bd 3477 ae3d

weight f4 [50, 50]
0.0052031716 -0.058996383 -0.0075027854 0.0005064969 0.0036488362 -0.0042161546 0.03698381 -0.012423219
-3.9262297e-05 0.083997905 -0.021486053 -0.010602893 -0.04186053 0.049693413 0.019017998 -0.009025242
0.008383394 0.008186255 -0.0025169072 -0.055667844 -0.19448829 -0.016632225 -0.0019707168 0.022439826
0.040319834 -0.00031665948 0.014771363 -0.038432367 0.028735377 0.014712814 -0.021241928 0.012506069
0.056907978 0.037904985 0.026315734 0.004524455 0.033254236 0.0641261 -0.0027385976 0.014993896
0.008901621 0.037941247 0.0075834314 0.008107005 -0.012094007 -0.035700403 -0.05180895 0.07228279
-0.00892161 0.013251815 -0.050909232 -0.093319714 -0.016142208 -0.026192835 -0.026037538 -0.034916114
0.009117426 -0.021868201 -0.0009446824 -0.01727861 -0.0007992989 -0.041009393 -0.04231862 -0.10836754
-0.019157361 -0.02995437 -0.03326897 -0.03789094 0.00025292533 -0.0042606597 -0.1696964 -0.00607441
-0.019732771 -0.008287864 -0.010609616 0.02379655 0.008230655 -0.044418283 -0.0032032114 -0.018699626
-0.027834216 -0.00085670664 -0.035335135 -0.023761336 -0.024168639 -0.011083552 -0.03424347 -0.018477984
-0.009453321 -0.009157715 -0.0006299701 -0.025021587 -0.02034735 -0.0062711863 -0.03151994 -0.015641741
-0.02823023 -0.007598772 -0.021855189 -0.024792302 0.026734674 0.014503148 0.01962006 0.013313155
-0.009735875 -0.024711814 -0.017849298 -0.004919908 -0.00034751606 0.026633846 -0.0048850644 0.027329722
-0.021847198 0.14770229 0.005685114 0.022348616 0.044113614 -0.0093665635 -0.0019799361 -0.053215172
-0.029984923 0.010613055 0.0051884563 -0.01580779 -0.012087373 0.048331827 -0.044178925 -0.0023256144
0.031269163 0.022951748 -0.013220542 0.030332468 0.03922984 0.04513208 0.020084493 0.021462856
-0.001803249 -0.008480464 -0.08181114 -0.014036968 -0.010755937 0.0032270134 -0.015257893 -0.04087358
0.0122346515 0.0011838969 0.020434901 0.036621265 -0.004939831 0.048194505 0.021052485 0.023351641
-0.0128158415 -0.002895886 0.040803667 0.006320643 0.020464862 -0.0024113304 -0.0006268975 0.13331328
-0.03485933 0.008750064 0.040952947 0.06078397 0.027208785 0.042364687 0.022893826 0.0635404
0.0011596424 -0.021358833 -0.06353387 5.313266e-05 -0.0037513357 0.09551003 0.05519365 -0.073121354
-0.015468154 0.0038978218 0.06865816 0.021931095 0.031807445 0.0015230004 0.06445835 0.108030565
0.026005592 0.037471488 0.040931728 0.035118632 0.018677048 0.029482476 0.016490307 0.08262877
0.0065930113 0.012902271 0.051067874 0.035630118 0.00014778753 0.11986483 0.012497561 0.0061172107
-0.0073621166 0.0024963592 0.028312773 0.039330497 0.0155761335 0.023216926 0.056088027 0.0022673954
-0.00054212706 0.1167458 0.015515916 0.041636467 0.12755154 0.04214466 0.033849698 0.054959334
0.0013509137 0.014632177 0.0035204545 0.018058047 -0.11186458 0.024704268 -0.029440695 0.06932188
0.015250548 -0.05384336 0.028326852 0.041458942 0.0894897 0.014539304 0.023918392 0.011638955
0.039206814 0.08544995 0.030218566 0.03576935 0.025269445 0.038927484 -0.0052149487 0.025371647
0.02241018 0.09602066 0.021141429 0.04497659 0.05595688 0.039690483 0.047584936 0.09227619
0.022979502 -0.0050187977 -0.040354285 -0.040637545 -0.028318806 -0.026999101 -0.032101322 -0.019738484
00000000: 5e7f aa3b 31a6 71bd edd9 f5bb 6ec6 043a
00000010: 5021 6f3b ab27 8abb 567c 173d c28a 4bbc
00000020: 92ad 24b8 1807 ac3d 8503 b0bc c2b7 2dbc
00000030: f275 2bbd 528b 4b3d a2cb 9b3c 9cde 13bc
00000040: 815a 093c a41f 063c b2f2 24bb f703 64bd
00000050: f027 47be 4e40 88bc 2427 01bb bad3 b73c
00000060: 6926 253d 5105 a6b9 9603 723c 426b 1dbd
00000070: 7466 eb3c 040e 713c 8d03 aebc 41e6 4c3c
00000080: 5718 693d 4242 1b3d 1894 d73c e141 943b
00000090: 9835 083d 8b54 833d 0b7a 33bb f5a8 753c
000000a0: 1bd8 113c 4868 1b3d 6f7e f83b 3ed3 043c
000000b0: f125 46bc 963a 12bd 9f35 54bd 0009 943d
000000c0: f22b 12bc 241e 593c 3386 50bd 681e bfbd
000000d0: aa3c 84bc 5b92 d6bc ad4c d5bc 3304 0fbd
000000e0: 4261 153c f124 b3bc 90a4 77ba df8b 8dbc
000000f0: 0b88 51ba 77f9 27bd 4a56 2dbd cdef ddbd
00000100: e6ef 9cbc de62 f5bc 0b45 08bd 8833 1bbd
00000110: 109b 8439 019d 8bbb e5c4 2dbe d80b c7bb
00000120: 9fa6 a1bc d2c9 07bc f4d3 2dbc fcf0 c23c
00000130: dfd9 063c f2ef 35bd f8ec 51bb f52f 99bc
00000140: 9504 e4bc 9c94 60ba 93bb 10bd 22a7 c2bc
00000150: 4ffd c5bc c997 35bc e142 0cbd 245f 97bc
00000160: 1ae2 1abc 3e0a 16bc 9424 25ba 12fa ccbc
00000170: 7caf a6bc 867e cdbb 0d1b 01bd 1c23 80bc
00000180: 1543 e7bc 1fff f8bb a709 b3bc 3a19 cbbc
00000190: ad02 db3c 9d9e 6d3c 40ba a03c 6b1f 5a3c
000001a0: 3883 1fbc 6e70 cabc b138 92bc 2e37 a1bb
000001b0: d132 b6b9 392f da3c e412 a0bb 95e2 df3c
000001c0: e5f8 b2bc 453f 173e 314a ba3b 7214 b73c
000001d0: 7ab0 343d 3776 19bc d1c1 01bb 27f8 59bd
000001e0: f1a2 f5bc 61e2 2d3c ed03 aa3b 577f 81bc
000001f0: 1e0a 46bc 98f7 453d f6f4 34bd 5669 18bb
00000200: 1814 003d 4e05 bc3c f99a 58bc cc7b f83c
00000210: 78af 203d 6adc 383d 3c88 a43c dfd2 af3c
00000220: ff5a ecba a5f1 0abc 998c a7bd 50fb 65bc
00000230: ab39 30bc 4d7c 533b 3efc 79bc 0e6b 27bd
00000240: d973 483c fd2c 9b3a 1867 a73c 2e00 163d
00000250: 4ede a1bb 9a67 453d 4376 ac3c f14b bf3c
00000260: 89f9 51bc e8c8 3dbb bf21 273d 651d cf3b
00000270: eda5 a73c 6907 1ebb 6156 24ba 4783 083e
00000280: a8c8 0ebd 6e5c 0f3c 47be 273d 9df8 783d
00000290: f5e4 de3c 9886 2d3d d58b bb3c 7821 823d
000002a0: 24ff 973a b8f8 aebc 0c1e 82bd c2da 5e38
000002b0: f8d8 75bb c39a c33d bd12 623d a6c0 95bd
000002c0: 246e 7dbc 9972 7f3b a69c 8c3d d7a8 b33c
000002d0: 8648 023d 6a9f c73a bd02 843d 213f dd3d
000002e0: ae09 d53c b47b 193d 07a8 273d 8ed8 0f3d
000002f0: 9c00 993c 3c85 f13c ae16 873c 4639 a93d
00000300: 300a d83b 0c64 533c 8c2c 513d e3f0 113d
00000310: 6af7 1a39 b17b f53d 92c2 4c3c e272 c83b
00000320: e93d f1bb f599 233b 30f0 e73c 0419 213d
00000330: 0a33 7f3c 6c31 be3c 8fbc 653d 9598 143b
00000340: 881d 0eba 6c18 ef3d 7836 7e3c 008b 2a3d
00000350: df9c 023e e19f 2c3d fba5 0a3d 0a1d 613d
00000360: 2411 b13a ccbb 6f3c 6db7 663b 78ee 933c
00000370: 4219 e5bd 9b60 ca3c 9d2d f1bc a1f8 8d3d
00000380: 6fdd 793c db8a 5cbd b70d e83c dad0 293d
00000390: 6046 b73d 4336 6e3c 81f0 c33c 51b1 3e3c
000003a0: 5397 203d 6200 af3d ed8c f73c e282 123d
000003b0: de01 cf3c 6d72 1f3d 29e2 aabb 33d8 cf3c
000003c0: 8e95 b73c 7ba6 c43d ca30 ad3c 5f39 383d
000003d0: 0b33 653d 7d92 223d 6ce8 423d 4dfb bc3d
000003e0: 823f bc3c ba74 a4bb 894a 25bd 8e73 26bd
000003f0: d7fc e7bc 382d ddbc ad7c 03bd 9ab2 a1bc

bias f4 [50]
-0.031479567 -0.055414997 -0.009999647 -0.005108626 -0.02120989 -0.009842313 0.030608527 -0.03455736
-0.009509711 0.018255241 -0.03189679 -0.013015356 -0.046116594 -0.036853608 -0.009021741 0.014080683
0.039626367 0.042659905 0.05611251 -0.04677131 0.043526404 0.018086342 0.006411915 -0.07123303
0.029471882 -0.009158878 -0.012784877 -0.024067594 -0.0030727622 -0.008815882 -0.009192673 -0.02697267
0.035610564 0.0018290054 0.017200178 -0.00735749 -0.028044794 0.039490454 -0.00830351 0.0036513025
0.018107751 0.018459585 -0.03672066 0.003759505 0.012578549 0.061969984 -0.020535002 -0.016047178
0.01223887 0.05796874
00000000: b8f0 00bd d6fa 62bd 8fd5 23bc 4366 a7bb
00000010: 5dc0 adbc a741 21bc bcbe fa3c 058c 0dbd
00000020: 9ece 1bbc 048c 953c 35a6 02bd 5c3e 55bc
00000030: c1e4 3cbd cff3 16bd edcf 13bc aab2 663c
00000040: 424f 223d 27bc 2e3d 3bd6 653d 4693 3fbd
00000050: be48 323d cf29 943c 0b1b d23b 9fe2 91bd
00000060: 046f f13c 1e0f 16bc a977 51bc 6729 c5bc
00000070: 6560 49bb 7d70 10bc dd9c 16bc caf5 dcbc
00000080: 62dc 113d 3dbb ef3a 63e7 8c3c 1917 f1bb
00000090: 32be e5bc bec0 213d 720b 08bc b14a 6f3b
000000a0: b556 943c 8e38 973c 6768 16bd 0762 763b
000000b0: 4216 4e3c 3dd4 7d3d 0539 a8bc 5f75 83bc
000000c0: 8b85 483c a170 6d3d

weight f4 [87, 50]
0.11992984 0.050016228 -0.03322969 0.052364606 -0.13213485 -0.00504085 -0.0912774 0.051479783
0.013844152 0.073849335 0.16909324 -0.030053098 0.078527786 0.057378195 -0.0019892063 0.16065073
0.11773772 0.13044041 -0.06106169 0.023574246 0.003155319 0.093720146 -0.11552741 -0.10118863
0.051371317 0.019144857 0.09109626 -0.03443501 0.08022961 -0.14053091 -0.044942394 0.010247585
-0.117794275 0.0854104 0.114983015 -0.124089666 0.0061800047 -0.08474563 0.06467336 0.07873397
-0.059283618 -0.07789033 0.03746869 0.059893433 0.022241255 0.00450562 0.16035254 0.14194697
-0.016129818 -0.06268584 0.01826206 -0.1522819 0.0048241788 -0.08359688 0.0025669388 0.09835727
0.017399084 0.06771556 0.061743025 -0.07510797 0.043202646 -0.09222687 0.071257375 0.061133415
-0.07076037 -0.08307042 0.17985758 -0.06882486 0.022195447 -0.036420617 0.014824378 0.04484475
0.0950911 -0.023135439 0.0072637396 0.06509148 -0.025856342 0.10562974 0.1262977 0.031749193
-0.1336854 0.08242787 -0.018096035 -0.04783805 -0.027208293 -0.058839586 0.006347278 0.1582709
-0.08383262 -0.078507036 0.0077436035 0.096735224 -0.047393344 -0.036660183 -0.026381215 0.06916921
0.0948248 0.12943545 0.106796205 0.054915465 0.010408277 -0.09087994 -0.03535618 -0.003945818
-0.10754219 -0.15195766 -0.011504126 -0.04664915 0.03893836 0.043068595 -0.15111615 -0.17985322
0.09883637 -0.10388668 -0.04853164 -0.05110107 0.059034225 0.082197815 0.023005625 -0.030400828
-0.06055462 0.11289679 -0.09917158 -0.016609728 -0.0877036 0.07694948 0.022518326 0.034040634
0.15033083 -0.09061591 -0.14132185 -0.15427734 -0.013373005 -0.06676931 -0.07951661 -0.09552167
-0.11007058 0.037902053 -0.04252107 0.030835304 -0.080272876 -0.15417606 -0.10902663 -0.14250961
0.051954325 -0.07970891 0.008650108 0.12636842 -0.011871832 0.063414015 0.030023767 0.06494053
0.024988146 -0.098863795 0.06640942 -0.0048224484 -0.007836658 -0.057588886 0.05360567 0.011009175
-0.111459166 -0.12381346 -0.107778385 0.07595888 -0.09479231 -0.07322639 -0.09472735 0.11927153
0.115923434 -0.063765 -0.11942953 0.08558049 -0.024039103 -0.064512216 0.056948945 0.08266679
-0.02896607 -0.044886626 0.030863559 0.046063617 -0.06113308 0.08274538 -0.0033409763 -0.06209279
-0.13227944 0.16785234 -0.11213402 0.106518626 0.033966556 -0.10311231 -0.058017444 0.09915309
0.038773924 0.12187378 -0.07107272 0.14162627 0.04697031 0.07562828 0.045657378 -0.11619475
-0.0063390206 0.002793934 -0.061858103 0.025311003 0.13752946 0.015129889 -0.034644004 -0.12559187
0.08247763 -0.13098094 0.014077596 -0.0013786654 0.16882044 0.13449854 -0.005565664 0.061678283
-0.17683436 0.15182528 -0.09042514 0.11986255 -0.046922985 -0.04689093 0.0028129872 0.09022204
0.11245548 0.11924175 0.076747805 -0.08175462 0.00030916207 0.11100148 -0.014272423 -0.11594297
-0.01220589 0.08345419 0.017077621 -0.07191997 0.08567272 0.057186056 0.03179073 -0.06896344
-0.0022915886 -0.13099095 -0.0648067 -0.07715605 -0.060188346 0.10401024 0.11415838 0.051332917
-0.11601272 0.10503277 -0.11083615 -0.10226958 -0.04394975 -0.055192545 0.044941735 0.11059289
00000000: c79d f53d d1dd 4c3d db1b 08bd 457c 563d
00000010: 5c4e 07be b72d a5bb a5ef babd 77dc 523d
00000020: 95d2 623c 523e 973d c726 2d3e ea31 f6bc
00000030: 2dd3 a03d 6605 6b3d 585d 02bb a081 243e
00000040: 7920 f13d 2c92 053e d31b 7abd c71e c13c
00000050: 78c9 4e3b 59f0 bf3d a299 ecbd fc3b cfbd
00000060: bb6a 523d add5 9c3c ad90 ba3d ba0b 0dbd
00000070: 6c4f a43d 56e7 0fbe 8415 38bd 7de5 273c
00000080: 203e f1bd a6eb ae3d 377c eb3d b922 febd
00000090: a381 ca3b 1e8f adbd 7773 843d 473f a13d
000000a0: 61d3 72bd f784 9fbd c578 193d d152 753d
000000b0: 4b33 b63c e1a3 933b 7533 243e 8c5a 113e
000000c0: ae22 84bc 6f61 80bd 519a 953c c9ef 1bbe
000000d0: 2514 9e3b d734 abbd 163a 283b 896f c93d
000000e0: 8688 8e3c 75ae 8a3d 41e6 7c3d 35d2 99bd
000000f0: 42f5 303d 71e1 bcbd 63ef 913d 0867 7a3d
00000100: d0ea 90bd d320 aabd 962c 383e 0cf4 8cbd
00000110: 3ad3 b53c c92d 15bd f3e1 723c 21af 373d
00000120: 1fbf c23d 8886 bdbc aa04 ee3b af4e 853d
00000130: aed0 d3bc 6854 d83d 2f54 013e 710b 023d
00000140: d3e4 08be f1cf a83d 233e 94bc d5f1 43bd
00000150: ede3 debc c701 71bd d4fc cf3b c411 223e
00000160: 70b0 abbd 4cc8 a0bd 0ebe fd3b 1e1d c63d
00000170: 861f 42bd fd28 16bd 6b1d d8bc 96a8 8d3d
00000180: 8133 c23d ba8a 043e f8b7 da3d 0aef 603d
00000190: 7a87 2a3c 431f babd a4d1 10bd ec4b 81bb
000001a0: 143f dcbd ca9a 1bbe cd7b 3cbc 2e13 3fbd
000001b0: d47d 1f3d b268 303d 31be 1abe 712b 38be
000001c0: b96a ca3d 8ac2 d4bd 1dc9 46bd 5b4f 51bd
000001d0: dfcd 713d 5457 a83d 4b76 bc3c 280b f9bc
000001e0: 1f08 78bd 6f36 e73d 781a cbbd 2011 88bc
000001f0: f29d b3bd b097 9d3d 5a78 b83c 316e 0b3d
00000200: 53f0 193e d694 b9bd adb6 10be e1fa 1dbe
00000210: 731a 5bbc 59be 88bd 9bd9 a2bd dea0 c3bd
00000220: af6c e1bd 2f3f 1b3d 932a 2ebd 529a fc3c
00000230: 1b66 a4bd 54e0 1dbe 5b49 dfbd 0aee 11be
00000240: 0fce 543d 6d3e a3bd 2fb9 0d3c b966 013e
00000250: 1382 42bc 35df 813d 67f4 f53c 8aff 843d
00000260: f1b3 cc3c 1a79 cabd a901 883d a105 9ebb
00000270: 5365 00bc 53e2 6bbd 9e91 5b3d d45f 343c
00000280: b444 e4bd e991 fdbd eaba dcbd 5490 9b3d
00000290: 7822 c2bd b8f7 95bd 6a00 c2bd a244 f43d
000002a0: 4469 ed3d 3997 82bd 7897 f4bd d344 af3d
000002b0: a7ed c4bc fb1e 84bd 4c43 693d 354d a93d
000002c0: 404a edbc 0adb 37bd 93d5 fc3c 34ad 3c3d
000002d0: ae66 7abd 6976 a93d 48f4 5abb 0255 7ebd
000002e0: 4374 07be 7ce1 2b3e 85a6 e5bd 7026 da3d
000002f0: 8420 0b3d 8c2c d3bd b3a3 6dbd c610 cb3d
00000300: 68d1 1e3d f698 f93d 938e 91bd 7a06 113e
00000310: f163 403d 00e3 9a3d 3b03 3b3d 83f7 edbd
00000320: 8fb7 cfbb 6f1a 373b ec5e 7dbd 0559 cf3c
00000330: 86d4 0c3e 5be3 773c dfe6 0dbd 289b 00be
00000340: 08ea a83d de1f 06be b8a5 663c 56b4 b4ba
00000350: 44df 2c3e fcb9 093e 2c60 b6bb 5ea2 7c3d
00000360: 1114 35be 1678 1b3e d130 b9bd 7f7a f53d
00000370: 5132 40bd b410 40bd 185a 383b 55c6 b83d
00000380: 0f4f e63d 0535 f43d f42d 9d3d f76e a7bd
00000390: 0817 a239 be54 e33d e2d6 69bc 8273 edbd
000003a0: 37fb 47bc 08ea aa3d 5ee6 8b3c c74a 93bd
000003b0: 2e75 af3d ed3b 6a3d ff36 023d b43c 8dbd
000003c0: 7a2e 16bb 7e22 06be 60b9 84bd fe03 9ebd
000003d0: 0e88 76bd 5203 d53d decb e93d 7742 523d
000003e0: 1498 edbd 6c1b d73d 10fe e2bd b772 d1bd
000003f0: a704 34bd 9411 62bd d314 383d 867e e23d

bias f4 [87]
-0.09098541 0.0021233067 0.0559121 -0.10748072 0.07586374 0.14274794 -0.093681 0.10261916
-0.06763527 0.0129970675 -0.07659546 0.11944559 -0.018824216 -0.14366089 -0.040231466 -0.05141318
-0.10106262 0.0983592 0.044856574 -0.027265292 0.16888943 -0.038066257 0.08794909 0.04760789
-0.073912956 -0.081792675 -0.01383084 0.11839647 -0.08777656 0.066242136 0.031132387 0.052672975
-0.04743611 -0.016081419 -0.00043367787 0.12871611 -0.17878348 -0.08056675 0.07628205 -0.05881166
-0.052899122 -0.0057407836 0.1066977 -0.18882152 -0.031029383 0.123527154 -0.13132733 0.101806596
-0.111829005 0.11546034 0.08873787 -0.087262645 -0.09084041 0.01882177 0.00956271 -0.028136801
-0.056410655 -0.03435962 -0.09180325 0.02752541 -0.010285924 0.02079732 0.062433768 0.06970131
0.23224144 -0.090884805 0.013160789 -0.091846265 0.0401415 -0.077524014 0.07474244 -0.13250178
0.0331515 -0.020088367 -0.0335974 -0.10593321 0.14356485 -0.11395816 -0.016076278 0.06714522
0.098955765 0.15094858 0.1697672 0.016353607 -0.02807746 -0.031204438 0.11066959
00000000: 8f56 babd 2d27 0b3b 1604 653d da1e dcbd
00000010: 735e 9b3d 842c 123e d3db bfbd ff29 d23d
00000020: 5c84 8abd a7f1 543c 15de 9cbd e49f f43d
00000030: 3e35 9abc d71b 13be c0c9 24bd a096 52bd
00000040: ebf9 cebd 8c70 c93d 87bb 373d 765b dfbc
00000050: 5af1 2c3e 5deb 1bbd a71e b43d 7e00 433d
00000060: ad5f 97bd eb82 a7bd bf9a 62bc d979 f23d
00000070: 32c4 b3bd f5a9 873d 5909 ff3c 9ebf 573d
00000080: 5e4c 42bd 2ebd 83bc 425f e3b9 28ce 033e
00000090: 0413 37be 2e00 a5bd c339 9c3d 7fe4 70bd
000000a0: c0ac 58bd 2f1d bcbb 5384 da3d 6e5a 41be
000000b0: 5531 febc cefb fc3d ac7a 06be fa7f d03d
000000c0: 9b06 e5bd 7976 ec3d 33bc b53d c2b6 b2bd
000000d0: 890a babd 1d30 9a3c eaac 1c3c 267f e6bc
000000e0: dc0e 67bd acbc 0cbd 5803 bcbd f87c e13c
000000f0: 4b86 28bc 245f aa3c 8dba 7f3d 8fbf 8e3d
00000100: b3d0 6d3e d021 babd 5aa0 573c e519 bcbd
00000110: 6a6b 243d e9c4 9ebd 9012 993d 8cae 07be
00000120: dec9 073d 5c90 a4bc 6d9d 09bd 83f3 d8bd
00000130: aa02 133e e562 e9bd 66b2 83bc 6f83 893d
00000140: 52a9 ca3d 4492 1a3e 74d7 2d3e 00f8 853c
00000150: b402 e6bc 73a0 ffbc bda6 e23d

bias f4 [5]
0.0045349365 -0.01788494 0.00889619 0.0007844103 -0.003438227
00000000: ce99 943b 7083 92bc 53c1 113c e2a0 4d3a
00000010: e153 61bb

lower_entries f4 [10]
0.00015557167 -0.0006802224 0.007913554 -0.00030514572 0.00093961915 0.00043807042 -0.0021850988 -0.0014563082
0.0032852632 0.0023360576
00000000: f420 2339 f450 32ba daa7 013c f7fb 9fb9
00000010: c650 763a d1ac e539 e033 0fbb 98e1 beba
00000020: 924d 573b 8b18 193b

upper_entries f4 [10]
-0.0019268532 0.0005653001 -0.001228122 -0.00087404565 0.0012412011 0.001580985 0.0034908112 0.0015382827
-0.006179913 0.0007410972
00000000: 778e fcba a630 143a f0f8 a0ba 3620 65ba
00000010: ccaf a23a 0e39 cf3a 18c6 643b 34a0 c93a
00000020: de80 cabb 3146 423a

unconstrained_upper_diag f4 [5]
0.5180973 0.50709754 0.51978594 0.52468467 0.5148604
00000000: 06a2 043f 25d1 013f b110 053f bc51 063f
00000010: e4cd 033f

weight f4 [50, 3]
-0.4887128 0.25739345 -0.53285134 -0.35780612 0.47908872 0.13821152 0.44998592 -0.008513942
-0.060637075 0.20601009 0.092176564 0.068725705 -0.085918315 -0.20393291 -0.3650311 0.31635168
-0.47397494 0.30400577 -0.037131757 -0.13259883 0.038308382 -0.18530183 0.5947863 0.4191339
0.29921693 0.09941197 0.3915189 -0.43671203 0.39282203 0.350881 -0.30691597 0.18594016
-0.0095002595 0.40771747 0.48444518 0.10088954 0.4071645 0.24187481 -0.47297525 -0.29852986
-0.0042092316 -0.45638084 0.55107474 0.42110518 0.061954476 -0.20488885 -0.350833 -0.10929614
0.22611077 0.33358386 -0.09485292 -0.305951 0.27652484 0.011864862 0.4777759 0.23420817
-0.15381162 -0.16419224 -0.6554539 0.036592692 -0.40425324 0.019505473 0.35130066 -0.20679003
-0.5856776 0.10274462 0.23050007 -0.1286403 -0.45143536 0.3776345 -0.2575222 0.41266727
-0.010983814 0.5450876 -0.22671968 -0.15942353 0.2792771 0.40629327 -0.0025854963 0.14732698
-0.58072025 0.38079545 -0.16353954 0.6122535 0.09865217 -0.3420112 0.09601662 0.06402763
0.41994393 -0.26069167 0.29149994 0.35347465 -0.2948329 0.5209023 0.26960838 0.09695725
-0.30145591 0.505765 0.5390319 0.06841153 0.048369184 -0.03357401 -0.12154397 -0.45384502
0.38570628 0.43445498 0.48725533 -0.30015543 0.32857427 0.17905532 0.5061949 -0.22129066
-0.21615289 -0.13163163 0.050426863 0.37583932 0.21186641 0.039371528 -0.5005524 -0.35741812
-0.3076016 0.59575754 0.5493076 0.5543262 -0.16632724 -0.3920752 0.14808209 0.52452165
-0.41076407 -0.21429378 0.5735516 -0.2202969 -0.066136494 -0.55496407 0.07026445 -0.046641078
0.24008976 0.20430142 -0.49491468 -0.10222578 -0.347357 -0.45185438 0.1688928 -0.4565022
-0.40420678 0.0975643 -0.15695767 0.0907387 -0.04747698 -0.4824447
00000000: 9038 fabe 13c9 833e f268 08bf 5d32 b7be
00000010: 1e4b f53e 5287 0d3e 8e64 e63e 107e 0bbc
00000020: 955e 78bd 4ff4 523e 11c7 bc3d 10c0 8c3d
00000030: f1f5 afbd cad3 50be 5be5 babe d9f8 a13e
00000040: d8ac f2be a5a6 9b3e 7817 18bd fdc7 07be
00000050: 40e9 1c3d c3bf 3dbe ea43 183f b898 d63e
00000060: f632 993e 8198 cb3d 2a75 c83e b898 dfbe
00000070: f81f c93e ada6 b33e 1724 9dbe 1967 3e3e
00000080: faa6 1bbc 58c0 d03e 3309 f83e 2d9f ce3d
00000090: de77 d03e 08ae 773e d029 f2be e8d8 98be
000000a0: 98ed 89bb c0aa e9be 3c13 0d3f 199b d73e
000000b0: fac3 7d3d 62ce 51be 62a0 b3be a8d6 dfbd
000000c0: 9589 673e 81cb aa3e 3f42 c2bd 9ca5 9cbe
000000d0: aa94 8d3e d764 423c 0b9f f43e 44d4 6f3e
000000e0: cb80 1dbe 0322 28be d4cb 27bf 38e2 153d
000000f0: 48fa cebe f1c9 9f3c aedd b33e c4c0 53be
00000100: f8ee 15bf c56b d23d 3608 6c3e 48ba 03be
00000110: 8922 e7be 4f59 c13e f3d9 83be 2049 d33e
00000120: 74f5 33bc dc8a 0b3f 3429 68be ec3f 23be
00000130: 68fd 8e3e ac05 d03e 6e71 29bb e2dc 163e
00000140: 15aa 14bf 9ff7 c23e e976 27be a5bc 1c3f
00000150: 260a ca3d 181c afbe 5da4 c43d eb20 833d
00000160: e402 d73e 6179 85be 7b3f 953e a1fa b43e
00000170: 56f4 96be da59 053f 1c0a 8a3e 8691 c63d
00000180: 6e58 9abe d179 013f fffd 093f 581b 8c3d
00000190: c41e 463d e784 09bd 0cec f8bd 605e e8be
000001a0: 4b7b c53e e270 de3e 8879 f93e f9ad 99be
000001b0: e33a a83e 475a 373e fd95 013f 059a 62be
000001c0: 2f57 5dbe 71ca 06be 668c 4e3d 036e c03e
000001d0: 82f3 583e 0a44 213d 3424 00bf 82ff b6be
000001e0: f57d 9dbe 9183 183f 6c9f 0c3f 52e8 0d3f
000001f0: b051 2abe 15be c8be d5a2 173e 0d47 063f
00000200: ab4f d2be d46f 5bbe 47d4 123f 8395 61be
00000210: 9272 87bd 2012 0ebf cfe6 8f3d b70a 3fbd
00000220: 17da 753e 6434 513e 7565 fdbe c05b d1bd
00000230: c7d8 b1be 7559 e7be 3cf2 2c3e a8ba e9be
00000240: 31f4 cebe cbcf c73d 83b9 20be 36d5 b93d
00000250: 3977 42bd fe02 f7be

bias f4 [50]
-0.101888746 -0.27307698 0.57545125 0.14494188 -0.03028631 -0.46118438 0.19007015 -0.41443673
-0.48770785 0.4993624 -0.1154054 -0.15020952 -0.22544888 0.2375872 0.14884557 0.5218355
0.24907014 -0.16058952 -0.33124983 -0.13994007 0.4108936 0.31891465 -0.16511896 -0.43067807
0.31441227 -0.118847586 -0.3331352 0.34341767 -0.54738116 -0.30475292 0.28247383 -0.40394667
-0.09778527 0.32284364 0.21203385 0.51098794 -0.5160288 0.49017337 0.60582626 0.363149
-0.26260242 -0.04206591 0.34985992 -0.4215263 -0.29725176 0.2075724 -0.5075472 -0.079161726
0.25455844 -0.10129124
00000000: 0cab d0bd bfd0 8bbe c650 133f a56b 143e
00000010: ff1a f8bc 5c20 ecbe c0a1 423e 0d31 d4be
00000020: d8b4 f9be 6eac ff3e ab59 ecbd 86d0 19be
00000030: 12dc 66be 0f4a 733e f96a 183e 0397 053f
00000040: 3e0c 7f3e 9471 24be 9499 a9be 734c 0fbe
00000050: a560 d23e c848 a33e f214 29be d681 dcbe
00000060: a5fa a03e 5d66 f3bd b290 aabe 71d4 af3e
00000070: 2c21 0cbf 9308 9cbe 69a0 903e 19d2 cebe
00000080: a543 c8bd c34b a53e 671f 593e 1bd0 023f
00000090: 771a 04bf 01f8 fa3e 6e17 1b3f aaee b93e
000000a0: d373 86be 4e4d 2cbd d720 b33e 4cd2 d7be
000000b0: 6231 98be dc8d 543e 9dee 01bf 8b1f a2bd
000000c0: 7c55 823e c871 cfbd
