sbibm/tasks/slcp/files/num_observation_7/proposal.pt (torch, 333865 bytes, 83 tensors)

weight f4 [50, 2]
000000 ee 7e 07 3f 76 a3 2f bf 40 33 31 3f 2b d4 2f be
       0.52928054 -0.68608797 0.69218826 -0.1717078
000010 a7 d1 2b 3e b3 6f df be 5d a1 19 be e9 2c fc be
       0.16779195 -0.43639907 -0.15002961 -0.49253014
000020 76 a7 21 3f 95 fd 11 bf 7e df cd 3e 10 cb 17 bf
       0.6314615 -0.5702756 0.40209574 -0.59294224
000030 d4 67 0e 3f a0 47 00 3f 03 71 a8 3d 0f 1e 1c bf
       0.5562718 0.5010929 0.0822468 -0.60983366
000040 7e 32 43 bf 4d ff ac 3e d7 06 1e be 5d 8e 4e 3f
       -0.7624892 0.3378853 -0.15432297 0.8068598
000050 60 a5 d7 3e d4 35 05 3f f7 46 2d bf a0 29 b2 bd
       0.4211836 0.5203526 -0.6768641 -0.086993456
000060 a4 06 24 bf 9e a2 15 3f b6 f5 35 3f 14 54 8c be
       -0.6407263 0.5845126 0.7107805 -0.27407897
000070 ab 96 01 be 69 0d 24 3f 29 66 db bd e2 0b ee 3e
       -0.12655132 0.6408296 -0.10712845 0.4649344
000080 ad c3 96 3e 00 59 8f 3e 18 a1 f7 3d b5 9a 05 bf
       0.29446164 0.2799759 0.12091273 -0.5218919
000090 ee f4 0a 3f 3a 76 00 3f 6d bd b2 3e 58 ad c6 be
       0.54279983 0.501804 0.34910145 -0.38804126
0000a0 2d 74 94 3b 80 e8 14 bf 2b ff 3f bf a8 e1 8a be
       0.004530451 -0.58167267 -0.7499873 -0.27125287
0000b0 0d d1 d0 be 7e 14 41 3e 9e fe 23 3f f0 91 2d bf
       -0.40784493 0.18855473 0.6406039 -0.6780081
0000c0 79 cc 3d bf 6e d5 01 3e 92 1e 9e 3e b6 3b 1e be
       -0.74140126 0.12679073 0.30882698 -0.15452465
0000d0 c5 76 51 3e 10 9c 2c bf d3 dd 20 bf 6d d0 9b be
       0.20455463 -0.6742563 -0.62838477 -0.30432454
0000e0 c3 cd 80 3d de 9b b4 3e e1 4b 7b 3e ae c2 d1 be
       0.06289246 0.35275167 0.24540664 -0.4096884
0000f0 1d dc 8b 3e 05 cf 38 bf ac 45 fb 3e 91 6f d8 be
       0.2731637 -0.72190887 0.49076593 -0.42272618
000100 86 f4 df be a3 ba 2a 3e 1d 21 0f bf 7b 93 cf be
       -0.43741244 0.16672759 -0.559099 -0.40542206
000110 7e 4c 10 bf 7c 57 2f 3f 4e b8 af 3e 80 49 e7 bd
       -0.5636672 0.68492866 0.343203 -0.11293316
000120 e7 d3 b1 be 4f 15 2e bf 94 ce 0b 3f b4 ac 1d 3f
       -0.3473198 -0.68001264 0.5461209 0.6159165
000130 81 67 44 3f 6f 56 a1 be ef 21 85 3e 23 80 21 3f
       0.76720434 -0.31511256 0.26002452 0.63086146
000140 01 c8 14 bf f5 11 0a 3e 3f ad 73 be 1e c2 a4 bc
       -0.5811768 0.13483413 -0.23796557 -0.020112094
000150 c1 e2 ba 3e 4b 4d 10 bf b8 32 96 3e 6d ec 02 bf
       0.36501125 -0.5636794 0.2933557 -0.5114201
000160 93 2f ab 3d 7d d1 5f 3d bd 65 84 3e 30 7f 45 3f
       0.083586834 0.054643143 0.2585887 0.771472
000170 7a 4e 23 3f 1c 1e 39 be cd 70 00 3f f8 63 60 bd
       0.6379162 -0.18077892 0.5017212 -0.054782838
000180 25 a1 09 3f f2 61 10 3f 46 5b fa 3e b9 c5 c8 3e
       0.5376151 0.5639945 0.4889776 0.3921335

bias f4 [50]
000000 de a1 ea 3a 23 71 82 be 0a ba f2 3e 13 f0 c2 be
       0.0017901023 -0.2547694 0.47407562 -0.38073787
000010 14 39 dd 3e 92 45 36 bd 7a 82 f5 3e 7c af 01 be
       0.4320761 -0.04449994 0.47951108 -0.12664598
000020 47 f8 7c be 0d 73 6d be 17 a8 54 3e ea 0a 8d bd
       -0.24704085 -0.2318842 0.20767246 -0.06886847
000030 ff e9 c0 be e7 c7 8a bd d9 c9 13 3f b8 d2 1f bf
       -0.37678525 -0.067764096 0.5772987 -0.62430906
000040 5d cc 13 bf b9 cc cb be 46 42 a3 be 13 28 0b bf
       -0.5773371 -0.39804628 -0.318865 -0.54358023
000050 d5 0e 17 bf 45 fd 6d 3e 12 cc c5 3e 6f cf 56 bf
       -0.59007007 0.23241146 0.38632256 -0.8391027
000060 3a 10 1d bf d3 83 26 bf f4 ba 0f 3e 67 7a b8 3e
       -0.61352885 -0.650449 0.1403616 0.36030886
000070 0a be 31 3f ad 92 19 3e d2 fd 90 3e 0f 39 bb 3c
       0.694306 0.14997359 0.2831865 0.022854356
000080 9f 19 fc 3e d9 ff 16 3f fd 58 fe be 87 d7 03 3f
       0.49238297 0.5898414 -0.49677268 0.51500744
000090 dd 4f a6 bd a1 38 c8 3d 0d bb e2 bd e5 63 ae be
       -0.081207015 0.09776426 -0.11070833 -0.34060588
0000a0 98 1d 19 bf c5 ea 8e be 85 2a 89 bc 8a e1 e0 3e
       -0.5981078 -0.2791349 -0.016743908 0.43922073
0000b0 69 ed 4b 3f 37 fc 0a bf 4f 20 d2 3e 2c 61 ca 3e
       0.79659134 -0.542911 0.41040275 0.3952726
0000c0 07 f7 cf 3e 0c cd 26 be
       0.40618154 -0.16289157

weight f4 [50, 50]
000000 76 51 5b 3e 1f d3 8b 3d ae 82 5f 3e 88 ad 01 bf
       0.21417794 0.068273775 0.21827194 -0.5065541
000010 01 69 85 3d 1a 8f 92 bd 8b d6 42 bd 4d 5b 06 bf
       0.065141685 -0.07156201 -0.047567885 -0.52483064
000020 a5 48 95 3c a0 eb 93 be 14 f7 0d be 80 d9 0c 3e
       0.018223116 -0.28890705 -0.13863784 0.13754845
000030 4a 11 9d bc 7a 25 01 3e eb b1 0b bd 5a 6b 38 be
       -0.019173283 0.12611952 -0.034105223 -0.18009701
000040 32 55 76 be 42 78 9c be a5 e0 0c be 0e d1 02 bf
       -0.24055937 -0.305605 -0.1375757 -0.5110024
000050 46 25 28 bf 2f 95 54 bd de e8 12 3e b6 12 42 be
       -0.65681875 -0.051900085 0.14346644 -0.1895245
000060 2e 3b 28 bc ae 8f b6 be 5b c7 d4 be fa cc 8a 3d
       -0.010268016 -0.35656494 -0.41558346 0.067773774
000070 81 31 49 3e d1 b8 50 bd 9f 9d 53 be 2f 65 02 3e
       0.1964779 -0.050957505 -0.20665596 0.12733911
000080 33 b4 3f 3e 98 56 89 3d 65 0e 25 bd c0 b9 9a 3e
       0.18721084 0.067059696 -0.04029693 0.3021984
000090 4f 1d e0 bd 4a ff 14 bd 9e c5 8e 3e 6d ea c3 bd
       -0.1094309 -0.036376275 0.27885145 -0.095661975
0000a0 c2 e5 bc bd aa 9b 74 3d 3b d8 08 be 15 45 b2 3d
       -0.0922351 0.059718765 -0.13363735 0.087045826
0000b0 f0 a2 9c 3e 0e 6a 4f be b3 9e 21 3d 88 c3 18 3d
       0.3059306 -0.202553 0.039457988 0.037295848
0000c0 94 f9 9e 3d 5b 2e bc bb 0f a7 68 3e af 16 d4 bd
       0.07762447 -0.0057428307 0.22719978 -0.10355889
0000d0 a3 7b a1 3d 30 16 b5 be dd 1f 84 bc 9a 1c a5 3e
       0.0788491 -0.3536849 -0.016128475 0.32248384
0000e0 98 0d b6 3d 83 27 ab be 03 3c c7 bd 84 81 ca bd
       0.088893116 -0.33428583 -0.09728243 -0.098879844
0000f0 47 00 18 bd 19 d0 f6 bd 9c fd 04 3e 51 7a 88 bc
       -0.03710964 -0.1205141 0.1298737 -0.016659888
000100 ee 58 83 3e ae 25 42 3d 89 62 9b be 6f 55 e9 3c
       0.25653785 0.047399215 -0.30348614 0.02848312
000110 f3 2a 4b be 0d 98 8b be f6 d2 7f be 70 4a 4c be
       -0.19840603 -0.27264443 -0.24982819 -0.1995027
000120 54 df f6 3c 14 19 c4 3c d4 87 26 be 9a 49 95 be
       0.030135788 0.02393774 -0.16262752 -0.29157716
000130 b1 94 f3 3d 0d 3d 49 bd d4 18 19 3e 9c 2b a1 3d
       0.11893595 -0.04913049 0.14950877 0.07869646
000140 4d c6 4f bc 51 d3 24 3e 36 cc 83 3e d1 2e 9a bd
       -0.012681556 0.16096236 0.25741738 -0.07528461
000150 32 37 86 3d 27 09 5b 3d 53 81 5b be ed 22 42 be
       0.065534964 0.053475525 -0.21436052 -0.18958636
000160 26 bf 4f be 3f 58 d4 bd 50 2e 99 3c 43 ed 4d bd
       -0.20287761 -0.10368394 0.018698841 -0.0502751
000170 fb 31 55 3e 01 03 91 bd 10 c0 6c 3e ad 3c cf bd
       0.20819847 -0.07080651 0.23120141 -0.10118995
000180 9f 18 96 bd 5b 3b e1 bd fc 15 1d 3e f7 87 ab bd
       -0.07328915 -0.10997649 0.15340418 -0.083755426
000190 64 7d b3 bd ff c4 8d 3c 29 7d c8 3d 66 de 28 3e
       -0.08764151 0.01730585 0.097894974 0.16491088
0001a0 e6 4c 69 3d c6 8e a0 bd fa 6d 9e bc ba 11 2b 3e
       0.0569581 -0.07839732 -0.01933955 0.16705981
0001b0 81 84 61 bd e9 fe b1 3d ff 83 0d be 79 30 00 be
       -0.055058006 0.086911984 -0.13819884 -0.12518491
0001c0 3e 3c 87 bd 43 2e 53 3d bc e6 04 3e 5f 4b 48 3e
       -0.06603287 0.05155779 0.12978643 0.19560002
0001d0 af f0 a0 3d 64 ac 30 3e 3e 52 21 3d 21 a5 86 3d
       0.07858407 0.17253262 0.039385073 0.065744646
0001e0 c0 02 90 3e 2b f0 05 be 2f 9f 65 3d 1a a2 d7 3c
       0.28127098 -0.13079898 0.056060012 0.026322413
0001f0 35 67 39 3e d8 88 e3 bd 13 f6 07 3e 82 8e 89 3d
       0.18105777 -0.11110085 0.13277464 0.06716634
000200 02 e7 41 bd 14 c7 de 3d ae b3 42 bc 9f 14 86 3c
       -0.047339447 0.10877815 -0.011883659 0.016367255
000210 06 13 fc 3b 19 4f 15 3d 89 0c 3b 3e cf de 44 3d
       0.0076926975 0.036452387 0.182665 0.04806405
000220 0c 3e c8 bc 06 50 cd 3d cd 4a 05 be ef e4 76 3d
       -0.024443649 0.10025029 -0.13016815 0.06027692
000230 12 a7 4a 3e 12 59 00 3c ad 74 34 bd 03 57 1a bd
       0.19790295 0.007833736 -0.044056583 -0.037680637
000240 db 6e e6 3c 96 06 31 3e 83 80 f1 3c 42 e7 f9 bd
       0.028129032 0.17287669 0.029480224 -0.12202312
000250 b8 2a 00 be 8a d9 3e 3d 3e 6a ae bd e3 65 c0 3d
       -0.12516296 0.04659418 -0.08516358 0.09394433
000260 85 d9 29 bd ef 53 f8 bd 8b 37 f0 bd 6e 6e c8 bd
       -0.04146721 -0.12125384 -0.11729344 -0.09786688
000270 6e 91 33 3d 6c ed 97 bc e7 7a 1c bd fc a0 c5 bc
       0.043839864 -0.018545829 -0.038203146 -0.024124615
000280 a9 22 ae bc 47 98 f7 bc 27 ae a4 3d 98 4d 89 3c
       -0.021256762 -0.030223979 0.080410294 0.016760632
000290 38 f8 9d bd e6 69 78 3d 1d 52 41 bd ab 9f f3 bd
       -0.077133596 0.060647868 -0.04719745 -0.118956886
0002a0 7f f5 6a bd a1 b2 93 bd 87 42 d3 bd 49 77 87 3d
       -0.05736303 -0.07211805 -0.103154235 0.06614549
0002b0 1a 0c 96 3d 9b 5d 14 3c a1 39 c4 bd d2 3a 16 bd
       0.07326527 0.00905552 -0.09581304 -0.03667719
0002c0 b2 d5 03 be 20 de d4 bd 27 63 03 be 5c c8 55 3d
       -0.12874487 -0.103939295 -0.12830792 0.05219303
0002d0 1d d3 ba 3c 7a 9d 85 bd 62 9a eb bd 87 8c 8c 3c
       0.022805745 -0.06524177 -0.115040556 0.017156852
0002e0 dd 30 f8 bd 66 8d 9c 3d c6 56 0a 3d d1 4e 40 bd
       -0.12118695 0.07644157 0.03377416 -0.046950165
0002f0 8f c7 72 bd 68 0f ad 3d d0 b9 10 3e 14 42 bb 3d
       -0.059272345 0.08450204 0.14133382 0.09143463
000300 25 f5 38 bc f1 c1 94 bd 70 39 1f be 6c 7c be bd
       -0.011288916 -0.07263554 -0.15549254 -0.09301075
000310 5a d0 52 bd 35 a0 0c be 94 73 e4 3d 62 12 ab 3c
       -0.05146823 -0.13732989 0.11154857 0.020882789
000320 a7 a9 e9 bb a6 84 09 be 45 7f 5b bd ca 49 d3 bd
       -0.00713082 -0.13429508 -0.05358817 -0.103168085
000330 93 41 21 bc 7d 80 26 3e 1f c9 0d 3e 1d e1 8c 3d
       -0.009842294 0.16259952 0.13846253 0.068788745
000340 0d 7c 47 3b ac a1 50 3e de 0f 14 bd 15 03 77 3a
       0.003043893 0.20374173 -0.036147945 0.00094227615
000350 9b a5 31 3e 0f 77 88 3d 9a 10 0e be f5 f2 a2 3d
       0.1734833 0.066633336 -0.1387352 0.079564966
000360 54 c3 31 be 68 93 d2 3d a8 75 1c be 05 e5 80 be
       -0.17359668 0.10282022 -0.15279257 -0.25174728
000370 52 e2 3e 3d 6e e4 98 bd 84 c2 38 3d e4 98 1e bd
       0.046602555 -0.074654445 0.04510738 -0.038720027
000380 53 75 80 3d 15 64 87 be ac 1d 17 bd a2 34 7c 3c
       0.06272378 -0.26443544 -0.03689353 0.015393408
000390 df 63 9c bd 0d 7c f5 3d 70 3c 2a 3e 1e 84 d6 3d
       -0.076362364 0.119865514 0.16624618 0.10474418
0003a0 e2 f6 c9 bd 2b 81 d2 bd 06 fc 17 3e 04 a0 06 bd
       -0.09861542 -0.10278543 0.14842233 -0.032867447
0003b0 dd a1 ad bd a9 42 cc 3d bd 94 72 bd 7e 59 e6 bc
       -0.084781386 0.09973652 -0.05922388 -0.028118845
0003c0 4d 06 60 3e f4 c6 81 bd 88 72 4c 3e 3d 62 ee 3d
       0.21877404 -0.063367754 0.19965565 0.11639831
0003d0 c0 89 c1 bc b9 f1 2d bc ad a5 fc 3c 22 c5 9b 3d
       -0.023625255 -0.010616713 0.03084072 0.076059595
0003e0 c6 8a 96 3d 6f fc 54 bd 70 5a 14 be ce 08 0b bd
       0.07350688 -0.051998552 -0.14487624 -0.033943944
0003f0 3c 41 4e 3d ea 1e 9d bd 7e 9f 7c bd 06 6b b8 3b
       0.05035518 -0.07671912 -0.06167554 0.0056279926

bias f4 [50]
000000 22 91 1e 3e fb 6f 98 3e a9 0a d9 bd 83 8b 0d bd
       0.15485051 0.29772934 -0.105977364 -0.034556877
000010 3d 4e ad 3d 9f 9d f3 3c f2 e1 20 3d ec 2d 15 3e
       0.084621884 0.029738246 0.03927798 0.14568299
000020 5e b8 0f 3e 8f 10 c3 3d c5 0d 08 3e 81 7f 24 3e
       0.14035174 0.09524643 0.13286503 0.16064264
000030 ec 5a 2f be f2 92 24 bd 59 74 bd 3d 02 b9 88 3e
       -0.17124528 -0.0401792 0.09250707 0.2670365
000040 5e 68 3e 3e 56 95 fb 3d 5f 2b 13 be 05 81 10 3c
       0.185945 0.12284343 -0.14372014 0.008819823
000050 7e 3e 92 3e c7 df f9 3d af 70 16 bd 2e b1 0a be
       0.28563303 0.12200885 -0.036728557 -0.13544151
000060 a5 d3 99 bc 35 d9 fe 3d 9b 3a a6 bd 11 3f 52 3e
       -0.018777678 0.12443773 -0.08116647 0.2053187
000070 64 7f 3f bc c8 19 0c 3e 2a c7 c2 3c 44 83 d6 3b
       -0.011688087 0.1368171 0.02377661 0.00654641
000080 e1 ce 2c 3e f8 5b b9 bd eb ef 0d 3e b5 6e 94 bc
       0.16875793 -0.09050745 0.13861053 -0.018119195
000090 ba 94 54 bc 76 06 48 be b5 56 8a 3d 8f 54 0f 3e
       -0.012974912 -0.19533715 0.06754819 0.139971
0000a0 15 aa 04 bd 4a 0a 0d be f3 f5 e2 bc 18 34 58 3e
       -0.032388765 -0.13773456 -0.027705168 0.21113622
0000b0 65 a4 a2 3a b5 d4 bd bd 34 9c c6 bd 8c e7 64 3d
       0.0012408613 -0.09269086 -0.09697762 0.055884883
0000c0 b7 9a 95 3d 5c 3e 5d 3e
       0.073049 0.2160582

weight f4 [50, 50]
000000 98 74 9a 3d ed d2 1a 3e c0 2d 55 bd 78 d9 2e bc
       0.0754177 0.15119524 -0.052045584 -0.010671966
000010 a1 cd a8 bc 67 0e e4 bc b2 3e 5a ba c5 f5 df 3d
       -0.020605864 -0.027838899 -0.00083253824 0.10935549
000020 91 bd be 3d 21 6b ec 3c 79 f3 40 3d 46 ab 1c bb
       0.09313501 0.028859677 0.047107194 -0.0023905798
000030 1b 85 bd bc 0d 6d 74 3a 2b 7c f5 3d d9 66 43 3e
       -0.023134759 0.0009324111 0.11986574 0.19082202
000040 7e 08 bc 3d cb 4b dd bc e8 86 a9 bd 2e 98 87 3d
       0.09181307 -0.02701368 -0.082776845 0.06620823
000050 86 40 2d 3d 16 90 69 bd d7 b0 38 bd e2 d8 02 bd
       0.042297862 -0.057022177 -0.045090523 -0.031945117
000060 89 44 26 3d 65 72 0b 3e 9c 87 61 ba 95 a9 44 bd
       0.040592704 0.13617857 -0.0008603276 -0.04801329
000070 b2 ea af bd 2e 87 10 be f8 33 f9 bd eb fa 5f bd
       -0.085896865 -0.14114067 -0.121681154 -0.054682653
000080 b6 41 34 bc 45 4d f3 bb 6d dd 05 be 51 b4 31 ba
       -0.011001995 -0.0074249827 -0.13072748 -0.00067788834
000090 b6 7d 31 bd d0 e4 30 be df 15 12 3d c5 cc 2c bd
       -0.043332778 -0.17274785 0.03566539 -0.04218747
0000a0 7e 43 6d bd 03 48 f3 3d f7 f3 f0 bd 08 f3 bf 3d
       -0.057925694 0.118789695 -0.117652826 0.093725264
0000b0 27 ce cb 3d 49 16 23 3d 90 68 97 bd 84 9c 34 bd
       0.0995143 0.039816175 -0.073929906 -0.044094577
0000c0 50 68 50 be b1 47 6c 3e 52 c1 e3 3d d3 40 93 3c
       -0.20352292 0.23074223 0.11120857 0.017975247
0000d0 94 8a 99 bd ad 31 78 bb 54 99 59 3d 27 75 e3 bc
       -0.07497135 -0.0037871406 0.05312474 -0.027765824
0000e0 15 3c 3e 3d 7f 64 82 3b ef f7 f7 bd 27 05 05 3e
       0.046444017 0.003979265 -0.121078365 0.12990247
0000f0 d0 9c db 3d 17 20 2c 3d b3 27 db 3d 20 32 82 ba
       0.10723269 0.04202279 0.107009314 -0.0009933151
000100 5d d6 c4 3d bc 99 5f 3d bb ae f1 3d 0c 19 d9 3c
       0.09611199 0.054589972 0.11800905 0.026501201
000110 a1 38 9a bd 4e cf a3 3d 6e 71 4c 3b 6e 8f 93 bd
       -0.07530332 0.079985246 0.003119554 -0.072050914
000120 3b 2f 9e bd c7 47 8d 3c ee d4 13 3d 31 71 38 3c
       -0.07723852 0.01724614 0.036091737 0.011257456
000130 d1 30 02 3a 0e 54 95 bd 8e 09 94 3d 6b 84 84 3c
       0.00049663807 -0.07291423 0.07228385 0.016176423
000140 b3 83 8e bc 77 17 5c be 71 e6 2a bd de cf 9b bc
       -0.017396783 -0.21493326 -0.041723672 -0.019020017
000150 23 a5 04 be c1 7d 16 39 a4 19 ae bd 6b 99 72 bd
       -0.1295362 0.00014351962 -0.08500984 -0.059228342
000160 e9 ac 7f 3d 62 13 8a 3d 4f 43 bd 3d ac eb 2d be
       0.06242076 0.06741978 0.09241354 -0.16984433
000170 28 b8 cf ba f3 33 22 3d ee c2 14 3e dc 3a 07 be
       -0.001584773 0.039600324 0.14527485 -0.13206047
000180 60 cb 1b be d4 50 97 bd e3 e5 2a bd 6c 68 fa 3b
       -0.152143 -0.073884636 -0.041723143 0.0076418426
000190 22 57 c7 3d 88 3b 5d 3e a3 b7 7f bc b0 90 0f bb
       0.09733416 0.2160474 -0.015607747 -0.0021906309
0001a0 d1 45 6d 3c aa 21 6e 3c 33 6d ec bb d9 e3 8a 3c
       0.014481978 0.014534393 -0.007215166 0.01695435
0001b0 a2 b2 3b bc 48 54 01 3d 37 e5 40 bb 47 48 cf 3d
       -0.011456164 0.031574517 -0.0029433498 0.10121208
0001c0 72 b7 1f bd 03 a5 3c ba a3 a3 69 3c b9 92 d6 3c
       -0.038993306 -0.00071962195 0.014260205 0.02619301
0001d0 fd ed da bb 0a 9d 9f 3c 89 30 15 bd be 9c 12 bd
       -0.0066812024 0.019484062 -0.03642324 -0.035794012
0001e0 fb 10 4d 3e 1f e6 db 3d 24 b6 dd bb ed 27 ef 3b
       0.20026009 0.107372515 -0.0067660976 0.0072984607
0001f0 b0 6e 7b bb 19 ce 0f bd 36 ee f6 b9 d1 23 a6 3d
       -0.0038365535 -0.03510866 -0.00047098257 0.081123
000200 e1 85 b8 3b 79 fe 12 bd 94 b5 08 bd 40 10 00 bc
       0.005631194 -0.035887215 -0.03337629 -0.007816374
000210 9e 2c e7 3d 0a 5e db 3b 4d e8 18 3c ba e9 f4 b6
       0.11287807 0.00669456 0.009332729 -7.298976e-06
000220 8b 1a 07 b9 f8 b0 05 3d 50 1a 2a 3d 90 70 0b 3e
       -0.00012884491 0.032639474 0.041529 0.13617158
000230 51 65 83 3d 85 0a 14 3e ba ee 61 bd 08 11 5e bd
       0.06415809 0.14457138 -0.055159308 -0.05421546
000240 6c ac 3c bd db ff a0 3c b8 14 e6 3d 55 3e 45 3d
       -0.04606287 0.019653251 0.112344205 0.048155148
000250 94 fa e8 bc 61 8f 60 3d 44 63 a3 3d 28 dd 9d be
       -0.028439797 0.054824237 0.07977918 -0.3083279
000260 17 e9 8d 3c 39 de 44 3a bd 3c 57 bc 1f af 7f 3c
       0.01732306 0.00075099204 -0.01313704 0.015605717
000270 54 78 2c bd 9f 41 c9 bd 89 4f 0c bd 32 ed 55 bd
       -0.04210694 -0.09826969 -0.034255538 -0.05222816
000280 7c 64 11 bb 53 2c 20 3d fe 7a 15 3e 57 1d 54 ba
       -0.0022185137 0.03910477 0.14597699 -0.000809153
000290 f2 c4 9d bd c7 eb 46 be 76 1c 9d bd 03 3b df 3c
       -0.0770358 -0.1942588 -0.07671444 0.027249819
0002a0 48 a7 c3 3d d3 77 a1 3a 89 f3 43 3d b6 c0 ba 3d
       0.09553391 0.0012319036 0.047839675 0.09118788
0002b0 cc 38 c6 3d 1a c8 90 3d b1 b8 92 ba ca a9 27 be
       0.09678802 0.07069416 -0.0011193958 -0.16373363
0002c0 79 29 48 b8 5c f7 0a 3d 21 9f 04 be 3a 95 be bd
       -4.772234e-05 0.033927307 -0.12951328 -0.093058065
0002d0 44 e3 8b bd 2d 46 27 3d d8 8a 00 3d 01 56 9f 3d
       -0.06830457 0.04083841 0.03138241 0.07780076
0002e0 f4 23 d1 bd da 9d de 39 cf 97 1b 3e 70 d5 70 bd
       -0.10211936 0.00042460748 0.15194629 -0.0587973
0002f0 d4 62 18 3c 9f dd 4e be 84 48 c8 bd 34 60 ac 3d
       0.009300906 -0.20201729 -0.09779456 0.08416787
000300 b2 cb f0 bc dd e2 b0 bd bb 17 87 3d 31 7b 0f 3e
       -0.029394004 -0.08637021 0.06596323 0.14011838
000310 24 98 63 3d 39 24 dc 3d 0e a2 2a 3d 03 09 1b be
       0.055565014 0.107490964 0.041658454 -0.15140156
000320 b7 18 01 be 40 a3 06 be d0 df 47 3d 44 09 a9 3c
       -0.12607084 -0.13148212 0.04879743 0.020634301
000330 79 21 0d 3d 96 91 81 3c f3 6e c6 bc 38 f0 5d bd
       0.03445575 0.015816491 -0.024222827 -0.05418417
000340 25 80 fb 3b 93 1c 5f 3b 52 6b c8 bb 8a 2d 43 bd
       0.007675188 0.0034044131 -0.006116309 -0.04765085
000350 08 4c d4 3d 71 10 43 3a 4f ee d5 bc 43 b5 bf bc
       0.10366064 0.00074411096 -0.026114611 -0.023401862
000360 f7 5c ea bc 32 fa e1 bc 91 00 cc 3d dd 4f 35 3d
       -0.028608782 -0.027585123 0.099610455 0.044265617
000370 a8 b8 13 bd 51 f6 14 bc 9a df c1 3d 78 e2 78 3c
       -0.036064774 -0.0090919295 0.09466477 0.015190713
000380 0b 61 e0 3c 0e 30 35 bd 28 67 7f ba 20 a2 58 bb
       0.027390024 -0.04423528 -0.00097428495 -0.0033055618
000390 e9 ff 58 bc d0 16 d0 bd 9b ed 40 bd 4f c4 33 3e
       -0.0132446075 -0.10160601 -0.0471016 0.17555355
0003a0 29 90 3c be b4 6a 62 3d 8c eb e5 bd 11 03 53 ba
       -0.18414368 0.05527754 -0.112265676 -0.0008049468
0003b0 c8 07 e7 3d ff 20 50 3d 7f b2 7d ba 43 4a f6 bd
       0.11280781 0.050812718 -0.0009677782 -0.12025883
0003c0 da 90 d1 3c d5 71 2c bd c1 a8 85 bc 28 61 91 3d
       0.025581766 -0.042100746 -0.01631582 0.07098609
0003d0 6d e4 89 3d 05 c6 05 3e 59 fe c8 3d 3a de 56 3d
       0.06733022 0.1306382 0.09814138 0.052458026
0003e0 ae e9 d0 bd b2 0a 8a bd 4e 5c 78 bd 81 a4 79 bd
       -0.10200821 -0.06740321 -0.060634904 -0.0609479
0003f0 e7 d5 80 3c c1 ed a7 ba ff bc 94 bc 59 ae 83 3c
       0.015726997 -0.0012811945 -0.018156527 0.016074346

bias f4 [50]
000000 a7 c8 7d 3c ab 21 88 3d b5 55 08 3d eb 25 5c bd
       0.015489734 0.06647047 0.03328486 -0.0537471
000010 a8 01 44 bd 89 62 14 bd c8 b0 6c 3c 72 29 8b bb
       -0.047853142 -0.036226783 0.014446445 -0.004246884
000020 f3 0a a5 bc 41 08 78 bd 4d d1 60 3d 83 e8 80 3b
       -0.020146823 -0.060554747 0.054887105 0.0039339676
000030 dc 41 d7 bb ff 06 f9 ba b5 63 b2 3d 4f 4f 68 bd
       -0.0065691303 -0.0018999277 0.08710424 -0.05671626
000040 72 3c a2 bd c2 6b 2f bd 7c f3 fa bb 49 f1 86 3c
       -0.07921685 -0.042827375 -0.00765842 0.016472476
000050 7c e8 be bd 95 62 71 bb 75 d8 c7 3d 7c 94 9d bc
       -0.093216866 -0.003683244 0.09758083 -0.019235842
000060 fa 81 d9 bd db 88 8b bd 8a 31 78 bd f1 4e 8e 3d
       -0.10620494 -0.068132125 -0.06059412 0.06948651
000070 b0 f2 3b 3d 42 f1 36 3d 87 69 da 3b 7c 3e 62 3d
       0.04588574 0.044663675 0.006665412 0.05523537
000080 a0 6a 0e 3e 85 4a a2 3d d9 d8 53 bd 9f b4 96 3d
       0.13907862 0.0792437 -0.051720474 0.073586695
000090 3b 98 9a bd 50 25 18 3d d1 6a 9c 3c c6 0c 73 3d
       -0.07548567 0.03714496 0.019093903 0.059338354
0000a0 96 6e 53 3d 0f 0e 8a 3d c4 8f f1 bc 58 dd 81 3c
       0.051619135 0.06740963 -0.029487498 0.015852615
0000b0 f2 aa b9 3d 99 ea b5 bd 20 65 a1 bc 9b cc 01 bd
       0.09065808 -0.088826366 -0.01970154 -0.031689268
0000c0 31 87 3a bd 62 d2 3d bd
       -0.045539085 -0.046343215

weight f4 [50, 50]
000000 d2 2e 43 3e c5 bc 0b 3e 62 7e d0 3d 01 c4 2f 3e
       0.1906083 0.13646229 0.101803556 0.17164613
000010 a6 0c 81 bc 47 30 b3 3d df 99 1f 3e ee 01 05 3e
       -0.015753102 0.087494425 0.15586041 0.12989017
000020 e7 dc 13 3c 9d 29 a0 3d f9 88 63 bd 81 0e bb bd
       0.009024835 0.07820437 -0.05555055 -0.09133626
000030 42 d3 36 3e df a2 b1 3d 44 f9 30 3d 30 2f f6 b7
       0.17854026 0.08673643 0.04320647 -2.9347459e-05
000040 f1 13 39 be f3 84 be bc d5 d7 af 3d 43 70 18 bb
       -0.18074013 -0.023256755 0.085860886 -0.0023260273
000050 1d 57 d1 3e 16 57 9c bd 18 9d 7f 3d bc 39 76 bd
       0.40886775 -0.07633798 0.062405676 -0.060113654
000060 0d 84 fb bd cf e0 b9 be d4 81 00 3e 7a 01 31 be
       -0.12281046 -0.36304328 0.12549525 -0.1728572
000070 48 d5 18 3d 87 34 aa bc 8e 30 b0 3d 00 17 ac bc
       0.037312776 -0.020777 0.08603011 -0.021007061
000080 20 19 8a 3c 57 bd c7 3c 3f 6b 09 3e c8 6b 50 be
       0.016857684 0.024382276 0.13419817 -0.20353615
000090 d0 37 84 3e c8 6f 69 3d 95 50 06 3d dd 15 90 3e
       0.25823832 0.05699137 0.032791693 0.2814168
0000a0 3b 9b 3b 3b 80 3d c8 bd a5 50 07 3d 7e df 3f 3d
       0.002862646 -0.09777355 0.033035893 0.046843998
0000b0 57 f6 ef bd 7a cd 16 bd c9 7f f3 bd b6 ff 30 bd
       -0.117169075 -0.03681705 -0.118896075 -0.043212615
0000c0 1f d9 86 bc 9d 98 90 bc ac c0 a7 3a 61 25 d2 3c
       -0.016460953 -0.017650897 0.001279851 0.02565259
0000d0 35 dc 48 bb f1 b3 98 3d e0 a3 36 3e be 60 08 3e
       -0.0030648832 0.07456196 0.17835951 0.13318154
0000e0 fb 14 8f be df df f6 3d 95 7e 67 3d 5e 83 46 be
       -0.27945694 0.12054419 0.056517202 -0.1938605
0000f0 09 32 db be 35 1f 16 3e 78 88 83 be 5c 59 3a bf
       -0.4281161 0.14660342 -0.25690055 -0.727926
000100 15 97 8a bd 15 05 9e be f3 34 07 bf 7c 13 6b 3d
       -0.06767098 -0.30863252 -0.5281517 0.05739163
000110 f2 f8 80 bf d0 e9 a8 3d 9f 17 83 be a3 ec 75 3e
       -1.0075972 0.08247721 -0.2560396 0.24016051
000120 23 32 26 3e d0 cd 67 3e 8f 9c 47 3e 4f be 5c 3e
       0.16230063 0.22637105 0.19493316 0.21556972
000130 1d d9 5c bd c9 da d1 3e 65 22 15 3d 40 bf 79 3d
       -0.053917993 0.40987232 0.036409754 0.060973406
000140 5d 6f 01 3e f7 8b 6f 3e 5e 4a 95 3d cf 42 8f 3e
       0.12640138 0.23393236 0.07289575 0.27980658
000150 1b 3e e2 3d 97 ca 11 bd b8 96 61 3e 65 66 b8 be
       0.11047002 -0.035593595 0.22030151 -0.3601562
000160 32 1c f1 3d ad c6 a2 bf 1a a0 9c 3e b3 ab 35 3e
       0.11772956 -1.2716881 0.30590898 0.1774128
000170 ff 4b 7f bc 59 b9 ae 3d e9 b6 30 be da ae 61 bf
       -0.015582084 0.08531446 -0.17257275 -0.8815743
000180 b2 0f 92 bd 94 ac 6f 3e 92 aa 86 be 8f 70 82 bf
       -0.071319 0.23405677 -0.2630201 -1.01906
000190 59 1d 0e 3d d2 96 b3 3e 30 eb 26 3e 52 ac d0 bd
       0.034695957 0.35076004 0.16300654 -0.101891175
0001a0 04 c8 3b bd 93 80 84 bd 6a e5 23 3d 88 0b de bd
       -0.045845047 -0.06469836 0.04001371 -0.10842043
0001b0 f3 d2 0c 3e c7 3e a3 be 23 96 c3 bd 0a 1b 2d 3d
       0.13752346 -0.31883833 -0.09550121 0.042262115
0001c0 b4 22 5e be 21 bf 42 3e 4b 94 42 3e 3d 06 ea be
       -0.21692926 0.19018222 0.19001882 -0.45707884
0001d0 61 5b dc be 7b b2 73 bd 52 18 23 be cf 91 8e bc
       -0.43038467 -0.059496384 -0.15927246 -0.017403511
0001e0 b1 80 21 bf 73 8b d9 bc 8c e4 16 3d 1c a4 15 3e
       -0.6308699 -0.026555752 0.036839053 0.14613384
0001f0 96 92 57 bd e5 e4 4f 3e 00 59 3a be 88 fe 48 3d
       -0.05263003 0.2030216 -0.18198013 0.049070865
000200 bd b4 f0 3d e7 e9 e1 bd c4 e6 3a be 25 ed 6e 3e
       0.11753223 -0.110309415 -0.18252093 0.23332651
000210 fb c1 21 3e d0 d4 3d 3e 0c f3 49 be 68 0c 23 3a
       0.15796654 0.18538213 -0.19721621 0.0006219805
000220 3a 6a 80 be 0b f7 f0 3d 0f fc 33 3e 4b 9a 09 3e
       -0.25081044 0.1176587 0.17576621 0.13437764
000230 99 07 a2 3d fa 2e 22 3e 7a e7 49 bd cd 3a 7f bc
       0.079116054 0.15838233 -0.04929302 -0.015577984
000240 b2 7a 2f 3e f3 33 f7 be fc ab 73 3e 82 dc 2c 3e
       0.17136648 -0.48281822 0.23796076 0.16880992
000250 6a 5b 46 3d 23 27 51 3d 4b 32 17 be 6b c6 31 3e
       0.048427023 0.051062714 -0.14765279 0.17360847
000260 b4 87 38 3e 0e f5 05 bd 55 27 10 bc e8 33 42 be
       0.18020517 -0.032704405 -0.00879844 -0.18965113
000270 62 d1 ac bd fe 27 0f 3d 30 18 21 3d 4f 4f 0c bf
       -0.08438374 0.03495025 0.039329708 -0.54808515
000280 4f f3 6a be 39 1e 04 bd 80 22 4c 3e f5 cd 08 3d
       -0.22944377 -0.032255385 0.19935036 0.03339954
000290 e2 7a 22 3b 80 fe 26 bf 3e 0e 0f 3e 52 2a 9a bd
       0.0024792482 -0.65232086 0.13970277 -0.07527603
0002a0 c4 6a 58 bd 87 51 82 3d 6f b3 c7 be 1a b8 41 3e
       -0.052836195 0.06363206 -0.39004084 0.18917885
0002b0 fa 88 b9 3c 06 05 e1 3d 45 db c5 be 6a 4e c3 3d
       0.022648323 0.10987286 -0.38643852 0.09536441
0002c0 da d2 69 be d4 c4 8a 3e 21 23 5b 3e 38 cf 18 bd
       -0.2283434 0.27103293 0.2140012 -0.037306994
0002d0 c5 01 dd 3c 0d 92 2c 3e b8 e3 63 3d 2e c1 6f 3d
       0.026978383 0.16852589 0.05563709 0.05853384
0002e0 71 e1 b7 be 91 ec 86 3e e9 0c 93 be a4 58 28 3e
       -0.35914186 0.2635236 -0.28720787 0.16440064
0002f0 01 36 47 3e 5e bc 95 3d eb 3a 67 bd 47 71 44 3d
       0.19454195 0.07311319 -0.056452673 0.047959592
000300 f6 3f 41 be 93 10 2d 3e 03 7d 8a bd 06 9d 0d be
       -0.18872055 0.16900854 -0.06762125 -0.13829431
000310 17 8e 6f 3d 59 ea af bc 6d a9 0b 3e 85 dd c5 3d
       0.058485117 -0.02147405 0.1363885 0.09661392
000320 6b 3c 6c 3e 01 d6 d1 3c 4f a2 02 3e 9e b7 2e 3d
       0.23069923 0.02561474 0.12757228 0.04265558
000330 e2 85 5a bd fd 52 6c be ed b7 03 3e ea 08 fd bc
       -0.053350337 -0.23078533 0.12863131 -0.03088804
000340 ea 6c 99 bd 89 7c a3 3b 35 a4 87 bd 68 46 44 bb
       -0.07491477 0.004989211 -0.06623117 -0.0029949192
000350 e8 2f 0c bd 5f 4f 19 3e da 6c 37 be 37 e1 ef bd
       -0.034225374 0.14971684 -0.17912617 -0.11712878
000360 84 cd 5f bf 76 bc 1c bd 1f 6d 44 3e 15 0d a3 3c
       -0.87422967 -0.038265668 0.19182251 0.019903699
000370 1d 72 c1 3e e4 e9 a7 3c 64 74 ac 3d b6 0a 21 be
       0.37782374 0.02049727 0.08420637 -0.15726742
000380 e0 b7 87 3d 3c bc 3d 3e da 78 10 bd af 48 49 3e
       0.06626868 0.18528837 -0.035271503 0.19656633
000390 ad e8 d4 3c 3b e5 1e 3e fa 5d d1 3d 51 43 66 3e
       0.025989855 0.15517132 0.10223003 0.22486617
0003a0 76 72 fe 3b d3 c3 31 be bc 0e 9b 3d 75 74 2b be
       0.0077651097 -0.17359857 0.0757117 -0.16743644
0003b0 36 ab 04 be e4 8f c3 bc ea 63 f0 bd cf 99 5d 3e
       -0.12955937 -0.023872323 -0.11737807 0.21640705
0003c0 9c 60 d9 3c 29 99 36 3e b2 5e 05 3d 4e 86 15 3e
       0.026535325 0.17831863 0.03256101 0.14602014
0003d0 ab bc 98 bd 77 df f0 3d 67 5d 82 bd 24 6e a3 bd
       -0.074578606 0.117613725 -0.06365471 -0.07979992
0003e0 5a 4e 83 bd c0 fa 00 3e 3e df a0 be ac 23 96 bc
       -0.06411429 0.12595654 -0.3142032 -0.018327557
0003f0 22 f8 cb 3d 51 a6 04 3e e6 4b 9d bd 90 50 23 3d
       0.09959437 0.1295407 -0.07680492 0.039871752

bias f4 [50]
000000 ca 0b 25 bd a5 41 41 3c 3a 2b 91 3d 6f ac d9 3c
       -0.040294446 0.011795436 0.07088323 0.02657148
000010 c2 15 55 bd 68 e9 31 3e 83 43 30 be f5 a1 f7 bd
       -0.052022703 0.17374194 -0.17213254 -0.12091438
000020 2f 1a 57 bd 60 76 55 3e 6e 37 0c 3e cc 18 14 3d
       -0.052515205 0.20845938 0.1369302 0.03615646
000030 fb 3b 79 bd d3 bb f9 bd e5 ce 2d ba 54 72 a4 bd
       -0.060848217 -0.12194028 -0.0006630256 -0.08029619
000040 b8 bc 5d 3e c3 9b c5 bd 60 46 8a 3e ee 8e 11 3e
       0.21654022 -0.0964885 0.27006817 0.1421468
000050 97 6e bb 3d da 80 99 bd eb 13 63 bc b2 b2 7e 3d
       0.09151953 -0.074952796 -0.013859729 0.062182136
000060 a1 64 3a 3c 89 08 11 3e e0 d7 eb 3d ea cf a3 bd
       0.011376531 0.14163412 0.11515784 -0.07998641
000070 78 6c 00 be e7 15 ef 3d a2 47 b6 3d 47 6c 4e 3e
       -0.12541378 0.116740994 0.089003816 0.20158492
000080 dc 24 75 bd 89 e5 3d 3d 21 06 e4 bd 55 68 52 be
       -0.059849605 0.04636148 -0.111339815 -0.20547612
000090 81 d6 9d 3d 5e b8 08 3d 21 d2 a5 3d 9b 2b 33 3e
       0.07706929 0.03337895 0.080967195 0.17497103
0000a0 81 1d 14 3e c7 70 d6 3c 23 42 9f bc 11 26 a4 bd
       0.1446438 0.026176823 -0.019440716 -0.08015073
0000b0 8e 42 a7 3d 0d ff 08 3e f0 c5 f9 3d 91 e1 46 3e
       0.08166991 0.13378544 0.12195957 0.19421984
0000c0 74 26 8d bc ba fe 34 3e
       -0.01723025 0.17675295

weight f4 [50, 50]
000000 1f ef cd bd 6c b8 66 bd 18 53 08 3d d9 9e 54 3d
       -0.10055374 -0.056328222 0.03328237 0.0519093
000010 72 85 3b bd e6 b2 c8 ba d9 bb e3 ba 29 1e af 3c
       -0.04578156 -0.0015312105 -0.0017374709 0.021376686
000020 0b c0 97 bd 1e d4 ab 3d 04 15 3b 3e 58 2f a5 bb
       -0.07409676 0.083900675 0.18269736 -0.005041044
000030 e7 f5 c7 3c 4b 55 35 bd d2 18 a6 3c e3 13 86 bc
       0.024409248 -0.044270795 0.020275507 -0.016366905
000040 0b d6 84 3c 6b 5a 14 bd d6 a8 03 3e a8 89 65 3d
       0.016215345 -0.03621904 0.12857375 0.056039482
000050 6a 20 81 3d 42 20 23 b8 95 6b 67 bd bf db 0a 3e
       0.063050106 -3.889227e-05 -0.056499083 0.13560389
000060 8e 01 05 3a 14 b7 ea bb 44 9a 74 3d 4c 1f e4 38
       0.0005073779 -0.007162938 0.05971743 0.00010877717
000070 8d 1b 63 bd 8f 1b 4d 3d 79 8c a9 3b c6 c8 1a 3e
       -0.055446196 0.05007511 0.0051742163 0.15115651
000080 9f 2b 13 bd 7e cf b2 bd e3 2c 0c 3d 60 70 9f bd
       -0.035930272 -0.08730982 0.034222495 -0.07785106
000090 08 17 2a bc 86 dc c4 3d 5d 40 18 bd 48 a0 9b 3d
       -0.010381468 0.09612374 -0.037170757 0.075989306
0000a0 e9 51 95 3d fe 2e bb 3d 9e 38 0a be 7e 96 29 bd
       0.07291014 0.091398224 -0.1349816 -0.041403286
0000b0 05 e3 75 3d d3 b8 49 3d 14 82 30 3e c3 2e 9f bd
       0.060030956 0.049248528 0.17237121 -0.07772591
0000c0 80 98 8b bd ea 62 9b 3d 63 d7 1c be a4 ee 19 be
       -0.068161964 0.07587226 -0.15316539 -0.1503244
0000d0 fd a8 d3 3c 82 51 0e bd 56 ae de bc 17 a3 9d 3c
       0.025837416 -0.0347457 -0.02718274 0.019242806
0000e0 8e f0 2b 3d 70 5d ea bc 49 15 74 3d 2e 00 c3 bd
       0.041977458 -0.028609008 0.05959061 -0.09521519
0000f0 4f 91 dd 3d 07 9a 15 3d 28 99 70 bc 1a a4 1a 3d
       0.10818731 0.036523845 -0.014684953 0.037754156
000100 23 13 6d bc 76 73 8f 3b cc 44 a2 3d 43 af 01 bc
       -0.014469895 0.0043777777 0.07923278 -0.007915321
000110 b1 cc 56 be 67 2a 13 bd 16 71 2f 3d 23 62 1b ba
       -0.20976521 -0.03592911 0.042832457 -0.0005927404
000120 36 30 8f 3d a5 91 5c 3e e8 93 5d 39 9f 1f 80 be
       0.069916174 0.21539934 0.00021131302 -0.25024125
000130 8e fe 2a 3d e8 0b 53 39 93 68 4f 3e 4b 20 10 be
       0.04174667 0.00020126963 0.20254736 -0.14074819
000140 97 0d 1e 3d 14 69 9f 3d 79 e7 87 3d ea 0c 67 bd
       0.03858718 0.07783714 0.06635947 -0.0564088
000150 f2 aa b0 bd 20 25 9a bd e2 b4 4d bd 6d bd 7f 3b
       -0.08626355 -0.07526612 -0.05022133 0.0039022819
000160 0c 59 d9 3c 56 a1 64 3e 68 5d f1 3d b0 f5 96 3c
       0.026531719 0.2232717 0.11785394 0.0184277
000170 64 ce e7 bc 44 0d 2a 3d 9c 9a f2 bc f0 a6 93 bd
       -0.028296657 0.041516557 -0.02961474 -0.07209575
000180 3a 76 98 bd f6 75 96 bd f0 c7 8d 3c 08 cf 3a bb
       -0.07444425 -0.07346718 0.017307252 -0.0028504748
000190 ab 24 8e 3d ce 30 43 bd b7 0e f1 bb 00 b0 86 3d
       0.069405876 -0.047653966 -0.0073564905 0.06576538
0001a0 2f 92 4d 3d cc fd 45 3e 96 c7 6b 3d fa e0 73 3d
       0.05018824 0.19335097 0.057563387 0.059540726
0001b0 b0 94 ea bd 74 b4 9f 3c ec 43 74 bb 63 ac a2 3d
       -0.11454141 0.019495226 -0.003727193 0.079430364
0001c0 83 f8 eb bd 71 d1 e7 bc 93 9d 26 bd 3a 17 6b bc
       -0.11522009 -0.028298112 -0.04067762 -0.014348799
0001d0 5d dd 8f 3b ec 66 0d be 7f a9 79 3d 81 62 11 3c
       0.004390402 -0.13808793 0.06095266 0.008873583
0001e0 8d 38 d4 3d 1b 1d 0f ba 33 4d 0b 3d 8b a7 df bb
       0.10362349 -0.0005459354 0.03400917 -0.0068253926
0001f0 cd 09 5f ba 8a e7 fa 3d 2e 95 dc 3d 8c fa 4d 3a
       -0.00085082353 0.12251194 0.10770641 0.0007857464
000200 96 ed 28 3d cd 90 f0 3d 57 fc 89 3d a4 58 e5 bc
       0.041242205 0.117463686 0.06737583 -0.027996369
000210 98 9f e3 3d 11 04 88 bd eb f1 07 3d b0 ec 0a bb
       0.111144245 -0.066414006 0.033189695 -0.0021198206
000220 4b dd 0a 3e 01 e5 42 3e bb e4 9c 3d 2d 4c b0 3d
       0.13560979 0.1903267 0.076608144 0.086082794
000230 22 28 34 3e a1 1c 51 3d a7 9f f4 bc d1 bd 9f bd
       0.17593434 0.051052693 -0.029861284 -0.077998765
000240 65 e8 f7 3c 89 cc 02 3c 30 7a d3 3c 60 79 9c 3c
       0.030262182 0.007983335 0.0258151 0.019100845
000250 f8 dc e9 bc 62 6e 2c 3c 78 80 a7 bc dc ce d5 3d
       -0.028547749 0.010524364 -0.020447 0.10439846
000260 63 7a 4d 3e 46 12 0e 3e ca 96 c9 bc d1 39 ae bc
       0.20066218 0.13874158 -0.024608035 -0.021267803
000270 65 db 82 ba ec c9 cd 3c b1 6a 5b 3d ab a1 02 bd
       -0.0009983598 0.025120698 0.053568546 -0.03189246
000280 fb 01 2e 3d 80 1e a9 bc bd 7a 19 3d 70 2f 17 bd
       0.042482357 -0.020644426 0.037470568 -0.036910474
000290 29 bc 6a bd 8c 27 98 bd 28 0a d0 3d f9 0d 19 be
       -0.05730835 -0.07429418 0.10158187 -0.14946736
0002a0 f7 cc f8 bc 4f ee 39 bd f8 61 b1 3d 1d be 3b 3a
       -0.030371172 -0.045393284 0.08661264 0.0007161813
0002b0 20 b1 da 3d 6b c4 2c bd 5d ab 96 39 71 36 a1 3d
       0.10678315 -0.042179506 0.00028737905 0.07871712
0002c0 44 64 84 3d 21 77 55 3a 05 a7 71 bd 87 fa aa bc
       0.06464437 0.0008143057 -0.058997173 -0.020871414
0002d0 0e 26 04 bc 74 bb 98 3d 3b 62 17 be 70 67 2c bc
       -0.008065714 0.07457629 -0.14783566 -0.010522708
0002e0 ac ed 16 3d b7 a6 d8 3c 5e 90 7e 3d 44 e3 03 3d
       0.036847755 0.026446683 0.062149398 0.03219916
0002f0 68 02 03 bd b7 6e ad bc fe 60 ba 3d 3e d5 d0 bc
       -0.031984717 -0.021170957 0.09100531 -0.025492307
000300 22 35 91 bd 82 3f 3d bd c4 b9 1c 3d d5 1f c0 3d
       -0.070902124 -0.046203144 0.038263097 0.093810715
000310 bf 1a d6 3c a6 1d 04 bc 75 2c 2b bd bf a9 ba bc
       0.0261358 -0.008063709 -0.041790444 -0.02278602
000320 5a d9 2a 3d 9e ae 38 3d 96 a8 ed bd f4 db 1c 3b
       0.04171119 0.045088403 -0.11604421 0.0023934813
000330 42 b3 7d 3d ff 27 4e bc 72 e6 55 3d fd 44 49 3d
       0.06193853 -0.012582778 0.052221723 0.049138058
000340 9b 90 9f bd 7f 20 74 bd ca 93 02 be 5a 5a d8 3c
       -0.07791253 -0.059601303 -0.1275169 0.02641027
000350 b5 23 89 3c fc 2a f6 3c 4d bc 20 3c 94 2c fc 3b
       0.01674066 0.030049793 0.009810519 0.007695744
000360 52 b3 f3 bd 17 d2 8d 3e 44 62 ca bc d8 5b 8f 3c
       -0.11899437 0.27699348 -0.02470506 0.01749985
000370 4a 2d db bc 15 9c ac 39 8c 77 08 be cf 97 db ba
       -0.026754994 0.00032922687 -0.13326854 -0.0016753617
000380 a2 7e 20 3a f1 d9 90 bd 05 bb b4 3c 73 bc 1e 39
       0.00061223854 -0.07072819 0.022061834 0.00015138257
000390 93 f1 98 3d c4 44 97 3d ff 73 bd 3c 87 e9 89 3d
       0.074679516 0.07386163 0.0231266 0.06733995
0003a0 fc 9f 10 bd 26 4b 34 3c e0 6c 89 3d 0a 13 20 3d
       -0.035308823 0.011004245 0.067102194 0.039080657
0003b0 6c 7e 35 bb b4 0f 82 3c fb 47 68 bc f3 b8 e7 bc
       -0.0027693762 0.015876628 -0.014177318 -0.028286433
0003c0 d3 5a 43 3c bb cc 05 3e f4 ef fe 3c c0 4b 51 bc
       0.01192351 0.1306638 0.031120278 -0.012774408
0003d0 eb ba 77 3b b2 0d b3 bc 08 d9 0d 3c 1b 95 d5 bb
       0.003780062 -0.021857116 0.008657701 -0.006518019
0003e0 45 b2 9f 3d 08 05 58 bc 1c 3f 7a bd f7 a7 28 bd
       0.07797674 -0.013184793 -0.061095342 -0.04117581
0003f0 ff 5a 21 bd 62 7d cf bd d2 0c 73 bd 30 01 cd 3c
       -0.03939342 -0.10131337 -0.0593384 0.02502498

bias f4 [50]
000000 e8 3f e4 bb 60 c8 91 3d dd 10 43 bd 8a 93 ff 3c
       -0.006965626 0.071182966 -0.047623504 0.031198282
000010 2d c5 02 bd 6a ad 27 3d a5 55 09 bd 5b f2 a1 3a
       -0.031926323 0.040936865 -0.033528943 0.0012355553
000020 4e f8 33 bc ba df 8d bd 68 d7 08 bd b9 78 5f bd
       -0.010984493 -0.06927438 -0.033408552 -0.05455849
000030 44 96 0d 3d 47 6e 75 bc 26 98 87 3c 45 1c 72 bd
       0.034567133 -0.014979905 0.016552042 -0.05910899
000040 64 f7 bb bd 4c 57 57 bd 23 0f 98 bd 7f 1c 81 3c
       -0.091780454 -0.052573487 -0.07424762 0.015760658
000050 28 8a 0a bd cb e7 93 bc 4f 79 d4 3c c5 0b a8 3c
       -0.033823162 -0.018054863 0.02593675 0.020513425
000060 83 ef 35 bd be 39 47 bd e1 48 ae ba 49 2e ad 3d
       -0.04441787 -0.04863905 -0.0013296866 0.08456094
000070 85 0e df bc 86 c2 0c 3c 14 46 18 3d 14 79 01 3d
       -0.027228603 0.0085913 0.037176207 0.03160961
000080 95 c1 e9 3d 02 5f 9f 3d 30 7c b2 bc d0 96 30 3d
       0.11413876 0.07781793 -0.021787733 0.043112576
000090 6f 4f c8 3c b0 96 c3 bc 08 71 c2 3b 01 19 ef bc
       0.02445194 -0.023875564 0.0059338845 -0.029186727
0000a0 ad 55 5b 3c 9b 83 fc bc e0 65 8d 3d e7 84 94 3c
       0.013387126 -0.030824473 0.06904197 0.018129779
0000b0 85 7d 20 bb 49 1d a9 bd df d2 90 bd 86 be 0b bd
       -0.0024488878 -0.08257539 -0.070714705 -0.034117244
0000c0 00 84 91 bd 51 56 9e bd
       -0.07105255 -0.07731307

weight f4 [87, 50]
000000 f6 bc 2a bc c6 e6 e5 3c 95 a7 7b bc 3b 27 d2 3c
       -0.010421028 0.028064143 -0.015359779 0.025653472
000010 eb 72 8c 3b 54 6d 13 3e a3 fc fb 3d ba 60 6f 3d
       0.00428616 0.14397174 0.12304046 0.058441855
000020 2a 43 b8 3d 1b c2 17 bd bf bd 07 3e 88 99 7b 3d
       0.089971855 -0.037050348 0.13255976 0.061425716
000030 24 ae 8c bd f5 49 79 bd a8 0b 5b 3c aa cb a1 bb
       -0.06869152 -0.060861547 0.013369478 -0.0049376087
000040 5a 2d ae bc 13 c9 2e be 94 94 c1 bd 2e 59 c9 bc
       -0.02126186 -0.17068891 -0.09452167 -0.024578657
000050 96 31 e4 bc 3b 01 06 3e 49 d4 14 be 38 c2 91 3d
       -0.027855676 0.13086407 -0.14534105 0.071171224
000060 80 07 63 3d a0 ce ae bd 0e ca 36 3d b0 eb 2d 3e
       0.055427074 -0.08535504 0.044626288 0.16984439
000070 b4 8c ba 3b a3 38 95 bb 38 c9 8c bc 56 15 01 3e
       0.0056930427 -0.0045538708 -0.017185792 0.12605795
000080 31 8a 08 3e 03 56 47 3e 76 99 83 3d 3a 77 a5 bd
       0.13333966 0.19466405 0.06425755 -0.08079381
000090 49 6d a8 3c 0c 2b e4 bd 8b 6f 06 3e 5e cc f0 bd
       0.020559924 -0.11141023 0.13128488 -0.1175773
0000a0 4f 9e ab bd 2f 62 ff 3c f2 bf 58 3d b6 65 4f 3d
       -0.08379804 0.031174747 0.05291743 0.05063411
0000b0 90 18 0b 3e 58 82 67 bd 96 28 91 bd 3e bd 21 3d
       0.13583589 -0.05652079 -0.07087819 0.039487116
0000c0 6c 7d 0c be ef 22 b4 3c fb e1 54 be 9d 92 11 bd
       -0.1371972 0.021989314 -0.2078933 -0.035540212
0000d0 20 5b 90 bd f8 2a 33 bd c8 e6 8d bd 03 03 fe bd
       -0.07048631 -0.04374215 -0.06928784 -0.12402918
0000e0 4a df 57 bd e7 e4 79 3d c3 ea 79 bd e2 72 f5 bc
       -0.05270318 0.061009314 -0.0610149 -0.029962007
0000f0 eb 6b 8b 3d 26 8b 8a bd 40 77 92 3d e6 c5 4c bd
       0.06807693 -0.06764822 0.071516514 -0.04999342
000100 bc 1b bf 3d 9a c0 62 bd 63 66 3e bd df cc 91 be
       0.09331462 -0.05535946 -0.046484362 -0.28476617
000110 92 70 c2 3d 52 a3 7c 3d 69 e2 c6 bd 81 fe 95 3d
       0.09494127 0.061679192 -0.09711153 0.073239334
000120 92 9a 42 3c 7e 51 17 3d 19 2a 19 3d fd 00 b8 bd
       0.011877673 0.03694295 0.037393663 -0.089845635
000130 ea 06 47 bd ec ea 5f 3d 3a 4c 00 be d7 61 5c bc
       -0.04859058 0.0546674 -0.12529078 -0.013451061
000140 ea 9e 09 be 03 48 97 bc e3 37 80 3e ce ba 3e 3c
       -0.13439527 -0.018466955 0.25042638 0.011641217
000150 5f 40 f5 ba 38 e5 8b 3c ae 69 ef 3d 67 aa 03 bb
       -0.0018711201 0.017077073 0.11690079 -0.0020090581
000160 c8 01 4e be 0c 21 1e be 7a 0f 19 3e bf ae 61 3b
       -0.20117867 -0.15442294 0.1494731 0.0034436432
000170 fb a8 96 3d 20 2a fe bd c8 96 a8 bd c4 9c c0 3d
       0.07356449 -0.124103785 -0.08231884 0.09404901
000180 1e 2a e8 3d 0d 4a 5e 3c 00 5a 8d bd 02 e8 9c bd
       0.11336158 0.01356746 -0.06901932 -0.076614395
000190 9f ba 84 3c 4f 6b 66 bc c3 ea 07 3e c4 e6 10 be
       0.01620227 -0.01406367 0.13273148 -0.1415053
0001a0 cd 67 9e bd 12 45 08 be 63 59 cc bd cc 97 22 3d
       -0.07734642 -0.13307598 -0.09977987 0.039695546
0001b0 61 91 37 3e 61 e7 28 be b9 f4 9f 3d 25 6c 3b 3d
       0.17926551 -0.16494514 0.07810349 0.04575743
0001c0 87 07 f2 3c a8 4f 26 3d 3e 52 23 3d 87 5f 0f be
       0.029544605 0.04060331 0.039873354 -0.14001285
0001d0 ca 29 84 3d 46 93 2f 3e 25 ff 2b 3c 58 e4 06 3d
       0.06453283 0.17146024 0.010497843 0.03293261
0001e0 02 ed e4 bd e0 b5 67 bc 60 84 c9 bc e9 af 4a be
       -0.11178018 -0.0141424835 -0.024599254 -0.19793667
0001f0 56 24 b9 3d 26 66 7f bd ca 50 84 3d a9 df 33 bd
       0.09040134 -0.062353276 0.06460722 -0.04391447
000200 d8 65 6e 3c 5b d2 84 3d e9 89 a0 bd dd 1e 83 3d
       0.014550649 0.064854346 -0.07838804 0.06402371
000210 b4 e1 9b bd 2b fc 9e 3c 8f d6 08 3d 28 f5 9d bb
       -0.07611409 0.019407352 0.033407744 -0.0048204847
000220 ef 26 cb bc ac c3 02 bd 5e ad 9a bd b1 ba d9 3d
       -0.024798838 -0.03192489 -0.075525984 0.10631312
000230 3f e9 d0 3c 36 25 89 bd 8b 65 df bc 9d 0b 5a bc
       0.025501845 -0.066965505 -0.0272701 -0.013308433
000240 ca 9e b1 bc 49 8f fb bd 45 39 21 3b 1a 7b 04 be
       -0.021682162 -0.12283189 0.0024600786 -0.12937585
000250 b8 ee 22 be 40 1c 56 be 16 96 0a bc 45 b2 d7 b9
       -0.15911376 -0.20909214 -0.008458635 -0.00041140817
000260 8c 2f fb 3d 04 a9 09 3d 41 bf 07 3d 3a cc 9c bd
       0.12264928 0.03360845 0.03314138 -0.076561406
000270 fe ec 16 3e ae 64 c8 3d da b2 42 bb 7c 96 9a bd
       0.14738843 0.09784828 -0.0029708655 -0.07548234
000280 25 9c 2a bd a4 9e 5e 3e a6 bc 0a be 18 20 dc 3c
       -0.041652817 0.21740204 -0.13548526 0.026870772
000290 b8 51 9b bd 78 db c4 bd db f0 20 3e 41 3d 3d 3e
       -0.07583946 -0.09612173 0.15716879 0.18480398
0002a0 d9 c6 2f be 6b a1 09 be ed 8e 11 be 3c aa 65 bd
       -0.17165698 -0.13440482 -0.14214678 -0.05607055
0002b0 35 84 f3 3d 25 cb d5 3d 18 42 30 be a6 43 12 3e
       0.11890451 0.10439137 -0.17212713 0.14283618
0002c0 29 9e a1 3d af 77 79 3c e7 2a 38 bd 83 e5 22 bd
       0.07891495 0.015226289 -0.04496279 -0.03976966
0002d0 52 e0 84 3e b6 47 21 3b 74 e7 cd 3d a3 2b 8e 3e
       0.25952393 0.0024609393 0.10053912 0.27767667
0002e0 a5 7f 14 3d 97 bc c2 bd f2 56 5f bd d8 a4 1c 3e
       0.036254544 -0.09508627 -0.054526277 0.15297258
0002f0 e1 a7 d4 bc a0 76 b1 bd fe b9 30 bd d8 1c ce bc
       -0.025958957 -0.08665204 -0.043146126 -0.025160238
000300 73 75 a5 bd 40 1f c6 3d 66 5b 1e be e3 f8 3a be
       -0.08079042 0.09673929 -0.15464553 -0.18259005
000310 f8 aa 5e bc 22 4c 23 be 12 23 7f 3b 6c 09 d5 3b
       -0.013590567 -0.15947011 0.0038930816 0.0065013673
000320 ea 13 d0 3c b3 89 d4 bd f7 00 4b 3e 66 77 17 3d
       0.02540012 -0.103778265 0.19824587 0.0369791
000330 45 e5 b4 bd c4 be 0d 3e c2 cf 2b be f1 44 f3 bb
       -0.08832792 0.13842303 -0.16778472 -0.00742399
000340 63 b7 d2 3d 2d da 1c be 74 d8 f4 3d c3 12 af 3d
       0.102888845 -0.15317602 0.11955348 0.085485004
000350 e2 08 80 be 75 64 b2 bc db 45 70 be 9b 18 fe bd
       -0.25006777 -0.021776417 -0.23464148 -0.12407037
000360 97 84 10 3e 30 00 47 bc 1b bf 97 3c 50 f7 02 3d
       0.14113079 -0.012146041 0.018523743 0.031974137
000370 98 15 16 3d e3 c8 72 bd ca 7e e5 bd 43 f2 11 3e
       0.036641687 -0.05927361 -0.11205824 0.14252572
000380 60 c3 ef 3d a8 6f 20 3e 5c 4e 90 3c cf 0d 89 3d
       0.11707187 0.15667593 0.01761549 0.06692087
000390 be 64 49 bd 89 10 67 3d 66 08 1c 3e 3a 05 b6 3c
       -0.04916834 0.056412254 0.15237579 0.02221929
0003a0 e8 af 0b be fe 67 a0 be ad 6a eb bc 65 30 14 3e
       -0.13641322 -0.3132934 -0.02873739 0.14471586
0003b0 b1 a5 0c be 62 46 03 3d 16 43 4c bc d2 43 10 be
       -0.13735081 0.032049544 -0.012467166 -0.14088371
0003c0 85 84 00 3e 85 4f 39 3d 8e 53 80 3e c9 8c 4f bb
       0.12550552 0.04524185 0.25063747 -0.0031669608
0003d0 41 88 25 be 09 ca 91 bd be 33 dd bd d1 2d 9b 3e
       -0.16165258 -0.07118613 -0.10800885 0.30308393
0003e0 9e 5f 16 be 78 14 f9 3d d4 f2 4e be c3 19 a2 3d
       -0.14684913 0.12162107 -0.20209819 0.0791507
0003f0 cc 79 df 3d 74 27 53 bd 8c 1f 07 3e ca ff 82 bd
       0.10911903 -0.051551297 0.13195628 -0.06396444

bias f4 [87]
000000 49 80 00 3d 6b bd 80 bd d1 f2 13 3e 77 20 c0 bb
       0.031372342 -0.062861286 0.14448096 -0.005863245
000010 b4 a1 b7 bd de d0 62 3d 67 df 66 bd af 88 da bd
       -0.08966389 0.055374973 -0.056365397 -0.106706016
000020 be f5 7d bd c0 a2 18 be a0 6f f7 3d 56 88 2f 3c
       -0.062001936 -0.14905834 0.12081838 0.010713657
000030 8a 20 5b bd 89 1a 1c be 81 7e 66 be 68 94 e5 bd
       -0.05349783 -0.15244497 -0.22509195 -0.11209947
000040 b2 1e 8d 3a 7c 38 4f bd 7e 8c 67 bd 9e d2 3c 3d
       0.0010766594 -0.050590977 -0.05653047 0.046099298
000050 a8 88 e8 3d 97 a9 cd 3b 44 01 7e 3e 14 a7 7b be
       0.1135419 0.00627632 0.2480517 -0.24575454
000060 24 f8 9f bd 8d e8 63 be 6d 59 96 3d 68 32 17 bd
       -0.07811001 -0.2225668 0.07341275 -0.036913306
000070 2b b2 e6 3d 87 63 c0 bd 21 95 83 3d 50 fc 0b 3d
       0.112644516 -0.09393983 0.064249285 0.03417617
000080 9d 2f 88 3c c1 97 da 3c d0 88 99 3d 23 b3 00 be
       0.016624266 0.02668369 0.07496798 -0.12568335
000090 38 5e fd bd 90 34 86 bc af 59 fc bd fe d1 99 bd
       -0.123714864 -0.016382486 -0.12321793 -0.07510756
0000a0 fc 80 6e bd 85 dc cf bd db c1 1d be 44 de 54 be
       -0.058228478 -0.10149483 -0.15405981 -0.20787913
0000b0 7d cb c6 bc 50 83 e5 3d f2 b0 c6 bd 60 80 57 3e
       -0.024266953 0.112066865 -0.097017184 0.21045065
0000c0 d6 e7 81 bd 99 c8 dd bd 2f 03 2a 3e 7f 8f b6 3c
       -0.06343047 -0.108292766 0.16602777 0.022285221
0000d0 5b e3 61 bd 40 90 ea bc 9e 67 19 3e 06 b5 1a 3e
       -0.055148464 -0.028633237 0.14980933 0.15108117
0000e0 4f 46 4a 3d be 93 1d 3d fb 1e 95 3b 15 02 81 bd
       0.049383458 0.038470976 0.0045508123 -0.06299225
0000f0 0f 15 91 bd 74 05 8f 3d e7 a3 a0 3d cd ea 1b bd
       -0.07084095 0.06983462 0.07843762 -0.03806572
000100 00 8a fe 3d a9 16 4b 3c 99 1f 49 3b e4 85 52 3d
       0.12428665 0.012395539 0.0030689 0.05139722
000110 a8 8c 04 3e 3a 6f 97 3d 67 90 3b 3d e8 1f b7 bd
       0.12944281 0.07394262 0.04579201 -0.089416325
000120 d0 89 94 3d a7 ed dd 3d 9f 23 19 bd b7 0a 6a be
       0.07252848 0.10836344 -0.037387487 -0.2285565
000130 a3 c5 52 be 9e ae a1 3d dd a0 02 3e e1 fc 40 3e
       -0.20583205 0.07894634 0.12756677 0.18846466
000140 91 33 39 3d c9 40 5b 3d 27 41 73 bd 14 f6 a7 be
       0.045215193 0.05352858 -0.059388306 -0.3280493
000150 cb f4 cd bb 84 7a 1b 3e be 9b 07 bd
       -0.006285285 0.15183455 -0.03310751

bias f4 [5]
000000 19 ff c6 bc a4 e0 3f 3c d0 78 94 3b 56 97 15 bc
       -0.024291562 0.011711273 0.0045310035 -0.00913032
000010 7e 1b 4d 3b
       0.0031296904

lower_entries f4 [10]
000000 81 a8 3d bb 84 53 02 bb 6a 11 db b9 60 ec 40 bc
       -0.0028939547 -0.0019886205 -0.0004178391 -0.011775106
000010 c9 c8 44 bc 48 32 54 3b e2 fe 09 bb 10 12 c4 bb
       -0.012010762 0.0032378603 -0.0021056463 -0.0059835985
000020 f0 1c f3 bb 2f 87 18 3d
       -0.007419221 0.037238296

upper_entries f4 [10]
000000 0e a1 31 3c c0 ea c9 3b 2d 55 94 3a 63 62 4a ba
       0.010841621 0.0061620176 0.0011316888 -0.0007720349
000010 23 3e 90 3b 81 55 71 3b 4d 0f af bb ce f6 ac 3a
       0.0044019385 0.0036824646 -0.0053424 0.0013196112
000020 83 5a 26 3b e7 fe 2a 3c
       0.002538354 0.01043675

unconstrained_upper_diag f4 [5]
000000 f8 f8 06 3f ea 07 f5 3e 7c 4c 0a 3f 21 3a f6 3e
       0.52723646 0.478576 0.54022956 0.48091224
000010 dd df 05 3f
       0.52294713
