sbibm/tasks/slcp/files/num_observation_5/proposal.pt (torch, 333865 bytes, 83 tensors)

weight f4 [50, 2]
0	0xbeed1368	-0.46303868
1	0x3ec061ad	0.3757452
2	0x3e29187c	0.16513246
3	0x3f24dad7	0.64396423
4	0x3f01b425	0.50665504
5	0x3d4903b1	0.049075786
6	0x3e3a20a3	0.18176512
7	0x3da79712	0.08183111
8	0xbea9b8fd	-0.33148947
9	0xbee3d6a0	-0.44499683
10	0x3edddb1a	0.43331224
11	0x3d646838	0.055763453
12	0xbe40f5bc	-0.1884374
13	0x3e03db9b	0.12876742
14	0xbee3482c	-0.44391
15	0x3d91df94	0.07122722
16	0x3d2c11b1	0.04200906
17	0x3f0283e4	0.509825
18	0x3e304993	0.17215566
19	0xbe00c51c	-0.12575191
20	0xbda4bd70	-0.08043945
21	0xbc43d5c7	-0.011952824
22	0x3f248225	0.64261085
23	0x3f0b7e07	0.5448918
24	0xbecf5726	-0.40496176
25	0x3de3f3e9	0.111305065
26	0xbed76d00	-0.42075348
27	0x3ed761c7	0.42066786
28	0x3effd56e	0.4996752
29	0xbc72f8a5	-0.014829789
30	0x3f1326db	0.57481164
31	0x3e5cea72	0.21573809
32	0x3d9404e8	0.07227498
33	0x3f08c475	0.5342477
34	0x3eab3406	0.33438128
35	0xbf1a209c	-0.6020601
36	0xbf1f591c	-0.62245345
37	0xbdbb2d8a	-0.09139545
38	0xbf063e62	-0.5243894
39	0xbf06d024	-0.5266135
40	0xbf017046	-0.5056194
41	0xbefe31aa	-0.49647266
42	0xbf212c50	-0.6295824
43	0x3f190cbc	0.59785056
44	0xbd2ccfcc	-0.042190358
45	0xbe96d98e	-0.29462856
46	0xbe530d27	-0.20610486
47	0xbecaf44b	-0.39639506
48	0xbd00bf23	-0.031432282
49	0x3ea664c8	0.32498765
50	0x3f0e7256	0.5564321
51	0x3e849404	0.25894177
52	0x3f3e1210	0.7424631
53	0x3e6277e0	0.22116041
54	0x3f24fbbf	0.64446634
55	0x3e02ae31	0.12761761
56	0x3d4825ed	0.048864294
57	0xbd648064	-0.055786505
58	0x3f19dc27	0.6010155
59	0xbeddb4aa	-0.43301898
60	0xbf1d3ad3	-0.61417884
61	0xbda43b31	-0.08019102
62	0xbeda61a9	-0.42652634
63	0xbeb4e713	-0.35332546
64	0xbe98f1d4	-0.29872
65	0x3e0a1456	0.1348432
66	0x3f219d7e	0.6313094
67	0xbf0cb262	-0.5495969
68	0xbeea3434	-0.45742953
69	0xbf2158fb	-0.630264
70	0x3f255717	0.64586014
71	0xbe6dd4d2	-0.23225716
72	0x3eca06d9	0.3945835
73	0x3ebe0c02	0.37118536
74	0x3e771c43	0.24131875
75	0xbf233211	-0.6374827
76	0xbd43595f	-0.047692653
77	0x3e91c75d	0.28472415
78	0xbc8338dd	-0.016018325
79	0xbc25cc09	-0.010119447
80	0x3f123212	0.5710765
81	0xbe88518c	-0.26624715
82	0x3e6e12fd	0.23249431
83	0x3eaa8a9b	0.33308873
84	0xbcba9e3e	-0.022780534
85	0xbf129cf8	-0.57270765
86	0xbe9d18c0	-0.30682945
87	0x3c9663eb	0.018358191
88	0xbd839e01	-0.06426621
89	0x3c810789	0.015750663
90	0x3ee1fa51	0.4413629
91	0x3e2f1351	0.17097212
92	0xbe413f4c	-0.18871802
93	0x3f295846	0.6615032
94	0x3e8e5bfd	0.27804556
95	0xbed0a65e	-0.40751928
96	0xbf12679c	-0.57189345
97	0xbeced4ef	-0.4039683
98	0x3ef57b49	0.47945622
99	0xbe7068ba	-0.2347745

bias f4 [50]
0	0x3bc10f0f	0.0058916877
1	0xbf39c415	-0.7256482
2	0x3e990ecb	0.298941
3	0xbee0bb4b	-0.43892893
4	0xbef7a526	-0.48368186
5	0xbf39a20a	-0.72512877
6	0x3e5c2804	0.2149964
7	0x3f3c6da7	0.73604816
8	0x3e8effe2	0.27929598
9	0xbf1ffe9c	-0.6249788
10	0xbed0aa03	-0.4075471
11	0xbe0c9b10	-0.13731027
12	0x3b369b1c	0.0027863448
13	0xbe24aa66	-0.16080627
14	0xbf07aa10	-0.5299387
15	0x3f0ee602	0.55819714
16	0xbd620d72	-0.055188604
17	0x3de45bdb	0.111503325
18	0xbebcb1d1	-0.36854413
19	0xbe8dea37	-0.27717754
20	0xbe50a9e1	-0.20377304
21	0xbedcf4c4	-0.4315549
22	0x3f1ae74a	0.6050917
23	0x3eb71d7c	0.35764682
24	0x3f264377	0.64946693
25	0x3e994fc6	0.29943675
26	0xbf0db231	-0.55350024
27	0x3e2bc0a1	0.16772701
28	0xbf0c87b6	-0.5489458
29	0xbef5062b	-0.47856268
30	0xbed78219	-0.42091444
31	0x3e657bd9	0.22410525
32	0x3f2a3f25	0.665026
33	0xbea6dca3	-0.32590207
34	0x3f1902e9	0.59770066
35	0xbf1ce4a5	-0.61286384
36	0xbf00d468	-0.50324106
37	0xbecbf6f0	-0.39836836
38	0xbe6a7b6b	-0.22898643
39	0x3e26945a	0.16267529
40	0xbe95708f	-0.29187438
41	0x3f155e97	0.5834746
42	0x3d217d5b	0.03942619
43	0xbefbe976	-0.49201554
44	0x3f00de60	0.5033932
45	0x3f446942	0.7672311
46	0x3f44eb10	0.76921177
47	0x3ed3a906	0.41339892
48	0xbf06a59f	-0.5259647
49	0x3ea0a674	0.31376994

weight f4 [50, 50]
0	0xbd453dca	-0.04815463
1	0x3e4fb069	0.20282139
2	0xbe193572	-0.14961794
3	0x3e90ee9d	0.28307047
4	0x3d375890	0.044762194
5	0xbd97e34e	-0.07416402
6	0xbe20c998	-0.15701902
7	0xbd8d7f31	-0.069090255
8	0x3cb658ee	0.022259202
9	0xbe34053d	-0.17580123
10	0x3c7a92e4	0.0152938105
11	0x3a5c5530	0.0008405028
12	0x3db87aa1	0.090077646
13	0xbd29d013	-0.0414582
14	0x3c654a47	0.01399476
15	0x3df693de	0.12039922
16	0xbd0e4ea7	-0.034742977
17	0xbcad6856	-0.021167915
18	0xbdbda410	-0.09259808
19	0x3dd7aa6c	0.10530552
20	0x3d04b5c7	0.03239992
21	0x3e06d8db	0.13168661
22	0x3e123f73	0.14282016
23	0x3e1ef6fc	0.15523905
24	0x3e17ca8f	0.14823364
25	0xbd1f5cc5	-0.03890683
26	0x3de9fee3	0.11425569
27	0xbd6bbe25	-0.057554383
28	0x3d4d87e4	0.050178424
29	0xbe9dd2ec	-0.30824983
30	0xbe4cd7b4	-0.20004159
31	0xbd778261	-0.060427073
32	0x3cc17e36	0.023619752
33	0xbdb2eba4	-0.08736351
34	0x3e3be02a	0.1834723
35	0xbdc7e8f8	-0.09761232
36	0xba1f52bb	-0.00060776965
37	0x3cc7494c	0.024326943
38	0xbc7a4e49	-0.015277454
39	0xbced05b6	-0.028933387
40	0x3d35a928	0.044350773
41	0x3e259d88	0.16173375
42	0x3e1f6331	0.15565182
43	0xbe421dfa	-0.18956748
44	0xbd87afc3	-0.06625321
45	0xbc60b5b0	-0.013715193
46	0xbcc6a07f	-0.024246452
47	0xbd9304e9	-0.07178671
48	0xbd13898f	-0.036019858
49	0xbc860117	-0.016357942
50	0x3cf4f8fd	0.029903883
51	0xbdf960ef	-0.12176692
52	0x3bbf7c09	0.0058436436
53	0xbd3c0b79	-0.04590938
54	0xbd69c42e	-0.057071857
55	0xbe809ba6	-0.2511875
56	0xbdb4f250	-0.0883528
57	0xbde933c0	-0.11386824
58	0xbe53f612	-0.20699337
59	0xbefa2b5f	-0.48861215
60	0xbd6cc93f	-0.05780911
61	0x3d47a7d8	0.048744053
62	0xbda61327	-0.08109122
63	0x3da3cceb	0.079980694
64	0xbd94d862	-0.07267834
65	0x3dcc885e	0.099869475
66	0xbe68c6e5	-0.22732122
67	0xbd2255e7	-0.039632704
68	0x3c3bdf79	0.011466854
69	0x3dd3c4c7	0.10340267
70	0x3c99aa57	0.018757982
71	0xbdada3a5	-0.08478478
72	0x3df032a4	0.11728409
73	0x3db96306	0.0905209
74	0xbdc250a2	-0.09488036
75	0xbdeef99b	-0.11668702
76	0xbdec03e4	-0.115241796
77	0x3e0ca3e2	0.13734391
78	0xbdac1532	-0.0840248
79	0x3ce8e6ec	0.028430425
80	0x3c1882ea	0.009308556
81	0x3dcb49d6	0.099261925
82	0xbd662439	-0.05618689
83	0xbce8111b	-0.028328469
84	0x3a2b41aa	0.0006532917
85	0xbcc53b34	-0.024076082
86	0xbe6f545f	-0.23372029
87	0xbe409b3a	-0.18809214
88	0xbe8ee87d	-0.2791175
89	0x3e2d1eda	0.169063
90	0xbe1bb685	-0.15206344
91	0x3e070e79	0.13189115
92	0x3da284fe	0.079355225
93	0x3d5a87d6	0.0533522
94	0x3e46ba66	0.19407043
95	0x3e40abd6	0.1881555
96	0x389f5dce	7.599183e-05
97	0xbdfd4552	-0.123667374
98	0xbe3105f7	-0.17287432
99	0x3d7b6478	0.06137511
100	0xbf0000f3	-0.5000145
101	0xbcb7ac61	-0.022421064
102	0x3cb90b59	0.022588419
103	0xbba6fe16	-0.0050962074
104	0x3c05c1e1	0.0081639
105	0x3e860d03	0.26181802
106	0xbea2ea1d	-0.3181924
107	0xbe2123d4	-0.15736324
108	0xbd8e5677	-0.069500856
109	0x3ebff561	0.37491897
110	0x3d7b928c	0.061419055
111	0x3e40d0dc	0.18829674
112	0x3d3b10d3	0.04567034
113	0xbecaacd6	-0.39584988
114	0x3e67d3d6	0.22639403
115	0x3d0f646c	0.03500788
116	0xbdf8a31f	-0.12140488
117	0x3dfb544c	0.12271938
118	0xbdcbc782	-0.099501625
119	0x3b2ebc31	0.0026662464
120	0x3dab82d1	0.083745606
121	0xbeb0b3b4	-0.34512103
122	0x3d89591a	0.06706448
123	0xbd19fc2b	-0.037594
124	0x3d3eb168	0.046555907
125	0x3e24c21d	0.16089673
126	0xbbe8f215	-0.0071089366
127	0x3e413872	0.18869188
128	0x3d3bd605	0.0458584
129	0xb9221614	-0.00015457749
130	0xbd383109	-0.04496864
131	0xbe12412d	-0.14282675
132	0xbe79453a	-0.24342814
133	0xbc9f900f	-0.019477872
134	0xbdf691ae	-0.12039505
135	0x3e6a717e	0.22894856
136	0xbd8d5d3a	-0.06902547
137	0x3d679938	0.056542605
138	0xbb5a18ab	-0.0033278863
139	0x3d4cc0ae	0.04998844
140	0x3e5b0af8	0.21390903
141	0xbd9dd658	-0.077068985
142	0x3cac53af	0.021035997
143	0x3d544151	0.051820103
144	0xbcd64400	-0.026155472
145	0x3cc7b05b	0.024376085
146	0xbd825889	-0.06364543
147	0x3e2c7426	0.16841182
148	0x3df2bbdd	0.11852238
149	0xbd6400a1	-0.055664662
150	0x3e00487b	0.12527649
151	0x3d712fff	0.058883663
152	0x3d5697e0	0.052390933
153	0xbd788df2	-0.060682245
154	0xbd2cd4c3	-0.042195093
155	0xbe05c733	-0.1306427
156	0xbe2a3945	-0.16623409
157	0x3e0ee7bf	0.13955592
158	0xbcf4a19e	-0.029862221
159	0xbdbcce82	-0.09219076
160	0x3dd8e9d3	0.105914734
161	0xbda01cfd	-0.07818029
162	0xbd9dad0e	-0.07699023
163	0x3dd4be07	0.10387807
164	0x3dede1a3	0.116153024
165	0x3cc8d408	0.024515167
166	0xbc26c4bb	-0.01017874
167	0xbde493d3	-0.11161008
168	0xbcd5a766	-0.026080798
169	0x3cb7c886	0.022434484
170	0xbdc9b14d	-0.098482706
171	0x3dfd720d	0.12375269
172	0x3db47099	0.08810539
173	0x3dceb8c7	0.10093837
174	0xbdd0cb8e	-0.10195075
175	0xbdc87737	-0.097883634
176	0xbbf505f5	-0.007477517
177	0x3c6bbbfb	0.01438808
178	0x3d8c9974	0.06865206
179	0xbe2c5aed	-0.1683156
180	0xbde5ddad	-0.11223922
181	0x3dabcdcc	0.08388862
182	0x3df78afe	0.120870575
183	0x3da8b343	0.082373165
184	0xbda54e0e	-0.080715284
185	0x3c6358e5	0.013876175
186	0xbd44832e	-0.047976665
187	0xbdb84567	-0.089976124
188	0xbe07f8e5	-0.1327854
189	0xbdfe1975	-0.12407199
190	0xbd79f7aa	-0.061027206
191	0x3dd6e701	0.10493279
192	0xbd91f1fa	-0.071262315
193	0xbd900c61	-0.07033611
194	0x3d8ea951	0.06965888
195	0x3dd5ce0c	0.10439691
196	0xbe1b7178	-0.15180004
197	0x3d8b02bc	0.06787631
198	0xbcb998db	-0.022655895
199	0x3dc6e91b	0.0971243
200	0x3bf501ba	0.0074770125
201	0xbc9338e4	-0.017971464
202	0x3da4965c	0.08036491
203	0xbd89abcc	-0.06722221
204	0xbd7ea6e6	-0.062170886
205	0x3cca5406	0.024698269
206	0xbd973511	-0.073831685
207	0xbc9c2820	-0.019062102
208	0x3dbea48f	0.09308731
209	0x3d54cf00	0.051955223
210	0x3da50fae	0.08059631
211	0x3de9f705	0.11424068
212	0xbe0c9437	-0.13728414
213	0xbe1a6c0e	-0.15080282
214	0xbb7d6b55	-0.0038668711
215	0x3d81d944	0.06340268
216	0x3dd5e6db	0.10444423
217	0xbe606539	-0.21913613
218	0x3c602638	0.013680987
219	0xbb94041d	-0.004517092
220	0xbcf47ac1	-0.02984369
221	0xbdc59882	-0.09648229
222	0x3cb14d73	0.021643376
223	0x3e27724e	0.16352198
224	0x3e066a63	0.13126521
225	0xbd56126b	-0.05226366
226	0x3bac3049	0.0052547795
227	0x3d00193d	0.03127407
228	0x3d975ca4	0.07390717
229	0xbebed969	-0.37275246
230	0x3dfa5e5a	0.122250274
231	0x3d91cdd8	0.0711934
232	0x3e025363	0.12727122
233	0xbe84389a	-0.25824434
234	0xbd0070b5	-0.031357486
235	0xbdbd0396	-0.092291996
236	0x3d0356cd	0.0320652
237	0xbe9721cc	-0.29517972
238	0x3d2dde9e	0.042448632
239	0x3e07a166	0.13245162
240	0xbdd40b70	-0.10353744
241	0x3d047a9e	0.0323435
242	0xbe348f54	-0.176328
243	0x3d051770	0.032493055
244	0xbd6f2749	-0.058387075
245	0x3d1bab25	0.038005013
246	0x3dcf8373	0.10132494
247	0xbcf3e1de	-0.029770788
248	0xbe26ae0b	-0.1627733
249	0xbd78a586	-0.06070473
250	0xbd4b922a	-0.04969994
251	0x3d80a6f4	0.06281844
252	0x3d867be1	0.06566597
253	0xbe27ff49	-0.16405977
254	0xbdee101f	-0.116241686
255	0xbda845a3	-0.08216407

bias f4 [50]
0	0x3dbbceab	0.09170278
1	0x3d82ec4a	0.06392725
2	0xbd77fddd	-0.060544837
3	0x3d14eb29	0.03635708
4	0x3e2ec978	0.17069042
5	0x3dd0b4ae	0.10190712
6	0x3e06d453	0.13166933
7	0x3dcc79e0	0.09984183
8	0x3d9a1e21	0.07525278
9	0x3d3e78ca	0.046501912
10	0xbd845a83	-0.06462576
11	0xbdd4f9f0	-0.10399234
12	0x3e81ad38	0.25327468
13	0xbd80ddd9	-0.06292314
14	0x3df5e66f	0.12006842
15	0x3d43dae7	0.047816183
16	0x3e121f40	0.14269733
17	0x3e5632b9	0.20917787
18	0xbdf6550d	-0.12027941
19	0x3e4231cf	0.18964313
20	0xbbf5635f	-0.0074886526
21	0xbd0d95cb	-0.03456668
22	0xbdc55b31	-0.09636534
23	0xbdb16aed	-0.086629726
24	0x3d070ffc	0.03297423
25	0x3ddfb312	0.10922827
26	0x3d42df78	0.047576398
27	0xbdcd87be	-0.100356564
28	0x3e73a3a9	0.237929
29	0x3dac8634	0.08424035
30	0x3b8023e2	0.0039105276
31	0xbd13700f	-0.03599554
32	0xbe2d0909	-0.16897978
33	0x3d866497	0.06562155
34	0x3e749e87	0.23888598
35	0xbd273fd3	-0.040832352
36	0xbdf22708	-0.11823851
37	0x3dcdaf00	0.10043144
38	0xbc95d030	-0.018287748
39	0xbcbfea1b	-0.02342706
40	0x3da5fc5b	0.081047736
41	0x3e08c93c	0.13358015
42	0x3b4d3543	0.0031312264
43	0x3e75a678	0.23989284
44	0xbe217bff	-0.15769957
45	0x3e390a4e	0.18070337
46	0xbdc25459	-0.09488744
47	0xbdf31003	-0.11868288
48	0x3be8b38b	0.0071014813
49	0x3e96fba0	0.2948885

weight f4 [50, 50]
0	0xbc65173f	-0.013982593
1	0xbccb3f49	-0.02481045
2	0x3c8b6cfa	0.017019738
3	0xbc409c61	-0.011756034
4	0xbd8ff0cb	-0.070283495
5	0xbcba81b9	-0.022766935
6	0xbd2b9e78	-0.041899174
7	0xbcd31432	-0.025766466
8	0xbbecfff9	-0.0072326628
9	0x3c8ac768	0.016940787
10	0x3d3d2198	0.046174616
11	0xbb2fa3bc	-0.0026800474
12	0x3b98ab06	0.0046590595
13	0xbda90ec6	-0.08254771
14	0x3c0a4c31	0.008441017
15	0xbbf55272	-0.007486635
16	0xbc5e9d54	-0.013587315
17	0xba8a9253	-0.0010572172
18	0x3a09a16d	0.00052501896
19	0xbdddbaaf	-0.10826623
20	0xba495503	-0.0007680209
21	0x3d72e307	0.05929854
22	0x3cb45df7	0.022017462
23	0xbe059473	-0.1304491
24	0xbd080021	-0.033203248
25	0xbb04f5a0	-0.0020288005
26	0xbb757f0f	-0.0037459766
27	0xbdb4e60e	-0.08832942
28	0xbd912936	-0.070879385
29	0x3c5e3b9d	0.013564018
30	0x3bfa75c0	0.0076434314
31	0x3be2610e	0.0069085425
32	0x3d4b61af	0.049653705
33	0xbdae7386	-0.08518128
34	0x3cd3943e	0.025827523
35	0xbd07037b	-0.032962304
36	0xbc8a98b5	-0.01691852
37	0x3d3e5b1d	0.04647361
38	0xbc8f67a8	-0.017505482
39	0xbc4e73fa	-0.012600893
40	0xbcd3dd41	-0.025862338
41	0xbca628f7	-0.020283205
42	0xbd94ee48	-0.07272011
43	0xbc99a5d6	-0.018755835
44	0x3c64e4cd	0.013970566
45	0xbd19eea2	-0.037581094
46	0xbd09c8a9	-0.03363863
47	0x3d22341c	0.039600477
48	0x3d5f9869	0.05458871
49	0x3d6b54dd	0.05745398
50	0x3d3671f2	0.04454226
51	0x3c8740b9	0.016510354
52	0xbd098139	-0.033570502
53	0xbcc33f85	-0.023834
54	0xbd16aca2	-0.03678573
55	0x3ceb6b96	0.028737824
56	0xbcc9abdd	-0.024618084
57	0xb9dcfdbf	-0.00042150725
58	0xbcb41c65	-0.021986196
59	0x3c18ffe0	0.009338349
60	0x3dc29014	0.09500137
61	0x3bfcf71e	0.0077198884
62	0xbd57ed69	-0.052716646
63	0x3d922a24	0.07136944
64	0xbd47474a	-0.04865197
65	0xbcb82ead	-0.022483194
66	0xbcd9a73f	-0.026569007
67	0xbe3ade85	-0.18248947
68	0xba17f1e6	-0.00057962385
69	0xbd199d0a	-0.03750328
70	0x399c3bd8	0.00029799226
71	0xbce2ece7	-0.027700854
72	0x3da6d055	0.08145205
73	0xbd1d456c	-0.038396284
74	0xbcaf958d	-0.021433616
75	0x3b600e17	0.0034188086
76	0xbd41d999	-0.047326658
77	0x3d452fa7	0.048141148
78	0xbded2ba9	-0.11580593
79	0x3d277c6e	0.04089015
80	0xbd04db37	-0.032435622
81	0x3d88f608	0.06687552
82	0x3d9e5a76	0.07732098
83	0xbb8e6025	-0.0043449574
84	0xbde61ba0	-0.11235738
85	0x3d5bcc22	0.053661473
86	0x3d1c868f	0.038214263
87	0xbe1402f8	-0.14454257
88	0xbdb46548	-0.0880838
89	0xbc685d35	-0.014182379
90	0xbd0a7e72	-0.033811994
91	0xbdb5dd8c	-0.08880147
92	0xbca90a54	-0.020634808
93	0xbe039793	-0.1285079
94	0x3dc6ba0e	0.09703456
95	0xbdfc2312	-0.12311377
96	0x3d8c0958	0.0683772
97	0x3cf8000d	0.030273462
98	0x3d884860	0.066544294
99	0xbe6511ff	-0.22370146
100	0xbd1a9c90	-0.037746966
101	0xbde4db44	-0.11174634
102	0x3d083366	0.033252142
103	0xbb672b6d	-0.0035273687
104	0xbd140885	-0.036140937
105	0xbb652b14	-0.0034968304
106	0xbb9d4a8c	-0.0048001464
107	0xbd206111	-0.03915507
108	0xbbdd32db	-0.006750447
109	0x3b829974	0.003985578
110	0xbd2767d4	-0.040870503
111	0x3b934b2c	0.004495045
112	0x3d4df236	0.05027982
113	0xbcbcc23c	-0.023041837
114	0xbaa1d95f	-0.0012348107
115	0x3c480793	0.012208837
116	0xbd3d68ef	-0.04624265
117	0x3d8010b4	0.06253186
118	0x3a560b11	0.0008165101
119	0xbc108c81	-0.008822561
120	0x393818d6	0.0001755686
121	0xbd5ae5e3	-0.053441893
122	0x3c314ab5	0.010821034
123	0x3dcceaea	0.10005744
124	0x3d800e80	0.06252766
125	0xbc4f7192	-0.012661355
126	0xbc8e564e	-0.017375138
127	0x3b01fadf	0.0019833369
128	0xbd92edc7	-0.07174259
129	0x3b1f28d9	0.0024285822
130	0xbd2e3283	-0.04252864
131	0xbd191291	-0.037371222
132	0xbc0af797	-0.008481882
133	0xbd5f5ba6	-0.054530762
134	0xbdfd6527	-0.12372809
135	0x3d1f0570	0.038823545
136	0xbd5b097f	-0.053475853
137	0x3c96e439	0.018419372
138	0xbd1580c3	-0.03649975
139	0x3da9d5dd	0.08292744
140	0xbbdf0561	-0.006806061
141	0x3d6cd352	0.05781872
142	0xbd3dd76f	-0.04634803
143	0x3d789684	0.060690418
144	0xbcc376c2	-0.02386034
145	0x3d4be30f	0.049777087
146	0x3d6910b8	0.05690071
147	0x3c918e0b	0.017767927
148	0xbc76f1b1	-0.015072272
149	0xbd4e3c55	-0.050350506
150	0x3d873335	0.06601564
151	0x3d19dae6	0.037562273
152	0xbc33df73	-0.010978567
153	0x3c93ec77	0.018057091
154	0x3d3baf4c	0.045821473
155	0x3d5ab3aa	0.053393997
156	0x3da77c6d	0.08178029
157	0x3d9b3a73	0.07579508
158	0xbd2affee	-0.04174798
159	0xbbea006a	-0.0071411626
160	0x3e0e926e	0.13923046
161	0x3e289de0	0.16466475
162	0x3c1e5b1d	0.009665278
163	0x3d8ff886	0.07029824
164	0xbd08fb47	-0.03344276
165	0xbc9b293f	-0.018940566
166	0x3cb4fbd3	0.022092735
167	0x3cb4b119	0.022057103
168	0x3a312ae0	0.0006758403
169	0x3d7a1b73	0.061061334
170	0x3a828a14	0.0009959363
171	0x3da6587f	0.08122348
172	0x3dbbb919	0.09166164
173	0x3e052ca0	0.13005304
174	0xbc855cc0	-0.016279578
175	0x3d3b1fa5	0.045684475
176	0x3c8cc571	0.017183991
177	0x3d987ebc	0.07446048
178	0x3cd363af	0.025804369
179	0x3d6cf46a	0.05785028
180	0x3d899dfe	0.06719588
181	0x3dbe13eb	0.09281143
182	0x3d8d0dae	0.06887375
183	0x3d6d9f4f	0.058013257
184	0xbe17334d	-0.14765663
185	0x3d5cb831	0.053886596
186	0x3dd5f50c	0.104471296
187	0x3cf122bf	0.029435514
188	0x3de38142	0.11108638
189	0x3c7b654c	0.015343975
190	0xbd9f2687	-0.077710204
191	0x3d03f585	0.032216568
192	0x3ccc9b04	0.024976261
193	0x3bab5912	0.005229124
194	0x3e7266fa	0.23672095
195	0xbce61d84	-0.028090246
196	0x3dd325ad	0.103099205
197	0x3da3b1f0	0.07992923
198	0x3da81fb9	0.082091756
199	0xbcfb6304	-0.030686863
200	0xbccad72d	-0.024760807
201	0x3bd559b8	0.0065109394
202	0xbc8e20ba	-0.01734959
203	0xbcff2669	-0.031146245
204	0x3d0d7c69	0.034542475
205	0xbd265caa	-0.040615715
206	0xbd077766	-0.03307285
207	0xbc7d0b99	-0.01544466
208	0x3c8af26d	0.0169613
209	0xbc4617f6	-0.012090674
210	0x3ce00e07	0.027350439
211	0xbbbbe1a5	-0.005733686
212	0xbd5e5da5	-0.054288525
213	0x3d8ab677	0.06773084
214	0xbcfb7f6b	-0.030700406
215	0xbbbffaab	-0.0058587394
216	0xbc6c2952	-0.014414148
217	0xbd6eac36	-0.058269702
218	0x3a4ce2c7	0.0007815775
219	0x3ce947f1	0.028476687
220	0xb92cb88c	-0.00016471947
221	0xbd218494	-0.039433077
222	0x3d24b360	0.040210128
223	0xbbd3cac6	-0.0064633815
224	0xbd62ccd0	-0.055371106
225	0x3d4419df	0.047876235
226	0xbc9a2b71	-0.018819543
227	0x3cf5a7cd	0.02998724
228	0xbd7456df	-0.05965316
229	0xbceb1331	-0.028695675
230	0x3d21f77e	0.039542668
231	0x3cc6e411	0.024278672
232	0xbcbba167	-0.022904111
233	0xbcddd7c3	-0.027080422
234	0xbd3a795f	-0.045525905
235	0x3bc5f007	0.0060405764
236	0x3d99d5a9	0.075114556
237	0xbbd49875	-0.006487901
238	0xbcfcec2d	-0.030874336
239	0xbd7b8b83	-0.061412346
240	0xbcad676f	-0.021167485
241	0xbd274ec6	-0.04084661
242	0xbd1c2856	-0.038124405
243	0xbd35ea24	-0.044412747
244	0xbca04ce4	-0.019567914
245	0xbcc5c209	-0.024140375
246	0xbc72d490	-0.014821187
247	0xbcfc6791	-0.030811103
248	0xbd03b16e	-0.032151632
249	0xbcea961e	-0.028636035
250	0x3ba987da	0.0051736655
251	0xbc7936ae	-0.015210791
252	0xbc3fb4af	-0.011700793
253	0xbd30d2b0	-0.043169677
254	0xbcb28f8f	-0.02179697
255	0x3d82293f	0.06355523

bias f4 [50]
0	0xbc66ac3a	-0.014079148
1	0xbdb18957	-0.086687736
2	0xbbe81418	-0.0070824735
3	0xbcc0e4cb	-0.023546597
4	0xbd1216b7	-0.035666194
5	0xbca26e14	-0.01982788
6	0xbd233c49	-0.039852414
7	0x3dc95660	0.09830928
8	0x3d392b12	0.04520709
9	0xbd57b0d4	-0.05265887
10	0xbcc1621a	-0.023606349
11	0x3aa1e983	0.0012352917
12	0x3c5e13b6	0.013554504
13	0xbcf53060	-0.029930294
14	0xbd8f5acf	-0.06999742
15	0xbc7fb974	-0.01560818
16	0x3cd60bf0	0.02612874
17	0xbd07accb	-0.033123773
18	0x3d631de6	0.055448435
19	0x3c6d8ef3	0.014499414
20	0x3c3ab1b2	0.011394905
21	0xbd07eea4	-0.03318657
22	0x3cc40ac7	0.02393092
23	0x3d02bb94	0.03191717
24	0xba9b329e	-0.0011840647
25	0x3d61ec8f	0.05515724
26	0xbc9ee36f	-0.019395558
27	0xba91746e	-0.0011097321
28	0x3b19a18e	0.0023442241
29	0xbc974765	-0.01846666
30	0x3becffd8	0.0072326474
31	0x3d659594	0.056050852
32	0x3d90e05a	0.07074042
33	0xbd9ff2b7	-0.07809966
34	0x3ccb0008	0.024780288
35	0xbd500274	-0.05078359
36	0xbd8596d5	-0.065229096
37	0xbdea57d7	-0.11442535
38	0xbd10423d	-0.03521942
39	0x3dab7b83	0.08373167
40	0xbd1d5681	-0.038412575
41	0x3ce13e61	0.027495565
42	0xbd019d6b	-0.031644266
43	0x3d438148	0.047730714
44	0x3cb8d734	0.022563554
45	0x3cd6677d	0.026172394
46	0x3db1b64c	0.086773485
47	0x3d2ffa20	0.042963147
48	0xbc86acf2	-0.016439889
49	0xbcf52792	-0.029926095

weight f4 [50, 50]
0	0x3e165932	0.14682463
1	0xbf09d298	-0.53836966
2	0xbc51ad93	-0.012797731
3	0xbf2f92a3	-0.68583125
4	0x3d35f459	0.04442248
5	0xbdfb7421	-0.12278009
6	0xbd37d0e8	-0.044876963
7	0x3e2ce343	0.16883568
8	0xbd5b0be4	-0.053478137
9	0x3dd77edd	0.10522244
10	0x3d4b26f7	0.049597707
11	0xbd85274f	-0.06501638
12	0x3b97a555	0.0046278634
13	0xbe61f2a2	-0.22065213
14	0xbddb38d7	-0.10704201
15	0x3e0f0bdd	0.13969369
16	0xbda9f292	-0.0829822
17	0x3ad790e7	0.0016446383
18	0xbd61b8c5	-0.05510785
19	0xbc4c23d5	-0.012459715
20	0xbd24a719	-0.04019842
21	0x3e18027e	0.148447
22	0x3d665cb7	0.056240764
23	0xbcf13858	-0.029445812
24	0x3d485ed0	0.048918545
25	0x3e7e626d	0.24842234
26	0xbdca1ca1	-0.09868742
27	0xbd9f8fe9	-0.077911206
28	0xbf31d9fb	-0.69473237
29	0x3d8fca15	0.07020966
30	0xbde7664f	-0.11298811
31	0x3db79b5e	0.08965181
32	0x3e796a87	0.24357043
33	0xbe94dcd2	-0.29074723
34	0x3bd9b169	0.0066434634
35	0xbe0e41ba	-0.1389226
36	0xbd8fcabf	-0.070210926
37	0xbf42e426	-0.76129377
38	0xbe5fc37a	-0.21851912
39	0x3e8bd78b	0.27312884
40	0xbd9f8559	-0.07789106
41	0x3e578488	0.2104665
42	0xbe5369f3	-0.20645885
43	0xbcad285f	-0.021137415
44	0x3e186631	0.14882733
45	0x3da15adc	0.07878658
46	0x3d8767c3	0.06611588
47	0x3e3f40f5	0.18677123
48	0xbe091d8e	-0.1339018
49	0x3da3eed8	0.0800454
50	0x3d0dc825	0.0346147
51	0x3dbe63c0	0.092963696
52	0xbd98e2f7	-0.07465165
53	0x3e0a7f63	0.13525157
54	0xbdf71f26	-0.12066488
55	0xbdb46441	-0.088081844
56	0x3c423c75	0.011855234
57	0xbd38efb8	-0.04515049
58	0xbd7395e5	-0.059469122
59	0x3d4d6812	0.050148077
60	0x3d6bde7c	0.057585225
61	0xbd7fedfd	-0.062482823
62	0xbdf1b64a	-0.11802347
63	0x3dc8af08	0.097990096
64	0xbe107c38	-0.14109886
65	0xbda08741	-0.07838298
66	0xbe0bc827	-0.13650571
67	0x3b73d6d3	0.0037206903
68	0x3d9c369a	0.07627602
69	0x3d0c4154	0.03424199
70	0xba3722e1	-0.00069860934
71	0xbb96ed73	-0.004605943
72	0xbd96a7ca	-0.07356222
73	0xbdce71dd	-0.100803114
74	0x3d514f7e	0.0511012
75	0xbded7fbb	-0.11596628
76	0x3d844fe4	0.064605504
77	0x3be5c51b	0.007012022
78	0xbd5c1dff	-0.053739544
79	0xbdb83110	-0.08993733
80	0xbdab5e39	-0.08367581
81	0x3dbbbbac	0.09166655
82	0xbc7eb7fa	-0.015546793
83	0xbe0a5dc5	-0.13512333
84	0x3c54d301	0.01298976
85	0x3e102a32	0.14078596
86	0xbd54d9bd	-0.051965464
87	0x3df93c3f	0.12169694
88	0x3d667685	0.056265373
89	0xbd34771b	-0.0440589
90	0xbc973718	-0.018458888
91	0xbc3bb01f	-0.011455565
92	0xbd192d3a	-0.037396647
93	0x3d387cb0	0.045040786
94	0x3deab63e	0.11460541
95	0x3db61b3c	0.08891913
96	0xbc3c7098	-0.011501454
97	0xbd40ca85	-0.047068138
98	0xbd290e74	-0.04127355
99	0x3d6a059b	0.057134252
100	0xbe8457ac	-0.25848138
101	0xbddd0b79	-0.10793204
102	0xbc97e50a	-0.018541832
103	0xbdf1e2ff	-0.11810874
104	0xbdb1d951	-0.08684028
105	0xbea7bf74	-0.32763255
106	0xbe34c901	-0.17654802
107	0x3dec9d88	0.11553484
108	0x3e09ed46	0.13469419
109	0xbd1aa54f	-0.037755307
110	0xbd8ce29c	-0.0687916
111	0x3cf66316	0.030076545
112	0xbda94098	-0.082642734
113	0x3c4a7abc	0.012358364
114	0xbe219312	-0.15778759
115	0x3ddd86ef	0.10816752
116	0xbe084a10	-0.13309503
117	0xbe8caa22	-0.2747355
118	0xbd9e12df	-0.07718443
119	0xbe025ff0	-0.1273191
120	0xbd2d8274	-0.042360738
121	0xbe88db94	-0.26730025
122	0xbcdeaaca	-0.027181048
123	0xbc2187a9	-0.009859004
124	0x3d39311b	0.045212846
125	0x3d1989ca	0.03748492
126	0xbe38c36b	-0.18043296
127	0xbd8ba32c	-0.06818232
128	0xbed9ce01	-0.4253998
129	0xbdacd933	-0.08439865
130	0xbdc36acd	-0.09541855
131	0x3e0f1a00	0.13974762
132	0x3cecfb70	0.028928488
133	0x3dd4c5b5	0.10389272
134	0x3e0c41e7	0.13697015
135	0xbdbbe7c2	-0.09175064
136	0xbeda38cb	-0.42621455
137	0xbd07b59a	-0.033132173
138	0xbd7ea379	-0.06216762
139	0x3e29c440	0.1657877
140	0xbd932233	-0.07184257
141	0x3cab9ee3	0.020949787
142	0xbde52e07	-0.1119042
143	0x3d58e181	0.052949432
144	0x3db48e40	0.088161945
145	0x3c76b82f	0.015058561
146	0x3e2e2d08	0.17009366
147	0xbdfca97d	-0.12337015
148	0xbd65f72a	-0.056143917
149	0xbe0b5fb2	-0.13610724
150	0xbe8f4940	-0.27985573
151	0xbe210986	-0.15726289
152	0xbd278caa	-0.040905632
153	0x3daf4aab	0.08559164
154	0x3edbf26b	0.42958388
155	0xbde72f74	-0.11288348
156	0xbef84e16	-0.48497075
157	0x3e03f23a	0.12885371
158	0xbdd58b94	-0.10427013
159	0xbdc6d21b	-0.09708043
160	0x3e09d6f2	0.13460901
161	0xbd8063c3	-0.06269028
162	0x3cd96bcf	0.026540665
163	0xbb59b921	-0.0033221918
164	0xbbba8cee	-0.0056930697
165	0xbe900deb	-0.2813562
166	0xbe58f103	-0.21185689
167	0x3d92218f	0.07135307
168	0x3e3931b1	0.18085362
169	0x3e93c578	0.28861594
170	0x3e84374d	0.2582344
171	0xbf3683df	-0.7129497
172	0xbd5b2e77	-0.05351111
173	0x3deddc73	0.11614313
174	0xbe3161d6	-0.17322478
175	0xbde52cfc	-0.11190221
176	0xbda691fd	-0.08133314
177	0xbe8d6df0	-0.27622938
178	0xbb3428f8	-0.002749024
179	0xbd625c25	-0.055263657
180	0xbcdf9629	-0.027293282
181	0x3d51d06c	0.051224157
182	0xbd97c474	-0.07410517
183	0x3e1ae0a5	0.15124758
184	0x3dc75cb4	0.097344786
185	0x3d4e82db	0.050417762
186	0x3d8a4afd	0.06752584
187	0x3d8e68e0	0.06953597
188	0x3c9d195c	0.019177131
189	0xbd866ed1	-0.06564105
190	0xbd866c19	-0.06563587
191	0xbe1cb3c2	-0.15302947
192	0x3e29d99e	0.1658692
193	0xbd66327c	-0.05620049
194	0xbdbf30cc	-0.09335479
195	0xbd7b785a	-0.061394073
196	0xbe3461a4	-0.17615372
197	0x3e2b193b	0.16708843
198	0x3e8607e3	0.26177892
199	0xbe35084f	-0.1767895
200	0x3da6f977	0.081530504
201	0x3cbc4ecf	0.022986798
202	0x3cc39020	0.023872435
203	0xbdab8d4a	-0.08376558
204	0x3d14f9da	0.03637109
205	0xbd0a15c6	-0.03371217
206	0xbc2f26a3	-0.010690364
207	0x3d18489c	0.03717862
208	0x3de689fb	0.112567864
209	0x3dbbad0a	0.09163864
210	0xbd933c38	-0.0718922
211	0x3e191bff	0.14952086
212	0x3d5b8c67	0.053600695
213	0xbcc3a82f	-0.023883907
214	0x3de66961	0.11250568
215	0x3d8c3b2c	0.06847224
216	0xbce6a1f8	-0.028153405
217	0xbda75283	-0.08170035
218	0xbd212e0b	-0.03935055
219	0x3e1ebfe5	0.1550289
220	0x3e0c7341	0.13715841
221	0x3cc1e077	0.023666603
222	0xbd4e40a0	-0.0503546
223	0x3d9bf5f8	0.07615274
224	0x3e72332b	0.23652332
225	0x3d745e44	0.05966021
226	0x3c8eb012	0.017417941
227	0xbdbba6b1	-0.09162653
228	0x3d47c2e1	0.048769835
229	0x3c9190b8	0.017769203
230	0xbd25ef55	-0.040511448
231	0x3da20178	0.079104364
232	0xbd6ba974	-0.05753465
233	0x3d5bd0e8	0.053666025
234	0x3cc21473	0.023691392
235	0x3beb9cf4	0.007190341
236	0xbdbf4537	-0.093393736
237	0x3d8142f0	0.063115954
238	0xbca231e8	-0.019799188
239	0xbadaf3d9	-0.0016704752
240	0x3daee5e9	0.08539946
241	0x3d96c6e8	0.07362157
242	0x3d54eb1a	0.051982023
243	0xbe5c29b3	-0.21500282
244	0x3cae5440	0.021280408
245	0xbdba88b1	-0.09108103
246	0xbd53ffae	-0.051757507
247	0xbe10945f	-0.14119099
248	0xbdfb401d	-0.12268088
249	0x3d9ef42f	0.07761418
250	0x3e5cb39c	0.2155289
251	0x3e9f5264	0.31117547
252	0xbe0a4e0b	-0.13506334
253	0x3e53bac5	0.20676716
254	0x3d0265cb	0.03183536
255	0x3da2c8a5	0.07948426

bias f4 [50]
0	0x3e54df58	0.20788324
1	0xbdcbccc8	-0.09951168
2	0x3e091d69	0.13390125
3	0x3e1f16e6	0.15536079
4	0xbdecb20e	-0.11557399
5	0x3a4fac0a	0.0007922059
6	0xbe01fb65	-0.12693556
7	0xbd854d3c	-0.06508872
8	0xbd73436c	-0.05939047
9	0x39ed0ec2	0.00045215158
10	0x3d89825e	0.06714319
11	0xbd38dace	-0.045130543
12	0x3e111b25	0.14170511
13	0xbe0e1f1d	-0.13879056
14	0xbddf2fed	-0.10897813
15	0xbcfeae5c	-0.031089
16	0xbd9f2046	-0.077698275
17	0x3cdecc70	0.027197093
18	0xbda66a57	-0.081257515
19	0x3df2a21a	0.11847325
20	0x3df310eb	0.11868461
21	0xbd6a9703	-0.057272922
22	0xbd627b99	-0.055293653
23	0xbdf9e352	-0.12201561
24	0x3dc63db2	0.09679736
25	0xbd6ded14	-0.058087423
26	0x3bdff658	0.0068347864
27	0x3e0bcb98	0.13651884
28	0xbdfcd056	-0.123444244
29	0xbd68908d	-0.05677848
30	0x3e01fdb5	0.12694438
31	0x3e23d428	0.159989
32	0x3e88621e	0.26637357
33	0x3e2df533	0.16988067
34	0x3e246fc2	0.16058257
35	0xbc4b08aa	-0.012392202
36	0x3c9de1bf	0.019272683
37	0xbc4c7169	-0.012478211
38	0xbd76a4a1	-0.060215596
39	0x3e1cafc2	0.15301421
40	0x3ccb1fab	0.024795374
41	0xbd8722d8	-0.06598443
42	0x3e35412d	0.17700644
43	0xbda8a831	-0.08235205
44	0x3e161025	0.14654596
45	0xbe206d1a	-0.15666619
46	0xbcb2b8c2	-0.021816615
47	0xbddfd8bd	-0.109300114
48	0x3e87577b	0.2643393
49	0xbb5f1d10	-0.0034044422

weight f4 [50, 50]
0	0x3e965b99	0.29366758
1	0x38737efb	5.8053974e-05
2	0xbd65dc16	-0.056118093
3	0x3d0bccda	0.03413091
4	0xbcdc7b96	-0.0269144
5	0x3c4b9d09	0.012427577
6	0xb8d3542a	-0.00010076941
7	0x3bb50697	0.005524467
8	0xbce470a3	-0.02788574
9	0x3d60e571	0.054906312
10	0xb9c69225	-0.0003787439
11	0xbd58cdd3	-0.052930664
12	0xbd066be8	-0.03281775
13	0xbd353bad	-0.044246364
14	0xbc8567b7	-0.016284807
15	0xbd139481	-0.036030296
16	0x3bf4624a	0.007458006
17	0x3b9e5f62	0.004833148
18	0xbcf619b5	-0.030041555
19	0xbcc4d7da	-0.024028707
20	0x3d35fbf7	0.044429746
21	0xbd899a56	-0.0671889
22	0xbcb79e8d	-0.02241447
23	0x3c533f34	0.012893487
24	0xbd8c6d36	-0.06856768
25	0xbd3e36a9	-0.046438847
26	0x3c82c160	0.015961349
27	0xbd8fe62f	-0.07026326
28	0x3d49e969	0.049294863
29	0xbd6c1e09	-0.05764583
30	0xbd310048	-0.04321316
31	0xbd080973	-0.033212136
32	0xbd8d6e08	-0.069057524
33	0x3c928eec	0.017890416
34	0x3cb8a765	0.022540757
35	0x3a3958da	0.000707043
36	0xbd1d56e8	-0.03841296
37	0xbdac3db5	-0.08410207
38	0xbd6f3a56	-0.058405243
39	0x3d53cc14	0.051708296
40	0xbd1af9b5	-0.037835795
41	0x3dab696c	0.08369717
42	0x3e0d23ae	0.13783142
43	0x3d98f981	0.07469464
44	0xbdabc4e1	-0.08387161
45	0x3c9afc6d	0.018919194
46	0xbd3b84c0	-0.045780897
47	0x3bd3765e	0.0064533195
48	0x3e9b820d	0.30372658
49	0xbe35a433	-0.17738418
50	0x3d8daffa	0.069183305
51	0xba62470d	-0.0008631803
52	0x3d862f8d	0.06552038
53	0x3e596ae7	0.21232186
54	0x3d0c3b68	0.03423634
55	0x3d0f3244	0.034960046
56	0xb922ec94	-0.00015537656
57	0x3bb2654e	0.0054442054
58	0x3e04b9db	0.12961523
59	0x3deca5ec	0.115550846
60	0xba6da222	-0.0009064992
61	0x3cc8f31e	0.02452999
62	0x3c2ab662	0.01041946
63	0xbd833194	-0.06405941
64	0x3d934797	0.07191389
65	0x3cad305f	0.02114123
66	0x3cf79448	0.030222073
67	0x3e04417a	0.12915602
68	0x3cd5b933	0.026089286
69	0x3cddda76	0.02708171
70	0x3dee636f	0.11640059
71	0xbb6a1d94	-0.0035723196
72	0x3d7ac52d	0.061223198
73	0xbbc83f46	-0.0061110584
74	0x3dd4d40f	0.103920095
75	0x3d4b8b7a	0.049693562
76	0xbbc13b45	-0.005896958
77	0xbd93a966	-0.072100446
78	0x3df0cc7a	0.11757751
79	0x3de86695	0.11347691
80	0x3cd6de61	0.026229085
81	0x3c685bc6	0.014182037
82	0x3c82a9b3	0.01595006
83	0x3cde5e4b	0.027144572
84	0x3d8eec1e	0.069786295
85	0xb9e6ce46	-0.00044022704
86	0x3d77db39	0.0605118
87	0x3cbf1cf6	0.02332924
88	0x3e342c4d	0.17595024
89	0x3da89244	0.08231023
90	0xbd6b194b	-0.057397168
91	0xbbe7b416	-0.0070710285
92	0x3dc529e0	0.09627128
93	0x3d7ff254	0.06248696
94	0x3d934e3d	0.07192657
95	0x3dedc4c1	0.116097935
96	0x3d257212	0.04039199
97	0x3d9a7daa	0.075435
98	0x3d117837	0.035515036
99	0x3d714aa9	0.058909092
100	0x3dd8d219	0.10586948
101	0x393100ad	0.00016880287
102	0xbb86cf42	-0.0041140625
103	0xbd157066	-0.036484145
104	0x3c6d4c5f	0.01448354
105	0xbcf339af	-0.029690592
106	0xb860943a	-5.354381e-05
107	0xbb67135d	-0.0035259344
108	0x3af2cb09	0.0018523644
109	0xbd03144c	-0.03200178
110	0x38bd1d30	9.017659e-05
111	0xbbabe5c7	-0.0052458975
112	0x3cfc7da0	0.030821621
113	0xbceaae9e	-0.028647717
114	0xbdac430b	-0.08411225
115	0x3d3598b6	0.04433509
116	0x3ba12684	0.0049179215
117	0xbc98d4e7	-0.018656207
118	0x3abb5f40	0.0014295354
119	0x3d1f83fb	0.038944226
120	0xbdd598de	-0.10429548
121	0x3c65584a	0.0139981005
122	0x3c45333b	0.01203614
123	0xbbad21bd	-0.005283563
124	0x3bc82bf3	0.006108755
125	0xbd935392	-0.07193674
126	0x3c378613	0.011201399
127	0xbc71de07	-0.014762408
128	0xbceeb128	-0.029137209
129	0x3c5f202b	0.013618509
130	0xbd4f80a4	-0.05065979
131	0x3d1536d3	0.036429238
132	0x3b89ac05	0.0042014145
133	0xbce96f1f	-0.02849537
134	0x3d06ac36	0.032879077
135	0xb83c90c5	-4.495752e-05
136	0xbc8c95f4	-0.017161347
137	0xbd53a1f0	-0.051668108
138	0xbcb9c178	-0.02267526
139	0x3d7b7665	0.061392207
140	0xbbc0382a	-0.0058660703
141	0xbd44bcfa	-0.048031785
142	0x3dcd06a6	0.10011034
143	0x3c8e9dd6	0.017409246
144	0x3cb889a2	0.022526566
145	0xbd00791f	-0.03136551
146	0xbd6ca02b	-0.057769936
147	0xbc0729a2	-0.008249672
148	0x3dd1cca2	0.10244109
149	0x3e556edf	0.20843075
150	0xbe3db036	-0.1852425
151	0x39bf00f2	0.00036431063
152	0x3d980238	0.07422298
153	0xbdd6c75d	-0.10487244
154	0xbbba2bfb	-0.0056815124
155	0xbc4c7670	-0.01247941
156	0xba7cf309	-0.0009649252
157	0xbb9543a7	-0.004555184
158	0xbd9756c5	-0.07389597
159	0xbc859dc3	-0.016310578
160	0xb9befb40	-0.0003642682
161	0x3dcc32ea	0.099706486
162	0x3d3a3543	0.04546095
163	0x3da61377	0.081091814
164	0x3c8baf20	0.01705128
165	0x3d0a9be3	0.03384007
166	0x392987ba	0.00016167658
167	0xbd7661a6	-0.06015172
168	0xbcca5e86	-0.024703275
169	0xba04c0d4	-0.0005064134
170	0xbcdde701	-0.02708769
171	0x3dbe06b4	0.09278622
172	0x3d139f96	0.036040865
173	0xbc423db1	-0.011855529
174	0x3da16887	0.07881265
175	0x3d28013b	0.0410168
176	0x3d32204f	0.043487843
177	0x3d8211b4	0.06351033
178	0xbc12b3cc	-0.008954
179	0x3d72278a	0.05911974
180	0x3d81126b	0.06302341
181	0x3d9c5386	0.07633118
182	0x3da0596b	0.07829555
183	0xbc255327	-0.010090626
184	0xbdc5e0d2	-0.09662022
185	0x3a24f221	0.00062921835
186	0x3d377d4b	0.044797223
187	0x3d95c6dd	0.07313321
188	0x3df011bc	0.117221326
189	0x3d3375b1	0.04381341
190	0x3d9631d9	0.073337264
191	0xbc1f7b33	-0.009733963
192	0xbdf12166	-0.11773948
193	0xbd204a8f	-0.039133605
194	0x3d30565b	0.043051105
195	0x3cee98eb	0.029125651
196	0x3d3ddddf	0.04635417
197	0xbcc8e218	-0.024521872
198	0xbe71b241	-0.23603155
199	0xbda8c8b5	-0.08241407
200	0xbd0cd8d2	-0.034386463
201	0xb9901a5b	-0.00027485457
202	0xbd896b7c	-0.06709954
203	0xbd3fc308	-0.046816856
204	0xbd012986	-0.03153374
205	0xbe0a766b	-0.13521735
206	0xb9df16ea	-0.00042550947
207	0xb8ea228d	-0.00011164425
208	0xbc928d01	-0.017889502
209	0xbd4e28a3	-0.050331723
210	0x39ef1e3e	0.00045608165
211	0xbd4c9b0c	-0.04995255
212	0x3d3055ed	0.043050695
213	0xbd1fd6ac	-0.039023086
214	0xbcc952f8	-0.024575695
215	0xbd670da2	-0.056409486
216	0x3bead8d5	0.0071669617
217	0x3cdf0bff	0.0272274
218	0xbc8007b9	-0.015628682
219	0xbd0d0802	-0.034431465
220	0xbd0656e3	-0.032797705
221	0xbd61a6ce	-0.055090718
222	0xbd90d362	-0.07071568
223	0xba15756e	-0.00057013973
224	0xbdb1fca5	-0.08690766
225	0xba25880b	-0.00063145225
226	0xbd60e357	-0.05490431
227	0xbd1cbe3d	-0.038267363
228	0xbcbd22ca	-0.023087878
229	0xbd156365	-0.036471743
230	0xbd0ac783	-0.033881675
231	0xbcf41942	-0.0297972
232	0xbd342409	-0.04397968
233	0xbd22aee9	-0.03971759
234	0xbc5d9362	-0.013523908
235	0xb9b71f7d	-0.0003492794
236	0xbd4b2844	-0.049598947
237	0xbcd9bf80	-0.026580572
238	0xbd4d77ec	-0.050163195
239	0xbdf02345	-0.11725477
240	0xbbb16c28	-0.0054145046
241	0x3c0a2fd9	0.008434259
242	0xbc8575d8	-0.016291544
243	0xbd22c859	-0.039741848
244	0xbcbfc2dc	-0.023408346
245	0xbce49960	-0.027905166
246	0xbd516cf2	-0.05112929
247	0x3bb942f9	0.0056537357
248	0xbd8df22a	-0.06930955
249	0x3d0b9870	0.034080923
250	0x3e19f396	0.15034327
251	0xba0b30e4	-0.00053097145
252	0x3d75231a	0.05984793
253	0x3da4a8d8	0.08040017
254	0x3cd48428	0.025941923
255	0x3dcdcc1e	0.10048698

bias f4 [50]
0	0xbcd94e57	-0.026526613
1	0x3c1b9371	0.009495602
2	0x3baa1bd4	0.0051913057
3	0x3bd80b88	0.0065931715
4	0xbd1faf37	-0.038985457
5	0xbc72c67a	-0.014817828
6	0xbd1c508a	-0.038162746
7	0x3da75e3a	0.08172269
8	0x3d126689	0.035742316
9	0xbd587d87	-0.052854087
10	0xbcc2d1e0	-0.023781717
11	0x3cdc6fbf	0.026908753
12	0xbbafb6ac	-0.0053623524
13	0xbc18e0db	-0.0093309535
14	0xbd7e9ab1	-0.062159244
15	0xbd14b796	-0.036307894
16	0xbc9361f1	-0.017991038
17	0xbbc47116	-0.005994926
18	0x3d9770bb	0.073945485
19	0x3c8f4fbc	0.017494075
20	0x3c58c687	0.013230926
21	0xbc5cbcf8	-0.013472788
22	0xbc451548	-0.012029
23	0x3d095e41	0.033537153
24	0xbc3b8b72	-0.011446821
25	0x3bd0d734	0.0063733105
26	0xbcb79317	-0.022409005
27	0xbc81325b	-0.015771082
28	0x3c294b36	0.010332873
29	0x3be65568	0.007029224
30	0x3c612975	0.013742794
31	0x3d59a660	0.053137183
32	0x3ca14882	0.019687895
33	0xbd3be86e	-0.04587596
34	0x3c53e05d	0.01293191
35	0xbce034d7	-0.027368946
36	0xbd808474	-0.062752634
37	0xbd68aa73	-0.056803178
38	0xbc8b2554	-0.016985573
39	0x3da72772	0.081618205
40	0x3b16d3c9	0.0023014417
41	0xbb49a795	-0.0030770053
42	0x3bb4050e	0.0054937666
43	0x3d2efa1c	0.04271899
44	0xbb0f8467	-0.0021898986
45	0x3a510f27	0.0007974975
46	0x3d8fbc0e	0.070182905
47	0x3c4b1623	0.0123954145
48	0xbaaf4bdc	-0.0013374048
49	0xbcf8567d	-0.030314678

weight f4 [87, 50]
0	0x3c921d65	0.017836282
1	0x3ddb8fb2	0.10720767
2	0xba886078	-0.0010404726
3	0x3df1a45d	0.11798928
4	0x3d9b1060	0.07571483
5	0x3d2fee07	0.04295161
6	0x3db0d73d	0.086348034
7	0x3e08b113	0.13348798
8	0x3e0d9740	0.13827229
9	0x3e08b2d0	0.13349462
10	0x3aa8a551	0.0012866651
11	0x3e1ba3e4	0.15199238
12	0x3d9b6caf	0.07589089
13	0xbd872370	-0.06598556
14	0xbd871480	-0.06595707
15	0xbd861ba5	-0.065482415
16	0x3de83a93	0.11339297
17	0xbe29ab18	-0.16569173
18	0x3e29818f	0.16553329
19	0x3e0801f9	0.13282003
20	0xbd72b443	-0.059253942
21	0x3e0af4ab	0.13569896
22	0x3d11a6c9	0.03555945
23	0x3ce409ca	0.027836699
24	0xbdc49c01	-0.09600068
25	0xbd0f9422	-0.03505338
26	0x3d5f2b44	0.05448462
27	0xbe1591d3	-0.14606409
28	0xbdaec03f	-0.08532762
29	0x3dfd3f66	0.12365608
30	0xbd22416f	-0.039613184
31	0x3bd3c74a	0.006462966
32	0x3d6a4724	0.05719675
33	0x3d538a8b	0.051645797
34	0x3d639d1c	0.055569753
35	0xbbdab77a	-0.006674704
36	0x3d4fc6bc	0.050726637
37	0x3dd33e7b	0.103146516
38	0x3cfb1a5b	0.030652216
39	0xbcd3af21	-0.025840344
40	0xbd94da74	-0.07268229
41	0x3d3e404d	0.04644804
42	0xbd8fbe72	-0.070187464
43	0xbd211fc7	-0.039336946
44	0x3df6dfa7	0.12054377
45	0x3c1d7044	0.009609286
46	0x3d1a1b99	0.037623975
47	0x3d0961ff	0.033540722
48	0x3d3391f9	0.043840382
49	0xbdfdc71f	-0.12391495
50	0x3ddbb635	0.107281126
51	0x3e027de3	0.12743334
52	0xbdcff147	-0.10153442
53	0xbac3f620	-0.001495067
54	0xbdee959c	-0.116496295
55	0xbcab9650	-0.020945698
56	0x3dfa9188	0.12234789
57	0x3cc8d7de	0.024516996
58	0xbd7422a4	-0.05960335
59	0x3d89f25b	0.06735679
60	0xbcd99fd0	-0.026565462
61	0xbd8fb094	-0.070161015
62	0xbcceb738	-0.02523385
63	0x3be17761	0.006880686
64	0xbcabc123	-0.020966118
65	0xbd8b3f95	-0.06799237
66	0xbdf65e0c	-0.12029657
67	0x3d2db3fb	0.04240797
68	0x3df1277c	0.11775109
69	0x3c82305b	0.015892198
70	0xbde1634e	-0.11005269
71	0xbcaba39b	-0.020952037
72	0xbd64a475	-0.0558209
73	0x3b03c20b	0.0020104672
74	0xbddf39a1	-0.10899664
75	0x3d46abb2	0.048503585
76	0xbe0b0e0a	-0.13579574
77	0xbd8279e2	-0.063709036
78	0xbd56950f	-0.052388247
79	0x3d40fc82	0.04711581
80	0xbdc6802a	-0.09692414
81	0x3e0c1782	0.13680843
82	0x3d08a2c6	0.033358358
83	0xbd9b98a6	-0.07597475
84	0x3cfdbc96	0.030973714
85	0xbd001c0c	-0.031276748
86	0x3d6a0b3a	0.057139613
87	0xbd60147a	-0.054707028
88	0x3d3df10d	0.046372462
89	0xbdb0a65e	-0.08625482
90	0xbe1343ab	-0.14381282
91	0x3cff99b3	0.03120122
92	0xbcb1233a	-0.021623243
93	0x3d96b4cf	0.07358705
94	0xbc8cd031	-0.017189117
95	0xbdd9ce4a	-0.1063505
96	0x3df78e28	0.12087661
97	0xbdd7b64c	-0.10532817
98	0x3dbd872d	0.09254298
99	0xbdc682a7	-0.09692889
100	0x3d0a28bc	0.033730254
101	0x3d991c6c	0.07476124
102	0xbd80566f	-0.06266486
103	0xbdc6da51	-0.09709609
104	0xbda70633	-0.08155479
105	0x3c8dacb3	0.017294263
106	0x3dc60252	0.09668411
107	0x3dd73841	0.105087765
108	0x3d339cab	0.043850582
109	0x3d172fa0	0.036910653
110	0x3d83b6aa	0.06431325
111	0xbd9cf80e	-0.076645
112	0xbd873e93	-0.06603732
113	0x3cdfaf33	0.027305221
114	0xbd9d0baf	-0.07668244
115	0xbd042349	-0.032260213
116	0x3d880657	0.06641834
117	0x3c9c732e	0.01909789
118	0x3e0495e5	0.12947805
119	0x3e0bbef4	0.13647062
120	0xbdfc23f4	-0.12311545
121	0xbd1b80d8	-0.03796467
122	0xbe05c891	-0.13064791
123	0xbde8ef97	-0.11373823
124	0x3bf98ab1	0.0076154103
125	0xbd9ab2e2	-0.075536504
126	0x3d0b208b	0.033966582
127	0xbe155695	-0.1458381
128	0x3e116110	0.14197183
129	0x3d8bb879	0.06822295
130	0x3e2494a5	0.16072328
131	0xbd17afd7	-0.03703293
132	0x3dfae797	0.122512035
133	0x3bbae023	0.0057029887
134	0x3ddbca84	0.10731986
135	0x3ddec565	0.10877494
136	0xbd7b811e	-0.061402433
137	0xbd7b9eb7	-0.06143066
138	0x3dcf0c49	0.10109765
139	0xbc6d0d61	-0.014468522
140	0xbdd06e6a	-0.1017731
141	0xbc478964	-0.012178753
142	0xbe030c19	-0.12797584
143	0x3e0f394e	0.13986704
144	0x3d43564b	0.047689717
145	0x3e00e910	0.12588906
146	0xbd696c5a	-0.056988098
147	0xbe1018f4	-0.14072019
148	0x3d6e271a	0.05814276
149	0xbe0a13af	-0.13484071
150	0x3deddc79	0.116143174
151	0x3e070ca1	0.13188411
152	0x3d3a0b2a	0.045420803
153	0x3d24073d	0.040045965
154	0x3d23876a	0.039924063
155	0x3d4734c7	0.048634317
156	0xba043493	-0.00050432346
157	0xbdd02e04	-0.10165027
158	0x3d97fb80	0.07421017
159	0x3cabc357	0.020967169
160	0xbd4e74ed	-0.050404478
161	0xbc31c1b2	-0.010849403
162	0x3e0f88e9	0.14017071
163	0xbd9a1609	-0.07523734
164	0xbc428ac6	-0.0118739065
165	0x3d361959	0.044457767
166	0xbd77fae9	-0.06054202
167	0xbc97655f	-0.018480955
168	0x3dda7893	0.10667529
169	0x3e036dc1	0.12834837
170	0x3c782362	0.015145155
171	0xbb8b9f13	-0.0042609065
172	0x3d85a6c3	0.06525948
173	0x3de88ea0	0.113553286
174	0xbdd81714	-0.10551277
175	0xbcfd995d	-0.030956918
176	0x3cd70cf6	0.026251297
177	0xbd564070	-0.052307546
178	0x3e0dc95d	0.13846345
179	0xbda8f874	-0.08250514
180	0xbe0000f5	-0.12500365
181	0xbdbe7362	-0.09299351
182	0x3df1313b	0.11776968
183	0xbaa4258a	-0.0012523395
184	0x3dcc9f17	0.099912815
185	0xbdfe8ed1	-0.12429584
186	0xbe13b3bb	-0.1442403
187	0xbe02d194	-0.1277526
188	0x3dc48aad	0.09596763
189	0xbd7590bc	-0.059952483
190	0x3c6d48a3	0.01448265
191	0xbd2d7d66	-0.042355917
192	0xbd82128f	-0.06351196
193	0xbe079f21	-0.13244297
194	0x3e09cb5b	0.1345648
195	0xbc96a4a9	-0.018389063
196	0x3de2e62e	0.110790595
197	0x3dd0b995	0.10191647
198	0xbd165909	-0.036706004
199	0xbd0e1e3f	-0.034696814
200	0x3d618422	0.055057652
201	0xbcb17d1a	-0.021666098
202	0x3c820812	0.015872989
203	0xbc9e50ad	-0.019325579
204	0xbdb70629	-0.08936722
205	0x3c4442c7	0.011978812
206	0xbd5a2db7	-0.053266253
207	0x3de9c92e	0.11415325
208	0xbdea10b2	-0.11428966
209	0x3da6b88f	0.081406705
210	0x3b1e5f63	0.0024165742
211	0xbd224e4c	-0.03962545
212	0x3d41fd4c	0.047360703
213	0xb8e0fec2	-0.00010728605
214	0xbdb2bb3e	-0.0872712
215	0xbd614d36	-0.055005275
216	0xbdf6df29	-0.12054283
217	0x3d1511c7	0.036393907
218	0x3c046cbc	0.008082565
219	0x3ddd84f0	0.108163714
220	0x3db38be9	0.0876692
221	0xbcf2d2ec	-0.029641591
222	0x3c6e3d8f	0.014541044
223	0xbdb65988	-0.089037955
224	0xbdcdf13f	-0.1005578
225	0x3cdc1a5d	0.02686804
226	0xbd120fbb	-0.035659533
227	0x3d9e2b34	0.07723084
228	0x3de57890	0.11204636
229	0x3e1688f4	0.14700681
230	0x3e05d4c5	0.13069446
231	0x3def10fc	0.116731614
232	0xbd5477f5	-0.051872212
233	0x3dac269a	0.084058
234	0x3e25e33b	0.16199963
235	0x3c9ea7bf	0.019367097
236	0xbce7bf75	-0.028289536
237	0xbdf8d5cc	-0.121501535
238	0x3d7c7fc4	0.061645284
239	0xbe0f9b2b	-0.14024036
240	0x3d17952d	0.0370075
241	0xbd0fcd68	-0.035108
242	0xbd21e700	-0.03952694
243	0x3d8315b4	0.06400624
244	0x3dd888e6	0.10572986
245	0x3d906bb8	0.07051796
246	0xbe0858d7	-0.1331514
247	0x3e328689	0.17434134
248	0x3d821c31	0.06353033
249	0xbd8cbf19	-0.068723865
250	0xbdbfdbfb	-0.0936813
251	0xbdc958ea	-0.09831412
252	0xbdb93a9c	-0.09044382
253	0xbd5be2c7	-0.05368307
254	0xbdcfd678	-0.101483285
255	0x3c3c67a7	0.011499322

bias f4 [87]
0	0xbe0edfc8	-0.13952553
1	0xbd3d77ba	-0.04625676
2	0x3e1ece91	0.15508486
3	0x3e135819	0.14389075
4	0xbbe908f3	-0.0071116625
5	0x3dcf885c	0.1013343
6	0x3e1e774a	0.15475193
7	0x3e13e4b8	0.14442718
8	0x3d232db2	0.0398385
9	0xbd946a5a	-0.072468475
10	0xbc8d2be1	-0.017232837
11	0xbcf72c65	-0.030172536
12	0x3cb1f599	0.021723555
13	0xbd565255	-0.05232461
14	0xbd0a914d	-0.033829976
15	0x3d67c198	0.05658111
16	0xbe0f85b3	-0.14015846
17	0xbdf22b76	-0.11824696
18	0x3df46c96	0.119347736
19	0xbcbb2541	-0.022844912
20	0xbd9a6c82	-0.075402275
21	0xbd977f7b	-0.07397362
22	0xbdd5ea87	-0.10445123
23	0xbdc93a86	-0.098256156
24	0x3bbb8d05	0.005723598
25	0xbc8ef20e	-0.017449405
26	0xbdb9b579	-0.09067816
27	0x3d96438c	0.07337102
28	0x3e2e3c77	0.17015253
29	0x3d18fcd0	0.037350476
30	0xbd97f3dd	-0.0741956
31	0x3c3490e3	0.011020872
32	0x3da0a65e	0.07844232
33	0x3e4b2ab2	0.19840506
34	0x3dbd6699	0.092480846
35	0xbd27c23a	-0.040956713
36	0xbdaa933f	-0.08328866
37	0x3ababa61	0.0014246219
38	0xbccd0cbd	-0.025030488
39	0x3e0ff14d	0.14056893
40	0x3e01e9d8	0.1268686
41	0x3dd652c1	0.10465003
42	0x3d56fb75	0.0524859
43	0x3cef60d0	0.029220968
44	0x3d143abd	0.03618883
45	0xbc1eb9f0	-0.009687886
46	0x3d37b281	0.04484797
47	0x3e1fe3db	0.15614264
48	0xbdd40e2e	-0.10354267
49	0xbd4bc9fc	-0.049753174
50	0x3e23034c	0.15919226
51	0x3d8a5176	0.06753819
52	0xbd4c6a1d	-0.049905885
53	0xbacd0ed9	-0.0015644684
54	0xbe132f14	-0.14373428
55	0xbcd73dc1	-0.026274564
56	0x3dd4aae0	0.10384154
57	0x3d8faa30	0.070148826
58	0xbdb39697	-0.08768957
59	0x3e132505	0.1436959
60	0x3daec60d	0.08533869
61	0xbc626937	-0.0138190305
62	0x3da140bc	0.07873675
63	0x3cc95e9c	0.024581246
64	0xbde6c1a4	-0.11267403
65	0x3da7229a	0.081608966
66	0xbcbd015f	-0.023071943
67	0xbd9aedda	-0.07564898
68	0x3ddcbc73	0.10778131
69	0xb9c7dc6c	-0.00038120465
70	0xbe284b79	-0.1643504
71	0xbdf80e15	-0.12112061
72	0x3b954880	0.004555762
73	0xbca4a9e8	-0.020100549
74	0xbd16465e	-0.0366882
75	0xbe0b1fce	-0.13586351
76	0xbd81153c	-0.06302878
77	0x3dd538e0	0.10411239
78	0x3da9f014	0.082977444
79	0xbdad92ad	-0.08475242
80	0x3d1a4a4e	0.03766852
81	0xba84a0f4	-0.0010118769
82	0xbd8f22a6	-0.069890305
83	0xbd584c0e	-0.052806906
84	0x3e26e51f	0.1629834
85	0x3e05fb98	0.13084257
86	0xbd86da5f	-0.0658462

bias f4 [5]
0	0xbac74a28	-0.0015204595
1	0xbac16b05	-0.0014756626
2	0x3bd4d85c	0.0064955186
3	0x3c80dd34	0.015730478
4	0x3c0a21e5	0.008430933

lower_entries f4 [10]
0	0xbb4b2cd1	-0.0031002054
1	0xbb72e43b	-0.0037062305
2	0x3a03a975	0.00050225045
3	0xbbc1e6f1	-0.005917423
4	0xbc2dd00e	-0.010608686
5	0xbac2ef02	-0.0014872255
6	0x3b69e605	0.003569008
7	0xbb84bdf2	-0.0040509636
8	0x3abf3cf7	0.0014590312
9	0x3ba6f704	0.0050953645

upper_entries f4 [10]
0	0x3b2f79e2	0.0026775529
1	0x3ad6c35b	0.0016385125
2	0xb9d9d3ff	-0.00041547415
3	0x3b3d0fa9	0.0028848446
4	0x3a03bb12	0.0005025129
5	0x38c7b779	9.523234e-05
6	0x3bbab894	0.005698273
7	0x3a20a3f3	0.0006127946
8	0xbb029b18	-0.001992887
9	0xbab1c287	-0.0013562002

unconstrained_upper_diag f4 [5]
0	0x3f027975	0.5096658
1	0x3f0261ea	0.50930655
2	0x3f058b87	0.52166027
3	0x3ef12a15	0.4710242
4	0x3f031f9b	0.512201

weight f4 [50, 3]
0	0xbed28084	-0.41113675
1	0xbe4cdb72	-0.20005587
2	0x3ec199d0	0.37812662
3	0xbdd7e182	-0.10541059
4	0x3f1ffceb	0.624953
5	0x3e84e9e5	0.25959697
6	0x3eebb02b	0.46032843
7	0xbeba0f36	-0.3633973
8	0x3ea253a9	0.31704453
9	0x3dfa7449	0.12229211
10	0x3eb6241c	0.35574424
11	0xbe27deef	-0.16393636
12	0x3de15629	0.11002762
13	0x3eb0f8ae	0.34564728
14	0x3e0827ad	0.13296385
15	0x3ce1d7d8	0.027568743
16	0x3efef524	0.49796402
17	0x3e1edd41	0.15514089
18	0x3ee93fcd	0.4555649
19	0x3f014768	0.5049958
20	0x3d939541	0.07206202
21	0xbe68ba68	-0.22727358
22	0x3d1ac4f0	0.03778547
23	0xbe9dcc16	-0.30819768
24	0x3a858b98	0.0010188697
25	0x3e927737	0.2860658
26	0x3ebc5775	0.36785474
27	0x3ed00b6f	0.40633723
28	0x3e082740	0.13296223
29	0x3e08daf0	0.13364768
30	0x3e7b846d	0.24562235
31	0x3ef6eb81	0.4822655
32	0x3db67b15	0.08910195
33	0x3f0e98d5	0.55701953
34	0x3e6c1f59	0.23058833
35	0x3eaf873b	0.3428286
36	0x3e9c5e6d	0.3054079
37	0xbe89e85e	-0.26935095
38	0x3e4f12e7	0.20222054
39	0xbe156439	-0.14589013
40	0x3ec39f8a	0.38207656
41	0x3d04a93a	0.03238795
42	0x3e7850b9	0.24249543
43	0x3e997fc1	0.2998028
44	0x3d8fac3f	0.07015275
45	0xbe9f9ce4	-0.31174386
46	0xbefcb9a7	-0.49360391
47	0x3e547a5c	0.20749801
48	0x3d12ff09	0.03588775
49	0xbee10eb8	-0.43956542
50	0xbe740dc1	-0.23833372
51	0x3ced36b7	0.028956754
52	0x3cea8c1e	0.028631266
53	0x3efee2ec	0.49782503
54	0x3edc335b	0.4300793
55	0x3c0274a4	0.00796238
56	0xbeff6037	-0.49878094
57	0xbc135d3e	-0.008994399
58	0x3e89d1cc	0.26917875
59	0xbeb4ce18	-0.35313487
60	0x3e9529fb	0.2913359
61	0x3ea317ad	0.31854
62	0xbdb75002	-0.08950807
63	0x3cd7eda3	0.026358431
64	0xbf1f1220	-0.6213703
65	0xbea7f171	-0.32801393
66	0x3ec60384	0.38674557
67	0x3ef7a789	0.48370007
68	0xbe6385d7	-0.22219025
69	0xbe9a9acf	-0.30196235
70	0xbed17c66	-0.4091522
71	0xbef52983	-0.47883233
72	0x3c93cb98	0.018041417
73	0x3f123827	0.5711693
74	0x3f39c483	0.7256548
75	0xbb22d7da	-0.0024847896
76	0xbd93f68b	-0.07224759
77	0x3f1cfb22	0.613207
78	0x3e2b3573	0.16719608
79	0x3f1294b1	0.57258135
80	0x3e065f60	0.1312232
81	0x3e0512a0	0.12995386
82	0x3edc49c7	0.43025038
83	0xbdb2a23f	-0.08722352
84	0xbedc74ec	-0.43057954
85	0xbebc7d88	-0.36814523
86	0xbe01c26a	-0.1267182
87	0x3e90c062	0.28271776
88	0xbed71a4c	-0.4201225
89	0xbecc00ae	-0.3984427
90	0x3ec23a30	0.3793502
91	0xbe9ce9f0	-0.3064723
92	0xbea54e51	-0.32286313
93	0x3e216b54	0.15763599
94	0x3ea6a44e	0.3254723
95	0xbe342577	-0.17592417
96	0xbeac1adb	-0.3361424
97	0xbf121005	-0.57055694
98	0x3ea75af1	0.3268657
99	0xbed28544	-0.411173
100	0xbea7c78f	-0.3276944
101	0x3e0baa0a	0.13639084
102	0x3cd42fe6	0.025901746
103	0xbdacc1bb	-0.08435389
104	0xbf0d4c82	-0.55194867
105	0xbda4ffed	-0.080566265
106	0xbf2f8212	-0.68557847
107	0x3efdb0cc	0.49548948
108	0xbe73e060	-0.23816061
109	0x3f042603	0.516205
110	0x3e123453	0.14277773
111	0x3dfcc40c	0.123420805
112	0x3c3dffb8	0.011596613
113	0xbdafbfcc	-0.08581504
114	0x3eacfb3f	0.33785436
115	0x3d1919a7	0.03737798
116	0x3f2407de	0.64074504
117	0x3d49c2de	0.049258105
118	0x3ea56018	0.32299876
119	0xbef0681c	-0.4695443
120	0x3ef319c9	0.4748061
121	0xbd771526	-0.060322903
122	0xbede9042	-0.43469435
123	0x3f0efd35	0.55855113
124	0xbd0c0ec6	-0.034193777
125	0xbe8d5e1b	-0.2761086
126	0xbcb2e0ad	-0.02183565
127	0x3da980f6	0.082765505
128	0x3e336ba1	0.17521526
129	0x3ef30570	0.47465086
130	0x3ecd357c	0.40079868
131	0xbe54b3d4	-0.20771724
132	0xbecfbf6f	-0.4057574
133	0xbec53d02	-0.38523108
134	0xbecb2477	-0.39676258
135	0x3ec36276	0.38161057
136	0xbe4be1e4	-0.19910389
137	0x3f12017b	0.5703351
138	0x3ea56dff	0.32310483
139	0x3ec845cb	0.39115748
140	0x3cc061aa	0.02348407
141	0xbf165a34	-0.5873139
142	0x3dc78cac	0.09743628
143	0x3ee2aac2	0.44270903
144	0xbccfc55f	-0.025362669
145	0x3e304913	0.17215376
146	0xbed87162	-0.42274004
147	0x3e9828a9	0.2971852
148	0x3d70f5b6	0.05882808
149	0xbe0fe73c	-0.14053053
